src/models/model.pth (torch, 956223 bytes, 7 tensors)

weight f4 [256, 768]
00000000: 5c17 0d3c c013 91ba b2e8 3dbc 3aa1 bf3c
00000010: 1c4f 5ebc a046 ab3b 08ba c53c 2c64 19bc
00000020: c88a 083d a062 933b 806a 753c 41b1 aebc
00000030: 68b2 b53c 380c fdbb 60d1 8fbc 80fb a6bc
00000040: 6057 363c 54e2 683c 188c 76bc d039 943b
00000050: c0cf 1cbb 3a37 063d 0833 89bc e4b5 263c
00000060: 00b2 a7ba 90e9 c8bc d415 e43c a0e0 333c
00000070: bc97 fcbc 1cf6 e63c 715f 03bd fb2d efbc
00000080: b0e8 853c fc0b d8bb a8d3 ffbc 2c13 0b3d
00000090: 18c3 eebb 506e 043d 1af4 dabc 5b99 0fbd
000000a0: 8751 90bc 98b2 6a3c 6641 00bd 542c e93c
000000b0: d2ba 43bc eb23 eabc 8ce7 003d f0c2 043b
000000c0: 4946 0dbd 8422 0b3d 7848 e53c c82f 243c
000000d0: d2e2 9f3c 9f20 08bd 989d 883b f4b3 60bc
000000e0: 40a1 253b a04e b6ba 6d6c 13bd b310 d8bc
000000f0: fc95 bdbc a41b a4bc de4b 083d 0807 ba3c
00000100: 80cf f539 c47c db3c 342f 873c c8b3 72bc
00000110: b6af 66bc b804 393c a88b 293c 45dc 83bc
00000120: 64ac 303c a802 bebb 3c8c 0c3c 9843 e23c
00000130: bfa0 c9bc c0e5 483c 4c1f 99bc fc84 a83c
00000140: 602d 0abb 02a2 efbc 7019 0abd 92bf c6bc
00000150: e0ec 7abb f830 ddbb 1202 9c3c a1f0 12bd
00000160: e4d3 853c 1d2e f9bc 40dd d1bb 803d 063a
00000170: c0e7 293b b17b e7bc e046 af3b 62c6 123d
00000180: 207d 8a3b 30dc b33b 1c8c 333c 107e 9c3c
00000190: b081 30bb c462 d0bb b6b1 093d a29c c93c
000001a0: c949 0ebd 3416 b9bb 04c9 a5bc b89e 0ebd
000001b0: 9ef6 953c d8ca 753c 98ce a4bc 30bd 5dbc
000001c0: a094 0c3c 4699 0f3d 4434 60bc af88 93bc
000001d0: 7a89 9d3c e0d4 41bb a82e ff3c 9798 d5bc
000001e0: 88c1 da3c b0d1 21bb bf01 e9bc 8429 0a3d
000001f0: 6064 78bb b882 773c 7aab 0d3d 8098 d73c
00000200: 0000 3335 b26e 8b3c a0bf 6abb 8efa c13c
00000210: 80da fa3c a091 d23a 66e6 833c f09f 043d
00000220: 26dd d3bc 4e46 3ebc 32eb 9c3c 74cd 00bd
00000230: 1a7b b1bc 5445 8c3c 1efe 0ebc f0ec 23bb
00000240: 55b3 08bd e0eb b73b a0e7 423c efa9 9abc
00000250: 74d9 f63c 717a fabc b495 06bd f8b8 09bd
00000260: 2318 debc c05b d7bb 3cbe a23c c464 4f3c
00000270: 724e 4bbc 605c 4f3c 7c83 06bd a093 59bb
00000280: 8281 d63c 907b e73b 14e7 d9bb 98c8 f63b
00000290: dc1a c1bb 4792 0bbd 9014 0e3b 18ad f6bb
000002a0: a8f7 b83b cc4d 2a3c f897 1a3c fcf1 e5bc
000002b0: 90af 653b 4085 743b aae8 943c a0c8 7fbb
000002c0: 44cf 2c3c 1c7b a4bc 40a1 6fbb 52fb b0bc
000002d0: 0057 bbbc 58d1 8e3c e0f5 b13a d0a9 08bb
000002e0: 42ab 32bc 1498 cabc 5fea cfbc 40be efbb
000002f0: b02c 6b3b 5041 65bb 503d 053d a50a 02bd
00000300: 8cc1 e43c 34bb 573c 846b 06bc d478 3b3c
00000310: 804a 4a3a a012 c03c a899 c8bc 18b6 e13b
00000320: 609d 04bd 74ce 123c 56da 09bc e2d1 d73c
00000330: 12ed b6bc aeac 78bc c0f2 f9bb 5213 0a3d
00000340: 7ac0 1fbc 050f 88bc 1275 c3bc e5f6 ecbc
00000350: 805c 57ba d879 88bb 00db 843c 2874 093d
00000360: b668 11bd ce32 0b3d c5fa 98bc 3cef ce3c
00000370: ac89 0c3c 4ea8 c9bc f058 61bb 188e 503c
00000380: 0e58 13bd 80ca 18bb f411 003c fba2 02bd
00000390: 5854 c93c b0e2 073c a3a0 9fbc f95a 9cbc
000003a0: 4a37 b8bc 124b 75bc 9870 0d3c 90a9 f83c
000003b0: 80ec c739 1080 edbc e64a dfbc 6249 b6bc
000003c0: 4024 f33c 3c08 d4bb 9034 1ebc a246 a23c
000003d0: 4044 c73c f9b4 e5bc 4cf6 b33c b064 75bc
000003e0: 7242 2dbc 50c6 c2bb 888c 4ebc 2572 9abc
000003f0: 7062 0e3d 6ac0 09bd c0fa 71bb 681e d1bb
0.008611526 -0.0011068508 -0.011591123 0.023392309 -0.013568666 0.005226925 0.024136558 -0.009362262
0.033335477 0.004497841 0.014979005 -0.021324756 0.022179797 -0.007722404 -0.017555892 -0.020383596
0.01112923 0.014214117 -0.015048049 0.0045234933 -0.002392754 0.032767512 -0.016747966 0.010175202
-0.0012794137 -0.024525434 0.02784244 0.010978848 -0.030834071 0.028193526 -0.032073442 -0.02919673
0.016346306 -0.0065932255 -0.031228855 0.03395383 -0.0072864406 0.032331765 -0.026727725 -0.03505836
-0.017617 0.014324807 -0.03131237 0.02846352 -0.011946397 -0.02858158 0.03147082 0.0020257793
-0.034490857 0.033968464 0.027988657 0.010021158 0.019517336 -0.033234235 0.0041691773 -0.013714779
0.0025273114 -0.001390893 -0.035992075 -0.02637515 -0.023142807 -0.020032711 0.033275478 0.02270843
0.0004688464 0.026792891 0.016502 -0.014813371 -0.014079979 0.011292629 0.010348238 -0.016096244
0.010783289 -0.0057986565 0.008578356 0.027620122 -0.024612783 0.012261808 -0.018691681 0.020571224
-0.0021084175 -0.029252056 -0.033715665 -0.02426127 -0.003828816 -0.0067502223 0.019043956 -0.035874013
0.016336389 -0.030417496 -0.006404549 0.00051208586 0.0025925487 -0.028257223 0.005349025 0.035833724
0.004226342 0.005488895 0.010958698 0.01910308 -0.0026932769 -0.00635943 0.033616744 0.024610821
-0.034738336 -0.005648399 -0.020237453 -0.034819335 0.018306073 0.015001975 -0.020118043 -0.013533875
0.008580357 0.035058282 -0.013684336 -0.018009512 0.019230593 -0.0029576346 0.031150177 -0.026073737
0.026703611 -0.0024691634 -0.028443215 0.033731 -0.0037901625 0.015106849 0.03458736 0.026317835
6.6682696e-07 0.017020557 -0.0035819784 0.023679044 0.030621767 0.0016065128 0.016101073 0.03237909
-0.025862288 -0.011613442 0.019155119 -0.031445935 -0.021665145 0.017122902 -0.008727578 -0.0025013052
-0.03337415 0.0056128353 0.011896044 -0.018879859 0.030132987 -0.030575963 -0.03285761 -0.033623666
-0.027111119 -0.0065722167 0.019866101 0.012658302 -0.01240884 0.012656301 -0.032840237 -0.0033199564
0.026184801 0.0070642903 -0.006649861 0.007531237 -0.0058930945 -0.034075048 0.0021679737 -0.0075279586
0.0056447573 0.010394525 0.009435646 -0.028069489 0.003504727 0.0037310869 0.01817735 -0.0039029494
0.010547463 -0.020078234 -0.0036564618 -0.021604214 -0.022868633 0.017433807 0.0013577305 -0.002085317
-0.010905089 -0.02473072 -0.025380312 -0.0073163807 0.003588479 -0.0034981556 0.032529175 -0.031748433
0.027924322 0.013167191 -0.008204345 0.011442382 0.000771679 0.023446381 -0.024487332 0.0068881623
-0.032376647 0.008960355 -0.008413872 0.026345197 -0.02232984 -0.015177889 -0.007627815 0.03370983
-0.00975048 -0.016608724 -0.023859534 -0.028926322 -0.00082153827 -0.0041649155 0.016217709 0.03355804
-0.03550025 0.033983998 -0.018674264 0.02526056 0.008577745 -0.024616387 -0.0034385286 0.01272919
-0.035972647 -0.0023314059 0.00781678 -0.03189371 0.024576351 0.008293793 -0.019485777 -0.019086348
-0.022487301 -0.014971511 0.0086328015 0.030354291 0.00038132444 -0.028991729 -0.027257394 -0.022251789
0.029680371 -0.006470708 -0.009656087 0.019809071 0.024324536 -0.028040396 0.02196803 -0.014977619
-0.010574924 -0.005944051 -0.012606747 -0.018853256 0.034761846 -0.033630766 -0.003692314 -0.0063817985

bias f4 [256]
00000000: ac8a 673c bd0f 3f3c 0ed1 13bd ffba babc
00000010: d403 cb3c d853 c73b 5c30 a2bc 8e3f 36bd
00000020: 0843 473c ca67 a63b bd42 083d ed52 193c
00000030: 964d 4fbc 2ed6 5c3c cd4e ecbc 40bb d63c
00000040: 687a edbb 4a74 22bc 0a0b 1a3d 7ecf efbc
00000050: c023 36bd 3b80 12bd 6cbd 333c 996d cabc
00000060: 4cb5 113d e8fd bd3c f223 713d e9b9 44bd
00000070: bff0 a2bc d923 953d c326 3f3d 1a10 e5bc
00000080: 7b13 6f3d 1084 813c 905c e2bc a25d 2bbd
00000090: 834d be3b 02c6 d83c ae68 8cbb b6ba c7bc
000000a0: 1129 1e3c 707d 1ebc 5f0c 8bbc e7a7 533d
000000b0: b564 37bc a409 3bbc 0878 c03b ce60 0b3c
000000c0: 3001 2bbc a49b 013c 7091 efbc 3e2f 903c
000000d0: 060b ae3a 1a8b 113d b04e 5f3c dcf6 8ebc
000000e0: 4ef9 fcbc feec 4cbc fc07 ce3c 8942 edbc
000000f0: 58fd 073d 64e8 533c fc15 25bd d9d4 7d3d
00000100: acfa 44bd 2b50 16bd b9ba 573d a011 ecbc
00000110: 83c0 943d c8b2 b2bb 0c56 1d3a a7a7 94b9
00000120: 9801 52bb 3db1 8cbc 0066 dc3c e633 893d
00000130: 8362 0b3c 61bf 1c3c 4c7b c43c 3e23 1dbc
00000140: 9668 d73c 52bc 133d 9a3d 2e3d c8e0 6f3b
00000150: 57ef 97bc e2bf 37bc 5747 f0bc 02fe 25bd
00000160: 79ee eb3c 7909 673c ecd6 ee3c 082e 503d
00000170: 6807 5e3c b367 88ba 613b 473d 2d67 babb
00000180: 3659 c13c 87db 2a3d b6e2 40bd fefa 063d
00000190: 27e1 5e3c e560 c33c 74ae babb c432 42bd
000001a0: 9b0f 2ebd e50b 213d 3cc7 bd3c 166b 8c3b
000001b0: 60e1 0d3c 7f5c 59bc 04a1 3a3d 879c 903d
000001c0: a2a0 863d 979b 7cbc 0c15 10bd 2fba 7bbc
000001d0: d6e2 4b3d d7e1 873d 44c7 853d 2b94 d83a
000001e0: b140 663d 74e8 e5bb 3eca efbc e4b9 033c
000001f0: 3b2d 5cbd 98b6 e73c 89ef 813d d9c9 693d
00000200: aff6 823d 5482 a2bc c693 8a3a 369b 023d
00000210: 2e12 723b 508f 49bc df07 02bc 95a9 053b
00000220: 26ca b73a faf2 1d3c 1028 8b3b 6c32 393c
00000230: 2094 2b3c b88b a43c ff70 2d3c fb3e 0d3c
00000240: b2d0 d6bc 463e c6bc bf80 d63a b9e0 5a3d
00000250: e11b c43c 239d ce3c 6728 113b 0d33 d3bc
00000260: 30a7 5537 c9e2 e6bc 7b6c eb3c 7b90 69b9
00000270: 7c1b aabc 25c9 8ebc 97de 6a3d b9be aabc
00000280: 8408 5cbd 8352 2ebc 9849 2abd b037 823d
00000290: 14b0 12bd 40f3 003d fa1f bd3c ec1b 2e3b
000002a0: 9649 b83b a555 9d3b b962 d6bc ebab 2f3c
000002b0: 2625 023c 607a d0bc 0c34 0c3d 9a20 0dbb
000002c0: 3c90 513b 3fca 333d 9054 103c 6cf2 9cbb
000002d0: b884 c8bc 1c07 69bc e0da 123d 7c1e a73c
000002e0: 03ad 8eba f54b d4bc 50fc b73c 35bd 983b
000002f0: fa74 c23c 67cc 903b 364d 643d a819 a23b
00000300: 6e64 6d3d f430 713c d917 843d 0dd8 f53b
00000310: 1c1b 923d 4ece d4bc 774f 8a3b 233f 63bc
00000320: e7c6 99bc faed a73b 6f18 8e3d 2a3f 8b3d
00000330: 1e9e aebc fbbd 0ebd 10c0 03bd 63e5 07bd
00000340: b855 00bc c7b7 25bd ad92 243d 8dc0 003d
00000350: 9e68 8b39 4117 57bc 1a48 53bd 41bd 4d3d
00000360: 1868 8a3d f33d eb3c f3f1 b63c 5302 5bbc
00000370: 11f0 92bc 0060 aa3c 9fa7 1e3d 6a34 713b
00000380: f909 8139 453d 1fbd 0c92 5b3d 7240 ec3c
00000390: 8150 1dbb d9cc 2ebd 821e 30bc 82c1 3f3d
000003a0: edec 2d3d a752 6c3b 417a 16bd 652a 083d
000003b0: 4c57 893d 54eb 09bd 38b3 62bc 1da9 54bb
000003c0: 11ab c6bc 3c34 03bd 8ba5 07bd 92de 1fbc
000003d0: 6803 6f3d 717a 623c 77aa 973c fc4d 3d3d
000003e0: c263 ac3b 2301 54bd cd68 493d b82c f33c
000003f0: ccaa 413d 9abe 92bc 992f 4bbd 09c8 fc3b
0.014132183 0.011661467 -0.036088042 -0.022794245 0.024782099 0.006082993 -0.01979845 -0.044494204
0.012161978 0.0050782906 0.03326677 0.00935815 -0.012652775 0.013478799 -0.028846169 0.026212335
-0.007247258 -0.009915421 0.037608184 -0.029273745 -0.044467688 -0.03576682 0.010970455 -0.024710463
0.03557329 0.023192361 0.05887217 -0.04802886 -0.019890187 0.07282228 0.046667825 -0.02796178
0.058368187 0.015810043 -0.027632028 -0.041837342 0.00580758 0.026461605 -0.0042849397 -0.024381023
0.009653346 -0.009673461 -0.016973672 0.051673796 -0.011193444 -0.011415873 0.005873684 0.008506967
-0.010437295 0.007910643 -0.029244155 0.017600652 0.0013278432 0.03553305 0.0136296 -0.017451696
-0.030880596 -0.012507675 0.025150292 -0.02896239 0.03320059 0.012933824 -0.04030417 0.061970565
-0.04809062 -0.036697548 0.052668307 -0.028816998 0.07263281 -0.0054534413 0.00060018967 -0.0002835367
-0.0032044407 -0.017174358 0.026904106 0.06699352 0.008507374 0.009567113 0.023984574 -0.009590922
0.026294988 0.036068268 0.042539217 0.0036602486 -0.018546743 -0.011215182 -0.029330892 -0.040525444
0.028800236 0.01410138 0.029155217 0.05082515 0.0135515705 -0.0010406881 0.048640613 -0.005688569
0.02360211 0.041713264 -0.04709121 0.03295421 0.013603485 0.023849914 -0.005697066 -0.047411695
-0.04249535 0.039317984 0.023166291 0.0042852266 0.008659691 -0.013266682 0.045563713 0.07061105
0.06573607 -0.015417955 -0.035176322 -0.015364214 0.049776874 0.066348724 0.065321475 0.001652365
0.05621404 -0.007016236 -0.029271241 0.008039925 -0.053754073 0.02828531 0.06344516 0.057077263
0.063947074 -0.019837536 0.0010572604 0.031886302 0.0036937105 -0.012302235 -0.007936447 0.0020395268
0.0014022037 0.00964045 0.004246719 0.011303525 0.0104723275 0.020086154 0.010586022 0.008620973
-0.02622256 -0.024199616 0.0016365274 0.05343697 0.023939075 0.025221413 0.0022149326 -0.025781179
1.2734716e-05 -0.028184311 0.028738251 -0.00022274435 -0.020765059 -0.017429898 0.057341184 -0.020842897
-0.05371906 -0.0106397895 -0.04157409 0.06358278 -0.035812452 0.03148198 0.023086537 0.0026566936
0.0056240065 0.0048014694 -0.026170122 0.010722141 0.007943427 -0.025448978 0.034229323 -0.0021534325
0.003197684 0.04389405 0.008809224 -0.004789641 -0.024477348 -0.014222886 0.035853267 0.020400278
-0.0010885302 -0.025915125 0.02245918 0.004661227 0.02373742 0.004418898 0.055737697 0.004946906
0.057957105 0.014721144 0.06449861 0.007502562 0.07134077 -0.02597728 0.0042208987 -0.013870033
-0.018771602 0.0051248046 0.06938254 0.06799157 -0.02131563 -0.03484915 -0.032165587 -0.033177745
-0.007832937 -0.040458467 0.040178943 0.03143363 0.00026590092 -0.013128103 -0.051582433 0.050229315
0.067581356 0.028716063 0.022332167 -0.013367253 -0.017936738 0.02079773 0.038734075 0.0036804923
0.00024612228 -0.03887679 0.053606078 0.028839324 -0.0024004283 -0.042675827 -0.010749461 0.046815403
0.04246228 0.0036060007 -0.036737684 0.033243556 0.06706104 -0.033671692 -0.013836674 -0.0032449432
-0.024251493 -0.032032236 -0.03311686 -0.009757655 0.058352858 0.013823138 0.018513901 0.04621695
0.0052609155 -0.051758897 0.04917221 0.02968441 0.047282025 -0.017913152 -0.04960594 0.0077142757

weight f4 [128, 256]
00000000: e033 71bc 47c6 9cbb 5165 9cbd cb1a d3bc
00000010: d2ee 73bd 048e c43c a082 53bd 24ec ae3c
00000020: 8ea6 5b3d 45ce ca3c 3622 343d 9f0f 95bd
00000030: 5855 af3c 24b5 2e3d cb95 47bd c8e6 993c
00000040: 1a8d 3c3d 4034 18bc c62e 79bd 2526 63bd
00000050: dfc8 3dbc bfe9 f4bc 3fb3 54bd a6f1 5bbd
00000060: 5829 10bd 00ac 61ba 9f88 22bd 4dc3 0cbd
00000070: d135 5a3b 0325 bfbc f0d0 d93b c40d 51bd
00000080: 35ee 1b3d 6efe 323d 085a 30bc 3a7c 1b3d
00000090: 1cef 2ebd 003e 8dbc c6b0 57bc 48d7 133c
000000a0: b439 d33c 54d1 873c 8d61 b1bc 1847 33bc
000000b0: e073 aa3c 0ceb ccbc 7c0a 353d 0ab8 8bbd
000000c0: 3420 10bd 3054 10bc 7a2a 683d 380a 253d
000000d0: a93d d53b 8ea2 7ebd 6906 36bd 5867 3fbd
000000e0: 2413 243d 4938 163d 1090 16bd 6af2 053c
000000f0: 230a 82bd e8e6 f03c 9327 c2bc 6ee6 93bd
00000100: 196b 92bd 0fe8 153d 5298 dbba e083 103b
00000110: 8e91 8ebd 5082 17bd 61b7 cfbb 0a95 2ebd
00000120: 3f8b 9a3c f094 fe3c 3a94 60bd fc05 a0bd
00000130: a80d 363c eaec c5bc e732 8ebd 8e4b 083d
00000140: 069b 003d 7a20 15bd ba32 bbbc 535f 243d
00000150: fa91 1b3d d465 2fbd a2fa 4bbd 6401 46bd
00000160: fb43 9fbd 74e5 68bd bc80 cbbc d6ee 12bd
00000170: f034 b83c e416 703d 7edd 8ebd 63b0 233b
00000180: 0013 9c3c 1e85 dd3b 0c79 d33c e151 963c
00000190: c257 edbb 6265 8fbd 0ec1 52bd 9d26 75bd
000001a0: 0099 8ebb 4042 5bbc ff7f 96bd 3213 aebc
000001b0: 9bf6 52bd 1c71 f13c e476 94bc fc29 05bd
000001c0: 01cf 1ebc d4c8 46bc 1ae3 43bd 2ad8 413d
000001d0: 8fbf babc e584 5abd 754a 24bc 5ca0 44bd
000001e0: 9faf 65bd a6cc 5bbd f7fb 113d 91f7 9fbd
000001f0: 5498 ffbb 4150 92bb 25e7 8ebd 7405 62bd
00000200: 10c6 5ebd e14b 39bd 00e5 fabb 869b 193d
00000210: 8929 843c a22f 293b 4074 a43c 91bd eb3c
00000220: a85b b9bc 6f21 a1bd df0a 0abd 8321 93bd
00000230: 7418 2a3d 80e8 dabc 4920 1fbc 3cb4 43bd
00000240: 3bf1 69bd 2be9 c73c 8232 80bd 670d 1b3d
00000250: 5b50 03bc f8b7 b63c 2d66 553b 2b85 d4bc
00000260: f50b 33bd d8f5 ef3c ed4b 9bbc 1c03 47bd
00000270: 2935 76bd 9cf7 28bd 0123 59bd 6c65 7bbd
00000280: f0db 0d3d 5ce8 96bd 89c4 38bd 6d09 053d
00000290: 0acc cd3c 0086 d2b9 3823 99bc cf7a ddbc
000002a0: 3a7f f6bc cd5a 6fbd 9d25 34bd 54ea 0c3d
000002b0: 0527 babc ecda 9dbc 4516 5fbd f4c5 0fbd
000002c0: 707f ca3c 969e 44bd 071a 5bbd fe7b 77bd
000002d0: a5da 08bc 98ba 3f3c 848d 6cbd d05f ce3c
000002e0: aa0d 73bd 705c 953b 8ef9 81b9 ff2d 473c
000002f0: da8e e53c c0db 3ebc cf2a 97bd 12ba 543d
00000300: 92b6 183d d801 0bbd 2ee8 ab3c c031 88bd
00000310: da79 bc3b 46a4 723d 98da 5fbd 1bad 533b
00000320: 14cd c33c 8fcb e53b 8c77 ea3c caff ad3b
00000330: acba 1c3d dfbd 71bd b6ef dfbc dc27 8cbd
00000340: 4b58 84bd 5261 a43c 94a4 67bd 416e 1bbd
00000350: a19f ce3c 7c74 d93b bb44 2d3c 6fb2 383c
00000360: 5781 7bbb c65e 97bd 9961 ecbc 625f 0a3c
00000370: 00e6 ae3b 887a 86bc 019f 0abd d0a4 4cbd
00000380: 590e 3fbd 2af9 223c 8593 97bd ccdb 0cbd
00000390: 2074 78bd ab48 2f3d 88d2 dcbc 7a20 5fbd
000003a0: ffdc 79bd 1c3e f0bc 7989 c43c df93 863c
000003b0: 0e9b 05bd f0b3 e2bb 6a35 e3bb b001 acbc
000003c0: 9a32 a8bc 210a dfbc 565c 3c3c 5865 613d
000003d0: 80d3 22bd f396 c4bb c6a4 37bd 547c 3bbb
000003e0: f042 09bd 20a7 8cbc 8929 5bbd 78b0 d6bc
000003f0: fef5 1bbb a03f 3a3c 0bc0 713b 7f09 ea3c
-0.014721841 -0.0047843787 -0.07636512 -0.025769612 -0.05955393 0.0239935 -0.051638246 0.021352835
0.053625636 0.02475656 0.04397794 -0.0727837 0.021403 0.042653218 -0.048726838 0.018786803
0.046033002 -0.009289801 -0.060835622 -0.0554563 -0.011583536 -0.029896615 -0.051928755 -0.05369725
-0.03519568 -0.0008608699 -0.039681073 -0.03436594 0.0033296237 -0.023333078 0.0066472217 -0.05103852
0.03806897 0.043699674 -0.010763653 0.03796027 -0.0427085 -0.017241478 -0.013164705 0.009023495
0.025784351 0.016579308 -0.021652961 -0.010942243 0.020807207 -0.025014423 0.04419945 -0.06822212
-0.03518696 -0.008809134 0.056681134 0.04029295 0.0065075946 -0.062166743 -0.044439707 -0.046729416
0.040057316 0.03667477 -0.036758482 0.008175472 -0.0634959 0.02940698 -0.023700511 -0.07221685
-0.071493335 0.03659826 -0.0016753769 0.002205126 -0.06961356 -0.03698951 -0.006338999 -0.042622603
0.018865226 0.031076878 -0.05482886 -0.078136414 0.011111654 -0.024160821 -0.069433026 0.03327518
0.031397842 -0.036407925 -0.022851337 0.04012997 0.03798101 -0.04282172 -0.04979957 -0.04834117
-0.07776638 -0.05685945 -0.024841659 -0.035872303 0.02248618 0.05861558 -0.0697584 0.002497696
0.019052029 0.0067602536 0.025814556 0.01834959 -0.0072431276 -0.07001759 -0.051453643 -0.059851278
-0.004351735 -0.013382494 -0.07348632 -0.021249387 -0.051504713 0.02947288 -0.018123098 -0.032510743
-0.009692908 -0.012132842 -0.047824003 0.04732529 -0.02279642 -0.053349394 -0.010027518 -0.048004493
-0.05607569 -0.053661965 0.035640683 -0.078108914 -0.0078001413 -0.0044651334 -0.06977681 -0.05518098
-0.054388106 -0.04523838 -0.0076566935 0.037501834 0.016133087 0.0025815745 0.020074964 0.028776916
-0.022626713 -0.07867705 -0.033701774 -0.07184126 0.041527227 -0.026722193 -0.009712287 -0.047779307
-0.05711482 0.024403175 -0.062596336 0.03785458 -0.008014764 0.02230452 0.0032562122 -0.025942406
-0.043712575 0.029292032 -0.018957103 -0.04858695 -0.06010929 -0.041251764 -0.053011898 -0.06137602
0.034633577 -0.07368538 -0.045109306 0.032479692 0.025121707 -0.0004015416 -0.018693551 -0.027036099
-0.030089963 -0.058436204 -0.043981183 0.03440316 -0.022723684 -0.01926943 -0.054464597 -0.035100892
0.02471897 -0.0480028 -0.05349162 -0.060420983 -0.00835291 0.011702202 -0.057752147 0.025192171
-0.059339203 0.0045581385 -0.0002479073 0.012156962 0.028022218 -0.011649072 -0.07381212 0.051935263
0.037283488 -0.033937305 0.020984735 -0.06650114 0.0057518305 0.059238695 -0.054651827 0.0032299224
0.0239015 0.0070127915 0.028621458 0.0053100334 0.03826396 -0.059018966 -0.027335983 -0.0684354
-0.06462153 0.020065937 -0.05655344 -0.037946943 0.025222601 0.0066362005 0.010575469 0.011273011
-0.0038376653 -0.073911235 -0.028855132 0.008445593 0.0053374767 -0.01641585 -0.033843044 -0.049961865
-0.046644542 0.009947101 -0.07401184 -0.034389302 -0.06065762 0.04279391 -0.026955858 -0.05447433
-0.061001774 -0.029326491 0.023991333 0.016427932 -0.032618575 -0.006918423 -0.0069338577 -0.020996898
-0.020531941 -0.02722651 0.011496624 0.05502829 -0.039752483 -0.00599944 -0.044834875 -0.002860804
-0.033511102 -0.017169535 -0.053506408 -0.026207194 -0.0023797746 0.011367708 0.0036888148 0.028568981

bias f4 [128]
00000000: 0c0e 193d 9b75 a03d afae 07bd c382 a2bc
00000010: 82e6 06bd ba45 283d 8b04 99bc 11f8 1ebc
00000020: f00a 663c b214 1c3b 8a7a ac3b 50fa 733d
00000030: 0cc4 263d 7abf b3bc 3080 963d 0ec4 66bc
00000040: 6158 6dbb c9fb 383d 48c2 a63d 09ef 66bb
00000050: e49a 493d de07 1b3d ef3c 3ebc 0d4c ecbc
00000060: 065a 313c 1dbb 083d 98d1 4ebc 6ecb 09bd
00000070: 286a 4b3d 58a7 723c 4204 2b3b fedd e7bc
00000080: 58cc 83bd 5aa4 4c3d 041a 9c3d e0a3 163d
00000090: 1ed9 a93c 3217 30bd 3e2a 3d3c d9f3 1fbd
000000a0: 6e43 f9bc a486 e6bc caed 503d 8f59 a53b
000000b0: ef67 debb 7a75 a4bb e0d5 15bd 8cc5 483d
000000c0: d59a b0bc fed5 f63c 2b9b c4bc 1e0e 70ba
000000d0: be7e c13d d470 14bc bb24 ffbc f15a 833d
000000e0: 714d e6bb 7a47 803c 2a46 ac3d f6f4 1fbc
000000f0: a72a 7cbc 366f ac3c 141a 54bc 7ff9 0d3d
00000100: 6588 fcbb 1884 d4bc e6c2 4fbd 3d3b 653c
00000110: 88bb e2bc f5a2 e8bc e8c7 4dbd 9239 ee3b
00000120: 7c71 9d3d d8d9 d43c 9b3f 863c 180d cdbc
00000130: 802b c0b9 e996 953d aa89 8e3d 42f6 413c
00000140: 54e7 44bd ae9c 3ebd 9e6a 85bc 8946 b83b
00000150: a437 bb3d b737 193b c3ea d6bc 8eb7 4439
00000160: bd76 b73d 78c9 d53c 3382 b93c e519 133d
00000170: ea24 a0bc 414c 4f3d d806 a73d e58b 0bbd
00000180: 3554 503d f46a b93d c68e 403d aaea 3ebd
00000190: 336f 53bd 50fb 8cbb 9da8 053d a98d 3a3d
000001a0: 2dd1 143d 065a 8ebd 4097 633d 9689 bd3c
000001b0: 314b a83d 0e29 14bc 1a64 a13d 932b da3c
000001c0: 7be3 21bd 1286 7abd 5a7d a6bc a672 e53c
000001d0: 8d83 a0bd 456e 1cbd 7d55 213d 42d5 5c3d
000001e0: 74c3 cdbc 534e 3e3b d736 97bd 7bd7 a2bc
000001f0: a1b5 0c3c 901a 4cbd 13f5 293d 7739 52bc
0.03736691 0.078349315 -0.033125576 -0.019837743 -0.032934673 0.04108212 -0.018678924 -0.009702698
0.014040694 0.0023816046 0.005263631 0.05956489 0.04071431 -0.02194189 0.073486686 -0.014084829
-0.0036216008 0.045161996 0.08142525 -0.003523769 0.04921998 0.0378493 -0.011611207 -0.028844858
0.010824686 0.03338157 -0.012623213 -0.03364127 0.049661785 0.014810406 0.0026095067 -0.028304096
-0.0643546 0.049961425 0.076221496 0.036777377 0.020733412 -0.04299087 0.011545716 -0.03905091
-0.03042766 -0.028140374 0.051008023 0.0050460766 -0.006787292 -0.005018887 -0.03658092 0.04901652
-0.021558205 0.030131336 -0.023999771 -0.0009157377 0.09448002 -0.009060103 -0.031145444 0.0641383
-0.0070282747 0.015659083 0.0841182 -0.009762993 -0.0153910285 0.021049123 -0.012945671 0.034661766
-0.007706689 -0.025941893 -0.05072298 0.013991174 -0.027677312 -0.028398016 -0.050239474 0.0072700465
0.07687661 0.025982782 0.016387751 -0.025030658 -0.00036653504 0.073041745 0.06959851 0.011838498
-0.048072174 -0.04653614 -0.01628619 0.005623643 0.09141472 0.0023379156 -0.02623499 0.00018760396
0.089581944 0.026097044 0.022645092 0.035913367 -0.019548852 0.05060983 0.08155602 -0.03406896
0.050861556 0.09053603 0.04701116 -0.04661051 -0.05161972 -0.0043024197 0.032631505 0.045545254
0.036332298 -0.06950764 0.055564165 0.023136895 0.082174666 -0.009042991 0.07880421 0.026632106
-0.039523583 -0.061163016 -0.020323444 0.02800877 -0.07837591 -0.0381911 0.03938817 0.053914316
-0.025117613 0.0029038384 -0.07383507 -0.01987814 0.008588226 -0.04983002 0.041493487 -0.0128310835

weight f4 [64, 128]
00000000: 8053 45ba 1f62 c9bd 3103 42bd 6642 3c3d
00000010: 76b9 283d 26d5 87bd 3b24 623d 6c6f 8ebd
00000020: b567 bdbd 78be 83bc 56d6 7fbd 8837 673d
00000030: 108a be3b 389a c0bc 4f18 99bd 893a 31bd
00000040: 2a48 7cbc 3931 35bd 02e3 4cbd a02f 9fbc
00000050: 1675 02bd e3cf 0abd 3795 40bd 48bd c5bd
00000060: 55c0 3dbd 22ba b9ba 459e 57bd 4335 323d
00000070: ea50 d2bd adeb 53bd 77bd 553d 17ba a2bd
00000080: a6dc 923c 4007 8abb 3926 2fbd 0743 39bd
00000090: 52f5 85bd b518 8a3d 73e5 5bbd 4994 763d
000000a0: 1e91 4bbd 902e 493c 8029 85bc 7440 fe3c
000000b0: 3485 4e3c c7d2 da3c 6662 843d e0d7 f2ba
000000c0: 9025 14bd bb8d 9cbd 33ec 15bc a20f 2fbd
000000d0: ff52 59bd 0815 20bb 3e03 00bc 1034 6d3d
000000e0: a092 a5bb 2465 d33c 1da4 7b3d fefe 643c
000000f0: 86b5 e63b cd4d ab3d 3c48 87bd 607d 95bd
00000100: bc30 863c 9169 e9bc d2f0 81bd 6628 3bbc
00000110: 5a65 37bd fa37 103d dde4 01bd 8919 a83d
00000120: cf5b eebd 548c b7bc d601 c3bd d34b a8bc
00000130: f0d9 783d 3411 193d 57b3 953c 24cc 8bbd
00000140: e6f0 0d3d 3056 d2bb d878 86bd 3baa d9bb
00000150: 0c9d b73a f17c c8bd 3c35 6e3d 891b 80bc
00000160: b665 7abc e816 e9bd eccf 873d 45e0 5bbd
00000170: c278 303d d248 98bc 09a5 8fbc d9c7 7c3d
00000180: 6449 d8bd 4ac7 913c 8a20 393d 865f 6abd
00000190: e4c5 b6bd a8d1 81bb e66c 873c 8732 0a3d
000001a0: c1b5 c0bd 6a37 193d 5e89 09bd 7453 83bd
000001b0: 736f f8bc 866e 9fbc 336c 9cbc ba39 9a3c
000001c0: 03e4 393d d295 413d 2417 153d 00f0 15bd
000001d0: 2f19 803d 7c9f 26bc e8ec 053c 8ec9 5fbc
000001e0: 9eb4 b1bd 1c1a 463d bfdd 0d3d aaae dbbc
000001f0: 5585 91bd 66d7 433d 490e e83c 0cb5 81bd
00000200: 61e6 3ebd b4e7 b63d 9bce df3d 0abe 89bd
00000210: 3fa4 e93c f962 483c aa6d a83d fe58 80bd
00000220: 3e8f 5ebd 0368 c6bc 26f8 8abc 3d6a a13c
00000230: 454b 483c e267 57bc b0d5 283d 4ea2 da3d
00000240: b286 a43d 7e1a f13d 359b 08bd 53e1 ea3c
00000250: fd8e ee3d ad91 28bd 9f42 bc3d 968b a63d
00000260: f0b1 863d aa70 f03d a782 ddbb dd8e 0cbd
00000270: cd6d 33bc 89a0 ab3b f3ce c6bc e64c 6c3d
00000280: 8f58 23bc e026 bcbb 045e 3f3c c540 853d
00000290: a9a1 b83c d2c8 80bd eb9b 803d e1d4 43bc
000002a0: 6a4a 46bd 456d e4bc c346 f9bb 3f2e a63c
000002b0: aa09 523d 21c7 733d c65d 03bd 4851 4a3d
000002c0: f83d debb 62a5 9f3c 02b9 063d fe97 b63d
000002d0: a779 1f3a b0e9 98bc e027 a73d 5c86 443d
000002e0: b90e ac3d 97ff 52bd 6e82 fc3d a094 1b3d
000002f0: 0cf3 23bd 4bca 0cbd db0e 4dbd b82f b53b
00000300: f9b6 833d 5783 afbc 54ca ad3d e09c 66bd
00000310: 57a4 3d3d f871 333d 3a1b 2a3d 4159 a93d
00000320: be10 3d3c e6d5 74bd ab4c ffbc e1c1 1e3d
00000330: f801 d5bc 6703 7e3a 99d1 103d 04bf c63d
00000340: 7f4e c3bc 399a 8fbc d905 16bd 846a a33d
00000350: e137 e03a d8df eb3d dde6 49bd 6541 7c3d
00000360: 7c08 f5bb 2203 1c3d 9755 f03d 55d8 933d
00000370: 130c 32bc 7661 a33d 7c93 8e3d f253 fcbc
00000380: 61f7 633b b417 a53d dc69 aa3d 34d7 79bd
00000390: e1a4 3a3d c7b3 b03d 68f2 ae3c 492b 6e3d
000003a0: 9844 fb3d a969 443d 0dd2 e83c b345 45bd
000003b0: 1979 463d 2cec ad3d 0318 69bc eda5 573c
000003c0: 55ac 9a3c 0a96 36bb 9bb8 523d b1a5 bcbc
000003d0: 4e68 9b3d 563c dabc b0f1 613d 5c92 a23c
000003e0: bdf2 ac3d 27a5 9f3c 65e6 69bc ad07 f43d
000003f0: f7ce 293d 618f b03d 2a9a ae3d f00f 56bd
-0.0007527396 -0.09833168 -0.047366325 0.04596176 0.041192494 -0.06632452 0.055210333 -0.06954846
-0.09248296 -0.016082034 -0.062460266 0.056449443 0.005814798 -0.023511037 -0.074753396 -0.043268714
-0.015398065 -0.044236396 -0.05002118 -0.019431889 -0.031849943 -0.033889662 -0.047017302 -0.09655243
-0.046326 -0.0014169852 -0.052641172 0.043507826 -0.102693394 -0.05173843 0.05218264 -0.0794565
0.017927479 -0.00421229 -0.04276106 -0.045229938 -0.06540932 0.06742994 -0.053685617 0.06020001
-0.04969894 0.012279168 -0.01625514 0.031036593 0.012605 0.026711835 0.064640805 -0.001852747
-0.036168635 -0.076442204 -0.009150553 -0.042739518 -0.053057667 -0.0024426598 -0.007813273 0.05791098
-0.0050528795 0.025805064 0.061435807 0.0139768105 0.0070406822 0.08364449 -0.066055745 -0.07299304
0.01638066 -0.02849272 -0.06344761 -0.011423206 -0.04477439 0.035209633 -0.0317124 0.082079954
-0.11638605 -0.02240578 -0.095218346 -0.020543968 0.060754716 0.03736992 0.018273992 -0.06826046
0.034653567 -0.0064189658 -0.06566018 -0.0066426075 0.0014008596 -0.09789456 0.058156237 -0.01563813
-0.015283039 -0.11381322 0.06631455 -0.053680677 0.043083914 -0.01858941 -0.01753475 0.061714027
-0.10560873 0.017795224 0.045197047 -0.057220004 -0.089244634 -0.0039617606 0.016531419 0.033739593
-0.09409667 0.037406363 -0.03357827 -0.06412402 -0.03032658 -0.019461881 -0.019094562 0.018826354
0.045383465 0.04726202 0.03639902 -0.036605835 0.062548034 -0.01016986 0.008174159 -0.013658894
-0.08677028 0.048364744 0.0346353 -0.026816685 -0.07105509 0.04781284 0.028327124 -0.0633336
-0.046606425 0.089309126 0.10928079 -0.067257 0.028520701 0.012230628 0.08224042 -0.06266974
-0.054335825 -0.024219519 -0.01696403 0.019703979 0.012224977 -0.013147326 0.041219413 0.106754884
0.080335036 0.11772631 -0.033351142 0.028671896 0.116483666 -0.041154552 0.091923945 0.08132093
0.06576908 0.11740239 -0.0067599597 -0.034315933 -0.0109514715 0.005237643 -0.024268603 0.057690524
-0.0099698445 -0.005741939 0.01168013 0.065064944 0.022538023 -0.062883034 0.06279739 -0.01195261
-0.04841081 -0.027884135 -0.0076073124 0.020285724 0.051278748 0.059516076 -0.03207185 0.049393922
-0.0067822896 0.01948804 0.03289128 0.08915709 0.0006083496 -0.018666118 0.081619024 0.047979698
0.084012456 -0.05151328 0.12329565 0.037983537 -0.04002671 -0.03437261 -0.050062995 0.00552937
0.06431384 -0.021424932 0.08485857 -0.05630195 0.046299305 0.04380986 0.04152987 0.08268977
0.011539636 -0.059774302 -0.031164488 0.038759116 -0.026001915 0.0009689838 0.035356138 0.09704402
-0.02384114 -0.017529594 -0.03662667 0.079793006 0.0017106497 0.11517304 -0.049292434 0.061585803
-0.007477818 0.038088925 0.11735075 0.072189964 -0.0108671365 0.079775736 0.06961724 -0.030801747
0.00347849 0.08061162 0.08320972 -0.06099625 0.045567397 0.0862804 0.021355823 0.05814675
0.122689426 0.047952328 0.028420473 -0.048162173 0.04845533 0.08492312 -0.014226916 0.013162118
0.018881002 -0.0027860426 0.051445585 -0.023028227 0.07588254 -0.026640099 0.05516213 0.01984518
0.08444736 0.01948793 -0.014276122 0.119155265 0.041457143 0.08621097 0.08525498 -0.052261293

bias f4 [64]
00000000: 2f19 dcbd 3f85 ac3d 2d6a c9bc 2a18 cb3c
00000010: f360 563d 4ac6 e0bd 009a 84bd 1950 95bd
00000020: 4da1 5a3d 9f00 6e3d 2603 b63d f177 feba
00000030: feae 3fbd 3ae4 3a3c 9017 563d cb02 b8bd
00000040: 1fa1 b4bd f2ec bc3c d6dc acbd 05ff 83bd
00000050: da78 0cbd 5f33 91bb 2dfb 293d b9a7 aebd
00000060: 9f66 63bd 8e52 743d 11c7 d2bd 248b cd3d
00000070: 14de b3bd d322 59bd 4532 8abd cb64 3cbd
00000080: 5809 f83b f349 f73b 1fca 9ebd fbf1 a93d
00000090: 2a7d 0d3c 270b 523d 3730 e23c 4ab7 91bd
000000a0: 2e61 7f3d 49cb cabc 5f0f e53d d857 ddbd
000000b0: f16e 923d 1b1d d2bc 66b0 4b3d 6fae 58bd
000000c0: 457d 94bd 4a2b d7bd ade3 6dbc 7b2b 933c
000000d0: 58b7 353d 8c5e 023d eeaa 46bd 44bc 213d
000000e0: 0412 c1bd e428 b1bd ba85 c23c 39a6 06bc
000000f0: 6268 b1bd bb3c 3c3d ac93 163d 8a91 bc3c
-0.10746991 0.08423852 -0.024586761 0.024791796 0.05233855 -0.10975321 -0.06474686 -0.07290668
0.053376485 0.05810606 0.08887319 -0.0019414407 -0.046797745 0.0114069525 0.052268565 -0.08984908
-0.08819794 0.023062203 -0.084405586 -0.064451255 -0.03429494 -0.0044311727 0.041499306 -0.08528084
-0.05551779 0.059649043 -0.10291875 0.100363046 -0.087825924 -0.053011727 -0.067478694 -0.04599456
0.0075694732 0.007546657 -0.07753395 0.08298107 0.0086357985 0.051280167 0.027610881 -0.07115038
0.062348537 -0.024755137 0.111845724 -0.108077705 0.07150067 -0.025648644 0.049728774 -0.052900728
-0.07250456 -0.105063036 -0.014519614 0.017965069 0.044364303 0.03182845 -0.048502855 0.039486185
-0.09427264 -0.086503774 0.023745406 -0.0082183415 -0.086624876 0.045956355 0.036761925 0.023018617

weight f4 [1, 64]
00000000: 84d2 643d 573b 06be 243d 0e3d 46ba 573d
00000010: d969 71bc cdb5 a23c 4208 cdbc 8227 a53d
00000020: 1c18 a83d cf7d 12be 0c75 bcbd 4420 11be
00000030: b2b3 9f3d b762 afbb d599 0ebe fb0e 4d3c
00000040: 7d3b 1b3d ebb8 d13d 7cc8 39bd dc05 df3d
00000050: febb cf3d 8c46 9ebc 0e1f 7ebd cb6d 10bd
00000060: bd51 6dba 8826 23be c460 fd3c 3f97 cfbd
00000070: b721 833d 3490 09be f3b7 823d 440f cc3d
00000080: ca86 eabd efd6 c63d 1cdf a63d f7b6 a7bd
00000090: dd90 1bbe b742 18be 6f47 0ebe e448 99bd
000000a0: e557 f0bd c47b 48bd 9747 acbd 6708 4d3d
000000b0: 950e dfbd 489e 35bd dd11 8dbd 247c a0bd
000000c0: 3599 f43c 6cef 96bb 2721 873d 412b 0cbd
000000d0: e892 12be 4a92 313d 08a3 0dbe 8311 a73d
000000e0: ce49 703d fd9c b33d c68f 30bd 8be1 a1bd
000000f0: b4c3 a93d 953e a0bd f46e 1abe 0bbb 363d
0.055864826 -0.13108574 0.034726277 0.05266788 -0.014734709 0.01986208 -0.025028352 0.08064176
0.082077235 -0.14305805 -0.092020124 -0.14172465 0.07797946 -0.005352344 -0.1392587 0.012515779
0.03789853 0.102403484 -0.045357212 0.108897895 0.101432785 -0.019320749 -0.062041335 -0.035260957
-0.00090530125 -0.15932667 0.03092993 -0.1013627 0.06402915 -0.13433915 0.06382742 0.09963849
-0.1145149 0.09708964 0.081480235 -0.08189195 -0.1519198 -0.148692 -0.13894437 -0.07484606
-0.117355146 -0.048946157 -0.08412092 0.05005684 -0.10891453 -0.044340402 -0.06888173 -0.07836178
0.029858211 -0.004606178 0.0659812 -0.034220938 -0.14313853 0.043352403 -0.13831723 0.08157637
0.058664136 0.087701775 -0.043105863 -0.07904347 0.082892805 -0.078244366 -0.15081388 0.04461197
