models/model.pth (torch, 955855 bytes, 7 tensors)

weight f4 [256, 768]
000000 98 44 a8 3c 90 05 66 bc 10 cf f1 bb e2 8f b0 3c
       0.02054052 -0.014039412 -0.00737942 0.021552984
000010 bc 52 f5 3c 78 21 93 3b ce 2d 9b 3c 44 ac d1 3c
       0.029946677 0.004490074 0.01894274 0.025594838
000020 d6 bc 56 bc 4d 7a 10 bd 54 5b 46 bc ef 02 0f bd
       -0.013106545 -0.035272885 -0.012106735 -0.034914907
000030 66 d8 10 bd 26 3e bf bc f6 ca b4 bc ab 78 b3 bc
       -0.035362624 -0.023345064 -0.022069436 -0.021908125
000040 70 07 9d bc 8c 00 6e 3c 8e 9f d3 bc d2 93 46 bc
       -0.019168586 0.014526498 -0.025832918 -0.012120204
000050 a0 8b 95 bc 26 5e a5 3c 60 de 35 3b ae 60 cf 3c
       -0.018255055 0.020186495 0.0027750954 0.025314655
000060 40 7e dd 3c 26 84 94 bc 9c 4e 00 bd 80 03 f5 ba
       0.02703774 -0.01812942 -0.031324968 -0.001869306
000070 c4 c2 e3 bc 20 88 cb 3b c1 f8 93 bc 74 c2 14 3c
       -0.027802832 0.0062112957 -0.018062951 0.009079564
000080 d3 d1 9e bc ac f5 c9 bb c0 d0 e9 3a c0 d0 25 3b
       -0.019387161 -0.0061633196 0.0017838702 0.0025301427
000090 c7 5e 99 bc 5c 5e 66 3c a0 e9 61 3c ac 37 2d 3c
       -0.018721951 0.014060583 0.013788611 0.010572355
0000a0 e3 41 f7 bc a1 c9 bb bc bd 05 0e bd 6d 60 04 bd
       -0.030182784 -0.022923293 -0.03467344 -0.03231852
0000b0 1e 05 23 bc ba 75 d5 bc 40 f2 6d 3a 00 1f 34 ba
       -0.0099499505 -0.026057113 0.00090769306 -0.00068710744
0000c0 aa 0d fa bc c0 18 b0 3b 56 d1 d0 bc b2 3f 89 3c
       -0.030524094 0.005374044 -0.025490444 0.016754005
0000d0 90 47 83 3b 74 e5 b2 3c 06 e7 97 3c 2e 08 04 3d
       0.0040063336 0.021837927 0.018542778 0.032234363
0000e0 24 54 0c 3d de 11 86 3c b4 9a b5 bc 62 06 bd 3c
       0.03425993 0.016365942 -0.022168495 0.023074333
0000f0 00 db 10 b9 80 6c 96 3a 10 27 c0 3b 2c 42 77 bc
       -0.00013814494 0.0011476427 0.0058640316 -0.01509146
000100 38 54 13 3d b0 fe 58 3c b6 c0 1c bc 46 ad 0e 3d
       0.03596899 0.013244316 -0.00956743 0.034833215
000110 c2 30 d0 3c 58 51 02 3c 0a 56 da bc 00 aa 8f 3b
       0.025413875 0.007953964 -0.026652355 0.0043842793
000120 6a a7 7f bc 88 4f 0e 3d 2c 6e 3e bc 10 5a 6f bb
       -0.0156038795 0.034743816 -0.011622947 -0.0036522187
000130 8a 82 a2 3c 00 e8 72 b9 1e 9b 8c 3c c0 6a 55 bb
       0.019837637 -0.00023165345 0.01716381 -0.0032564849
000140 aa d6 ae bc 25 ac 0a bd b0 80 b7 bc 38 51 fa bb
       -0.021342594 -0.033855576 -0.02240023 -0.0076390766
000150 9c d6 89 bc bf 59 10 bd 58 77 84 3c a0 17 93 ba
       -0.016825967 -0.03524184 0.016170189 -0.0011222251
000160 64 f0 af bb c8 c8 e4 3c 45 b5 99 bc 30 e8 3a bb
       -0.005369233 0.027927771 -0.018763194 -0.0028519742
000170 90 e6 75 3b 00 96 03 ba 5a a2 e2 bc 77 f1 01 bd
       0.003752146 -0.0005019605 -0.027665306 -0.03172442
000180 b8 b2 a3 3b ba 02 7e bc e5 69 88 bc 28 3f de 3b
       0.00499567 -0.01550358 -0.016652057 0.006782431
000190 9e 2b 12 3d 28 4c bd 3c 60 45 6b bb a8 13 de 3b
       0.035686128 0.023107603 -0.0035899505 0.0067772456
0001a0 3c 48 23 3c 6c 21 c3 bb ee eb dc bc 00 64 03 3c
       0.0099659525 -0.005954912 -0.026967969 0.008019447
0001b0 39 ca f8 bc 3c 3f 34 3c 40 73 2e ba ab 8c 07 bd
       -0.030369865 0.011001404 -0.0006654747 -0.033093136
0001c0 72 40 94 bc e4 2f 33 3c 90 2d 2c 3b ac 52 2b 3c
       -0.018097136 0.010936711 0.0026272275 0.010456722
0001d0 78 c7 d4 3b 82 01 5a bc 68 3f 1e bc 58 cc 73 3c
       0.006493505 -0.013306024 -0.009658672 0.014880262
0001e0 f9 dd fc bc 26 3e e5 bc 00 a7 ca 3c 32 9b a0 bc
       -0.030867564 -0.027983736 0.024737835 -0.019605253
0001f0 e8 98 64 3c 8c d8 03 bc f2 23 8a 3c ec 76 9d 3c
       0.013952471 -0.008047234 0.016862843 0.019221745
000200 84 81 47 3c 96 26 05 3d 00 4a 1a ba c9 6e f7 bc
       0.012176875 0.0325075 -0.00058856606 -0.030204194
000210 00 9a b8 bb f0 a2 04 bd b8 1f 8d 3b ea aa 1a bc
       -0.0056335926 -0.03238195 0.0043067597 -0.009440163
000220 d6 3f 9b 3c be 4c 98 3c 44 fc 5a 3c f8 7a db 3b
       0.018951338 0.018591281 0.013365809 0.0066980086
000230 3c 2f ed 3c 94 e6 49 3c 84 b5 5d bc 30 a5 1d 3c
       0.028953187 0.0123230405 -0.013532046 0.009621903
000240 c1 da d8 bc 8c 39 08 bc 78 66 ab 3c b1 5c 80 bc
       -0.026471497 -0.0083145015 0.020922884 -0.015669199
000250 70 85 49 bb 56 33 04 3d 38 dc e8 3b 0c 20 60 3c
       -0.00307497 0.03227552 0.0071063302 0.013679516
000260 ec 0a e2 3c d4 d6 e3 bc 60 1c 27 3b 48 48 ff 3b
       0.027593099 -0.027812399 0.002549909 0.007790599
000270 d6 c3 05 bd 92 cc 0e bc b0 51 61 3c 70 56 f9 bb
       -0.032657467 -0.008715766 0.013752386 -0.007609181
000280 32 3c eb bc e8 fa 0e bc a8 a3 ae bc bc 07 74 3c
       -0.028715227 -0.008726813 -0.021318272 0.014894422
000290 60 c4 e9 3c e6 29 9b 3c c0 f9 eb bb 66 dc 5f bc
       0.028536022 0.018940877 -0.0072014034 -0.013663387
0002a0 a8 2d 91 bb d5 ae f6 bc b8 a9 96 3c 80 ff e8 3a
       -0.0044304915 -0.030112663 0.018391475 0.001777634
0002b0 da 01 a8 3c 54 df d0 bc 8c 99 b5 bb 20 95 c6 ba
       0.020508695 -0.025497116 -0.005541986 -0.0015150644
0002c0 00 8f 19 ba 5a 97 15 bc 8c 3f 31 3c c1 c2 fa bc
       -0.00058577955 -0.009130323 0.010818373 -0.030610444
0002d0 e6 05 0e 3d f8 43 e0 3c f4 8d 07 bd 42 66 08 3d
       0.034673594 0.02737616 -0.03309436 0.033300646
0002e0 a3 96 0c bd 50 cc c1 3b 80 d5 d7 39 e4 1b e5 3c
       -0.034323346 0.0059142485 0.00041167066 0.0279674
0002f0 87 55 a4 bc 90 11 11 3b 6a 6f c5 3c f0 4a 02 3d
       -0.020060314 0.0022135712 0.024100978 0.031809747
000300 a0 b1 4c 3b 3b 54 ef bc 3f 66 0d bd 6e 41 0b bd
       0.0031233802 -0.029214969 -0.034521338 -0.033997945
000310 64 1d ea 3c 95 8a f0 bc a4 c6 63 3c c8 f7 af bc
       0.028578468 -0.029362956 0.01390234 -0.021480456
000320 35 87 fb bc 0a 3a a5 3c 1a 4b aa 3c 2e 0b 3f bc
       -0.03070412 0.020169277 0.020787764 -0.01166038
000330 8e 54 6d bc 23 53 fb bc 88 2e e3 3c 90 75 28 3b
       -0.014485491 -0.030679291 0.027732149 0.0025704838
000340 e0 9e 5e 3b b6 8a 13 bd bc d9 4d 3c 60 93 10 bd
       0.0033969209 -0.036020957 0.012564119 -0.035296798
000350 a8 07 4f 3c e8 3d d1 bb 70 41 d3 3b 60 12 de 3c
       0.012636103 -0.0063855536 0.0064470097 0.027108371
000360 2e e3 99 3c 80 2d e6 3b b5 17 f0 bc 82 af 09 3d
       0.018785086 0.007024467 -0.02930818 0.033614643
000370 70 94 4c 3c c0 33 8d 3b 70 1c 13 bd 6e c0 5d bc
       0.012486562 0.0043091476 -0.035915792 -0.013534648
000380 10 04 be 3b 4c 42 e2 bb 24 ca 02 bd 88 a8 61 3c
       0.005798824 -0.006904876 -0.031931058 0.013773091
000390 38 a1 c7 3b 66 00 7b bc cc e4 a6 3c 70 ef 58 bb
       0.006092217 -0.015319919 0.02037277 -0.00331017
0003a0 03 ec 05 bd 14 09 7c 3c 3e 5d 04 3d 68 64 16 3c
       -0.03269578 0.015383024 0.032315485 0.009179212
0003b0 22 35 86 3c 9c 57 04 bd 00 8f dd b9 c7 f7 90 bc
       0.016382758 -0.032310113 -0.00042258948 -0.017696274
0003c0 30 65 0d 3c 24 66 40 3c a8 b5 e4 3c 44 a3 cc 3c
       0.008630082 0.011743102 0.027918652 0.024980195
0003d0 ca 58 54 bc 74 4b 7c 3c 14 f6 63 bc 00 27 3c bc
       -0.012960622 0.015398849 -0.01391365 -0.011483908
0003e0 a0 20 06 3d fc 51 f9 3c bb 4e f6 bc 2c 3e ef 3c
       0.032745957 0.030434601 -0.030066838 0.02920445
0003f0 92 89 ef bc fa 47 01 bd 1c ef 2a bc c6 1c f6 bc
       -0.029240403 -0.031562783 -0.010432985 -0.030043017

bias f4 [256]
000000 d0 37 04 3b 60 ed 44 bc 9b 6b 0c bc e1 a9 be 3c
       0.0020174868 -0.012019485 -0.008570577 0.023274364
000010 86 62 57 3a b9 48 d1 bc 30 cf b4 bb 5f 60 aa 3b
       0.000821628 -0.025547372 -0.0055178627 0.0051994766
000020 74 1f cc bc a3 3f 29 3c a1 07 51 bc 72 59 02 3d
       -0.024917342 0.010330114 -0.0127581665 0.031823583
000030 27 c5 2d 3d 96 7f 07 3c 50 86 02 3c 0a c7 bc ba
       0.042424347 0.008270165 0.007966593 -0.001440258
000040 66 a3 b5 bc 73 c3 d3 bb b6 d0 b9 b9 5c d9 b9 bb
       -0.022172641 -0.0064625083 -0.00035441451 -0.005671663
000050 29 a1 6a bb 74 f8 6b 3c 2f 24 01 3d eb 6a 07 bd
       -0.0035801625 0.014402498 0.031528648 -0.03306095
000060 aa 35 7f bc 59 bf 45 bd f4 8a f0 bb c4 54 46 3c
       -0.015576759 -0.048278186 -0.0073407833 0.012105171
000070 5e 87 70 bc 6d e0 20 bd bd f1 a3 3c b6 2d 1e bc
       -0.014680712 -0.03927653 0.02001273 -0.009654453
000080 88 21 d0 3b d1 a7 c3 bb 79 ea b6 bc ae 58 0b bd
       0.0063516535 -0.005970933 -0.022328602 -0.03402012
000090 ba fd b5 bc 59 dc f8 bc 70 68 02 3d bb 27 45 3d
       -0.022215713 -0.030378507 0.03183788 0.048133593
0000a0 a7 2f cf bc 49 18 6e b7 98 14 23 bc 20 c2 04 3d
       -0.025291277 -1.419156e-05 -0.00995364 0.032411695
0000b0 5e 5e 20 bc cc 99 c6 bc 48 49 13 bd c5 62 39 3c
       -0.009788124 -0.024243258 -0.03595856 0.011315052
0000c0 bb 53 00 bd fc 86 ba bb c8 3e ef 3b 2b 45 08 bd
       -0.03132985 -0.005692361 0.0073011853 -0.03326909
0000d0 64 7b 69 bd 28 ac 7d bc 8d 0d c5 3b eb f3 42 bd
       -0.05700244 -0.01548294 0.0060135783 -0.0475959
0000e0 10 25 c9 bc b6 b4 a7 bc 54 55 aa 3c 17 73 88 bd
       -0.024553806 -0.020471912 0.02079264 -0.06662577
0000f0 69 3c bf 3c b2 17 9c 3c 5b 7e e9 bc 1a b7 80 bc
       0.023344235 0.019054268 -0.028502634 -0.01571231
000100 3d 84 3b bd 13 fe 3a bd 84 ad 93 3c 24 21 a6 bb
       -0.04578041 -0.04565246 0.018027075 -0.0050698686
000110 39 01 ab bc 1d 07 0c bd 5a 0e 3d 3c be 83 cd bc
       -0.020874606 -0.03418647 0.011539066 -0.025087234
000120 f6 8c 3d bd 48 a8 2a bc 71 03 88 3b 0c 52 65 3d
       -0.04627701 -0.010416098 0.004150801 0.05598645
000130 73 9c ef bc 9a e2 9c 3c e4 02 17 bb fe 5b 71 bc
       -0.029249405 0.01915102 -0.0023042494 -0.014731405
000140 81 09 02 bd 1f 2d 2b 3b ae a4 4a bc 9f de 94 3a
       -0.031747345 0.0026119424 -0.012368364 0.001135785
000150 45 06 1e bd ee c2 ad bc 42 ab 12 bd e2 9f 10 bd
       -0.038580198 -0.021211114 -0.035807855 -0.035308726
000160 b9 22 41 3c f9 f2 58 3c 9c 70 40 bc 75 ba 81 bc
       0.011788064 0.013241523 -0.011745598 -0.01583598
000170 e0 7c a7 3b 72 8e 6d 3d 8c 8c 52 bd 7f 1a fa bc
       0.005111322 0.057997175 -0.051403567 -0.030530212
000180 44 e8 8e bc af 23 ac bb e8 e2 3a bc 10 b0 41 bc
       -0.017444737 -0.0052532773 -0.011406638 -0.011821762
000190 56 95 74 3b 54 ea 18 3c 1a b9 a6 3b e4 ff 09 3d
       0.0037320456 0.009333212 0.005087984 0.033691302
0001a0 de 1c a0 3c 5f e4 5f 3b 75 ca c6 3b f6 c3 4f bd
       0.019545015 0.003416322 0.006066615 -0.050723992
0001b0 e6 37 d0 bc c3 de 29 bd 60 2d f9 bc fb 3a 1e bd
       -0.02541728 -0.041472208 -0.030417144 -0.038630467
0001c0 60 a3 1e 3c c4 06 3c bd 05 7e 36 bd f7 e9 58 3c
       0.009682506 -0.04590489 -0.044553775 0.013239375
0001d0 e3 c3 21 bb e5 67 97 3c ad 76 ed 3c 29 04 ea 3a
       -0.0024683408 0.018482158 0.028987253 0.0017854023
0001e0 80 b5 8c 3b 47 d4 23 bd fe 3b 05 bd b1 c4 59 bc
       0.0042940974 -0.039997365 -0.032527916 -0.013291524
0001f0 55 c6 39 bc b9 d8 44 bc 90 5d 56 bd 9a d7 8f bb
       -0.01133879 -0.012014561 -0.052335322 -0.0043897154
000200 1d 9d fb bc 70 92 f5 bc 23 70 6d bd 69 da 8d 3c
       -0.030714566 -0.029977053 -0.05796827 0.01731606
000210 47 e2 e2 3a 60 37 67 3a 20 65 53 3c 4d e2 a7 3b
       0.0017309868 0.0008820202 0.012902528 0.0051234127
000220 bb 67 94 bc e3 71 65 bc a9 4f ad ba c4 92 07 bc
       -0.018115869 -0.0140042035 -0.0013222593 -0.008274738
000230 9a 1f 3b bb d5 61 87 3c 4a ba 83 bc b3 63 24 bc
       -0.0028552772 0.016526142 -0.01608004 -0.010033536
000240 be fd a0 3c 64 5d dd 3c a7 87 50 bd ec ff 2c 3c
       0.019652244 0.027022071 -0.05091062 0.010559063
000250 86 f9 3d bd 6f cd 4f bd cf bf f1 bc 58 4e f1 3c
       -0.046380542 -0.050733026 -0.029510407 0.029456303
000260 0c 34 5b 3c ba e7 39 3c 13 4d f7 bc c1 1c 4f bd
       0.013379108 0.011346752 -0.030188119 -0.05056453
000270 16 fd d8 bc 15 99 99 bc d7 2f 8c 3a 8e f7 2b bc
       -0.026487868 -0.018749753 0.001069541 -0.010496033
000280 46 af 7c 3c 22 6e 01 3d e8 60 b7 bc 9a 36 df 3b
       0.015422648 0.03159917 -0.022385076 0.006811929
000290 70 90 5e bd 2c 18 1b bd 70 8a 65 bb 35 ae 16 3c
       -0.054336965 -0.03786485 -0.0035025142 0.009196808
0002a0 ca 16 31 bd ce 46 b2 bc 72 23 a1 3a 20 d8 67 3b
       -0.043234624 -0.021762278 0.0012293889 0.0035376623
0002b0 4c 31 e7 bb c6 d9 5c bc da bd 17 bd 4a f8 3f bd
       -0.007055437 -0.013479656 -0.03704629 -0.046867646
0002c0 25 70 01 3c 37 c3 02 3d 08 b8 07 bd 00 1c 21 3a
       0.0079002725 0.031924453 -0.03313449 0.0006145835
0002d0 cc 06 3e 3c 05 c2 00 bd 9f b5 a5 bb 18 33 71 bc
       0.0115983 -0.03143503 -0.0050570513 -0.014721654
0002e0 81 71 be bb 31 a4 de 3c 05 4a 49 bd 63 a6 10 bd
       -0.0058118706 0.027177902 -0.049142856 -0.03531493
0002f0 9d 71 36 3a e4 c6 a0 3c 40 7a be bb e8 26 05 3d
       0.0006959679 0.019626088 -0.005812913 0.032507807
000300 54 98 41 bd 12 c2 20 3c fa 27 76 3c 4d 01 af bb
       -0.047264412 0.009811895 0.01502418 -0.0053407312
000310 b6 4f 8a bc bf 1f 33 3c fd 82 25 bd 10 71 28 bd
       -0.016883712 0.010932862 -0.040408123 -0.04112345
000320 55 8e 19 bb f4 1a 2a bd cd de fa bc 0e b0 ac 3c
       -0.0023430784 -0.04152961 -0.030623818 0.021080043
000330 cf 47 45 3c 37 ca 86 bc d6 68 50 bc 19 df 7d 3c
       0.012041046 -0.016453845 -0.012720307 0.015495085
000340 ed 80 33 bd b9 f7 9d bc e6 e6 9d 3c ab f6 2c 3b
       -0.043824125 -0.019283162 0.01927514 0.0026392143
000350 ae 20 88 bc 5b 64 3e bd 08 92 08 3c 42 89 b9 3a
       -0.016617145 -0.046482425 0.008335598 0.0014155286
000360 26 e0 eb bc 45 2b 3a bd 8e ad db bc 4c 4c 99 3a
       -0.028793406 -0.04545142 -0.026816156 0.0011695712
000370 97 94 26 bc d0 35 9d bb 5d af 92 3c da 32 8e 3c
       -0.0101672625 -0.0047976747 0.017905885 0.017358232
000380 57 61 af bb 65 96 f9 ba 37 6c 02 3c 9a 20 82 3c
       -0.00535218 -0.0019042013 0.007960371 0.015884686
000390 1f ef ac bc 79 a8 21 bd ed 96 0d bd ca 6a e0 bc
       -0.021110116 -0.03946731 -0.034567762 -0.027394671
0003a0 de 8d 30 bd 90 81 33 ba 69 77 b5 3c fe 9e e3 bc
       -0.043104045 -0.00068476144 0.022151666 -0.027785774
0003b0 7a 1b b7 bb d4 5b 25 bd 36 8d 93 bc 1b 6a e6 bb
       -0.0055879923 -0.040370777 -0.01801167 -0.0070316917
0003c0 0c 32 12 bc 46 2f 19 3c b9 5b 2d 3c d4 a1 a7 bb
       -0.008923065 0.00934965 0.01058095 -0.005115727
0003d0 3d 98 1a 3c b8 78 39 3c 92 9f 91 bc 5c 0a 0a bd
       0.0094357105 0.0113202855 -0.017776284 -0.033701286
0003e0 0a e0 56 bc ff fa 48 bd 9f ea ba 3b 16 51 61 bc
       -0.0131149385 -0.049067494 0.0057042385 -0.013752243
0003f0 35 6b 9f bc 49 04 ab bc 77 66 44 bd 16 39 d4 bc
       -0.0194603 -0.020876067 -0.04794928 -0.025906127

weight f4 [128, 256]
000000 84 5f a5 3c 5e a2 95 bd 18 b1 7f bc 2d 3a 35 3c
       0.020187147 -0.0730636 -0.015606187 0.0110612335
000010 ed db 87 3c 0b 3c f4 bb 70 81 88 bd b5 44 68 3b
       0.016584361 -0.0074534467 -0.06665313 0.0035441343
000020 50 63 2f 3c 9e 0a 51 3c 9e 7f bd bc 38 ac 6d bc
       0.01070483 0.012758879 -0.023132142 -0.014506392
000030 5b 83 d0 3d cc 6c e0 bc f7 3a ce bc ed 15 97 3a
       0.10181304 -0.027395628 -0.025174601 0.001152692
000040 49 c7 ef 3d d9 d7 bb bb b6 20 fb bc 58 b8 f0 3c
       0.117079325 -0.005732518 -0.030655246 0.029384777
000050 81 20 14 3d 12 8e 1b bd 95 57 96 bc 84 b4 de 3c
       0.03616381 -0.037977286 -0.01835231 0.027185686
000060 1f 05 be bc 52 59 42 bd e2 8f 63 bd 6c 2e 0e 3d
       -0.023195801 -0.047448464 -0.05555714 0.03471224
000070 b2 d6 9d bd e7 d1 b2 3d 13 c1 46 bd 90 8f 9a bc
       -0.077069655 0.08731442 -0.048523974 -0.018867284
000080 bd 0b e2 3d 13 49 2e bd f0 5c 8b 3d 0e 09 bd bc
       0.11037395 -0.042550158 0.06804836 -0.023075607
000090 b2 8b e7 ba 82 44 fe bc 8f 79 94 3c 4f 04 56 3d
       -0.0017665534 -0.031038526 0.01812437 0.052250203
0000a0 06 17 55 3c 01 c5 95 3d 4c 47 82 3c da f0 43 bd
       0.0130059775 0.07312966 0.015903138 -0.047837116
0000b0 ba fe a6 bc 0c e1 b4 3c 8e 03 30 3d 20 b1 f8 3c
       -0.020385135 0.022079967 0.04297214 0.030357897
0000c0 a8 03 8e bd 20 32 25 bc 9c 34 1f 3d 8b 9a 9f bd
       -0.06934291 -0.0100827515 0.03886853 -0.077931486
0000d0 92 27 a6 bd 6c 13 1c 3d a0 96 2f 3d 80 4a e9 ba
       -0.08113016 0.03810446 0.042868257 -0.0017798692
0000e0 77 42 97 bc fc 27 a1 bd c0 4c 8a 3b 0a 5f ff bb
       -0.01846431 -0.078689545 0.004220575 -0.007793312
0000f0 9c dd e6 bd 2d 45 04 bd c4 53 b6 3b ca 74 14 3d
       -0.112727374 -0.032292534 0.005564185 0.03624419
000100 d0 4c 06 bd 75 90 28 bc fc e8 0c 3d 3e fb 23 bd
       -0.032788098 -0.0102883475 0.03440188 -0.040034525
000110 be 26 3b bd fc a0 55 3d 08 5c 87 bd 2d 7b 97 bb
       -0.045691244 0.05215548 -0.066093504 -0.004622838
000120 cd 70 d4 3c 8a f5 4c bc 59 65 62 bd ac e3 9b 3c
       0.025932694 -0.012509713 -0.055272434 0.01902946
000130 18 a9 32 bc 8c 71 42 3c e0 91 1e 3d 00 37 83 bd
       -0.010904573 0.011867892 0.038713336 -0.06406975
000140 5c 45 d5 bc 31 c5 ea 3c c1 e8 97 3c de c7 2a 3c
       -0.02603405 0.028658481 0.018543603 0.010423629
000150 cc 9a 8f bc 85 48 59 bd 06 ac 5f 3d 24 de 3e bd
       -0.017529868 -0.053047676 0.054607414 -0.04659857
000160 ee 19 36 bc 28 84 67 bc cc d6 2e bd 80 52 80 3c
       -0.011114581 -0.01413063 -0.042685315 0.015664339
000170 78 84 c8 3c 92 5e a2 3d ee a8 b9 3a fa 89 86 bd
       0.024477229 0.07928194 0.0014164725 -0.06569286
000180 68 40 35 bc ca a7 87 bd d4 e8 28 3d 61 42 e7 3c
       -0.011062719 -0.066238 0.041237667 0.028229894
000190 8e fd 27 bd 58 5d c0 3d df 2d 79 3b fa 97 78 bd
       -0.041013293 0.09392804 0.0038021726 -0.06069181
0001a0 e5 5f c5 bd f7 ee 04 3d 5c c0 30 3c 32 0e 1b bd
       -0.09637431 0.032454457 0.01078805 -0.037855335
0001b0 d6 80 6f 3b 8e 5e 94 bd 92 e3 8e bd e2 34 1d 3d
       0.0036545298 -0.072445974 -0.06976999 0.03838051
0001c0 0d a3 a8 3c 7c 92 cd bc d7 a8 88 3d 6c d6 98 3c
       0.020585561 -0.025094263 0.06672829 0.018656932
0001d0 a4 2b d6 bc 74 30 91 3b 43 07 9d 3d a1 60 bd 3c
       -0.026143856 0.004430825 0.07667401 0.023117365
0001e0 20 c7 e4 bc 99 5a 2d bd 34 d3 17 3d a8 ad 75 3a
       -0.027926981 -0.04232273 0.037066653 0.0009371885
0001f0 94 22 70 3c d2 6c 84 3d b2 e9 0e 3d 79 0c ea bc
       0.014656682 0.06466068 0.034890838 -0.0285704
000200 d6 72 34 bd c5 a4 ee bc a7 3c 0a bd 62 97 63 bd
       -0.04405483 -0.029131303 -0.03374925 -0.05556429
000210 7a 10 47 3c 24 e6 ba 3b 66 31 10 bd d4 80 ca 3c
       0.012149924 0.0057037044 -0.03520336 0.024719633
000220 49 0d 46 3d e0 5a bb 3b 86 da 05 3d 99 e2 aa 3d
       0.048352513 0.0057176203 0.032679103 0.08344001
000230 17 bf 91 bd 86 d0 24 3d 92 3e a8 bd 3f 06 06 3d
       -0.071165256 0.040237926 -0.08215059 0.0327208
000240 96 65 bf 3c 98 a2 1e bd 9a 9b ab 3c a0 6a 9e 3c
       0.02336387 -0.03872928 0.02094822 0.019337952
000250 15 50 62 3d 13 17 aa bc 57 bb 50 bc b6 fb b1 bd
       0.055252153 -0.020762956 -0.012739978 -0.08690588
000260 42 20 17 bd 66 6c 5c bd 64 e2 3b 3d a5 37 c3 bc
       -0.036895998 -0.053814314 0.0458702 -0.023830244
000270 34 9f 96 3c 35 de 92 bd 9d 9d 01 3d 15 da 74 3c
       0.01838646 -0.07171289 0.031644452 0.014944573
000280 cf 2c 1f 3d e8 93 a1 bc 09 6d 72 bd 31 f8 8e bc
       0.038861092 -0.019723848 -0.059186015 -0.017452331
000290 53 b4 2c bd c0 c4 46 bd 20 04 d4 bc 48 f1 2a 3d
       -0.042164158 -0.04852748 -0.025880873 0.04173401
0002a0 93 1b 33 bd 36 d8 09 3d 64 d6 c2 bc 1d 00 e1 bc
       -0.04372747 0.03365346 -0.02378387 -0.027465874
0002b0 c0 fa b9 bb f7 fb 0f 3a e3 2f df 3c 50 7d 99 3d
       -0.0056756437 0.0005492563 0.027244514 0.074946046
0002c0 90 f1 86 3c a4 22 b9 3a 07 9d 5d 3d 88 a2 32 3d
       0.016472608 0.0014124704 0.05410483 0.043612033
0002d0 28 1f bc 3c 77 13 e8 3c f0 1b 81 3b 4c e8 d1 3a
       0.022964075 0.028329594 0.003940098 0.0016014664
0002e0 b2 36 7c 3d 19 8d 01 bc bc a3 01 3c 68 84 0b bd
       0.0615756 -0.007907175 0.0079125725 -0.03406182
0002f0 37 c0 90 3d ef 6c 1c bd 6c c5 d2 bc 01 5a a3 3d
       0.07067912 -0.038189825 -0.025728904 0.07976151
000300 b5 b7 d8 3c d5 01 6c bd dc 60 8d 3d 3c 93 68 3d
       0.026454786 -0.057618935 0.0690324 0.05678104
000310 b9 1e c6 3c 68 4a 5b 3d 10 3a a2 3a a9 48 0b 3d
       0.024184572 0.053537756 0.0012376923 0.03400484
000320 36 b2 83 bd fb 79 90 bc 45 02 b0 3c 46 53 06 bc
       -0.064304754 -0.01763629 0.021485457 -0.008198565
000330 a7 0b 2b 3c e2 50 f8 bc 28 57 bb 3c 58 d7 e5 3d
       0.01043979 -0.030312005 0.022868708 0.11222714
000340 32 6b 2c bd bf cd d0 bd d0 f7 69 3d 5c f0 2c 3c
       -0.042094417 -0.10195493 0.057121098 0.010555353
000350 24 14 24 bd 50 22 bf 3c 1e 3c 3b 3d b1 93 3a 3d
       -0.04005827 0.023331791 0.04571163 0.045551006
000360 ac 08 a1 bc 5d 4c c1 bc 4d 4e e4 bc e6 b6 a0 3c
       -0.019657455 -0.023595983 -0.027869368 0.019618463
000370 aa 0d a5 bd cc 33 61 bd f2 2b 5d bd 72 c1 6e bd
       -0.08059247 -0.054981038 -0.053996988 -0.058289953
000380 ef b1 ff 3a 1e fc 58 3c ac 3f 27 bd 4c 3a 5d 3c
       0.0019507984 0.013243703 -0.040832207 0.013502669
000390 e4 f1 d0 3c f4 31 b1 bc 38 24 5d bd 40 31 27 3b
       0.025505967 -0.021630265 -0.05398962 0.0025511533
0003a0 e3 5c 9c bb df df a5 3c 25 13 51 bd 4c dc 03 3d
       -0.004771815 0.020248352 -0.05104365 0.032192513
0003b0 c0 c5 c1 bc 02 12 38 bd e3 0f 05 bc f6 65 42 bd
       -0.023653865 -0.04493905 -0.0081214635 -0.04746052
0003c0 c5 67 9d 3c 8f a8 9a 3d 56 07 00 bd 6e cc 52 bd
       0.01921452 0.07551681 -0.031256996 -0.05146449
0003d0 88 4b 64 3d c0 7c 43 bd 62 2e c9 bc 7b 12 a4 bd
       0.055736095 -0.047726393 -0.02455825 -0.08011337
0003e0 e4 8b 47 bd a9 b5 6a 3d 5a 78 41 bd 3e bc 9a 3b
       -0.048717394 0.05730215 -0.047233917 0.0047221472
0003f0 90 bd f4 bc 19 b1 45 bc 4c 33 1f 3d fb f7 aa 3c
       -0.029875547 -0.012066149 0.03886728 0.0208702

bias f4 [128]
000000 f4 36 04 bd 42 1d 85 3d 66 53 34 bd 47 fd 66 bd
       -0.03227897 0.06499721 -0.044024847 -0.056393888
000010 e4 47 78 bd 43 06 8c bd 68 b5 8c bd 25 17 1d bd
       -0.060615435 -0.06837132 -0.06870538 -0.03835215
000020 47 35 6e bd 79 3d 80 bd c7 9a a7 ba c8 1e 8b bd
       -0.058156278 -0.06261725 -0.0012787216 -0.067929804
000030 e3 d4 27 bd 6d 8a ba 3d 40 5e b9 3c 6e b3 b0 bd
       -0.04097451 0.09108434 0.02262795 -0.086279735
000040 6b 66 97 bd 4d 60 60 bd 68 40 d7 bc 90 44 9e bb
       -0.073925816 -0.05477934 -0.026275828 -0.0048299506
000050 da 29 f0 bc cf 36 6d bd 5a b5 68 bd 0a 2b 5e 3d
       -0.029316831 -0.057913598 -0.056813575 0.054240264
000060 fe b0 51 3d 6e 43 9d bd 75 4b 84 bd 00 d9 e6 bb
       0.051194184 -0.07678877 -0.06459705 -0.0070449114
000070 cb fa 93 bc 51 5f a1 3c 49 32 6f 3b 4d 84 88 bc
       -0.018063923 0.01969877 0.0036498478 -0.016664648
000080 07 f6 d0 bb 01 1d 84 bd 72 c2 88 3b 2a e9 c9 3c
       -0.006376985 -0.064508446 0.0041735703 0.024647314
000090 c1 57 b0 bd e0 f2 74 bd 88 41 bd bc b9 d3 2b 3d
       -0.08610488 -0.059801936 -0.023102537 0.04194996
0000a0 77 b3 75 3d 6a fc 93 3d 48 d2 bd 3c 4c 18 15 be
       0.059985604 0.072258785 0.023171559 -0.1456005
0000b0 39 1a 89 bd fc 0f 90 bd 4e dc 8e 3d 4a 24 3a 3d
       -0.06694455 -0.07034299 0.069756135 0.045444764
0000c0 1c cf 16 bd f6 35 a3 3a 19 21 51 bd a7 e9 82 39
       -0.03681861 0.0012451995 -0.051056955 0.00024969617
0000d0 18 4a ad 3c a4 a2 d2 bc f0 16 94 bd 98 82 a7 bd
       0.021153495 -0.025712319 -0.072309375 -0.08179206
0000e0 2c 43 ab bd c5 bc 92 bd 98 bb 32 bd 8d a0 19 bd
       -0.083624214 -0.07164911 -0.043635935 -0.03750663
0000f0 d8 be 8b bc 62 46 ef 3d d8 6f 88 3a 6b 2f 36 3c
       -0.017058775 0.11683346 0.0010409309 0.011119704
000100 e4 32 94 bc 51 2b f1 3c 49 15 89 bb 83 26 26 bd
       -0.018090673 0.0294396 -0.0041834456 -0.04056407
000110 ec eb 96 bd a2 b6 22 3d da 4f 9d bb e0 97 94 bd
       -0.07369217 0.039724953 -0.004800779 -0.0725553
000120 60 2f 0d bb af 78 a7 bd 7a de fd bb 4a c1 a2 bd
       -0.002154313 -0.081773154 -0.0077474685 -0.07947023
000130 c7 98 16 bd ff a9 38 ba f9 c8 84 bd d0 7c 3d bb
       -0.036766794 -0.00070443744 -0.06483645 -0.0028913505
000140 49 a3 d9 3c a3 f2 6d bb 50 5d 7c 3c bb 23 02 bd
       0.026567118 -0.0036307953 0.015403107 -0.031772356
000150 53 eb 7e bd 64 f4 78 3b dc 1e 29 bd fa bb 4e bd
       -0.06223614 0.0037987465 -0.041289195 -0.050472237
000160 01 59 df bc 99 1d 78 bd 66 a1 5b bc e7 32 a9 3c
       -0.02726412 -0.0605751 -0.01340518 0.020654155
000170 c9 8d c0 bd b1 b0 f4 bc 10 aa 10 3d 6b aa a0 bd
       -0.09402043 -0.02986941 0.035318434 -0.07845005
000180 57 58 01 bd c5 02 4f bd 73 3f a2 3c d4 ea aa bd
       -0.031578388 -0.05053975 0.019805646 -0.08345571
000190 60 95 8a bc 04 38 80 bd b6 b5 db bd 9c 26 74 ba
       -0.01691693 -0.06260684 -0.10728018 -0.00093136146
0001a0 4e 5d e4 bd 09 e1 1f 3c ad 04 26 bd 7b 93 8a bd
       -0.11150609 0.009758242 -0.040531803 -0.06766411
0001b0 4b 26 7a bd 77 da 46 39 fc 50 a2 bd 42 e1 d6 bd
       -0.061071675 0.00018964136 -0.07925603 -0.10492183
0001c0 35 e2 6c bb f9 32 24 be db 5b 27 bd de 12 31 3c
       -0.0036145572 -0.1603507 -0.040859085 0.010807721
0001d0 05 a8 b6 bb 8a 9e e9 bc 9b c1 fb bb 24 6a e1 bc
       -0.0055742287 -0.02851798 -0.0076829917 -0.027516432
0001e0 bd 2b ed 3c 1e 5d 4e bd 35 ac 32 bc fe f1 e6 3c
       0.02895152 -0.050381772 -0.010905315 0.028191563
0001f0 8c b4 dd bd 23 a3 82 bd e4 cc 82 3d 91 5c 70 bd
       -0.10825452 -0.06378772 0.06386736 -0.05868203

weight f4 [64, 128]
000000 86 89 0e 3d 5a 90 7d 3d b6 c3 35 bd cc a5 a6 3c
       0.03479912 0.061905243 -0.044376098 0.02034273
000010 e0 48 81 3d d0 f6 be bc 1b 40 10 3d 68 d7 94 bd
       0.06312728 -0.023311049 0.035217386 -0.07267648
000020 05 f9 0a bd b7 56 a5 3d 8a 9a 88 bd dc ec 26 bd
       -0.03392889 0.0807318 -0.06670101 -0.04075323
000030 dd 83 86 bd 95 00 6f 3c b3 a9 d1 3c 43 8c 7d 3c
       -0.0656812 0.014587541 0.025593614 0.0154753355
000040 e7 c4 c8 bd e3 8b 4e 3b 47 c6 aa 3d ab 0c 7f 3d
       -0.09803181 0.0031516484 0.083386 0.06226794
000050 80 3e 31 ba c8 05 29 bc 1a f6 86 3d 7d 60 5a bd
       -0.00067613274 -0.01031632 0.06589909 -0.053314675
000060 98 81 af 3d 77 70 d9 3d fd 2d ac bd af a2 35 3d
       0.0856964 0.10617154 -0.08407209 0.0443446
000070 dd 80 aa 3d 56 84 6f bd 9f 8c 95 bd a5 db 41 bd
       0.0832536 -0.058475815 -0.07302212 -0.04732861
000080 22 4e f5 3c 34 6f fa bc d2 79 86 bd 79 b4 e1 3d
       0.029944483 -0.030570604 -0.06566204 0.110207506
000090 21 31 97 bd d1 ca 9a bd 65 e0 69 bd 75 8f f2 bd
       -0.073824175 -0.075582154 -0.057098765 -0.118437685
0000a0 fa eb 0e bc bd 6f 3f bc a6 12 a6 bc c2 76 ae bd
       -0.008723253 -0.011684355 -0.020272564 -0.08518745
0000b0 72 b8 7d bd af 86 8d bd db 8d 0c 3d 2d f6 82 bc
       -0.06194348 -0.069104545 0.03431497 -0.015986526
0000c0 5c e6 43 bd 00 87 55 3d 59 bc dc bd 46 cc 0a bd
       -0.04782711 0.0521307 -0.10778112 -0.033886217
0000d0 5a 2a 10 3c 8f f1 90 bc ba 3c 46 3c d4 8c 64 3d
       0.00879916 -0.01769331 0.012099439 0.055798367
0000e0 23 80 d2 3c 53 66 1b 3c d3 74 6c bd 45 85 90 bd
       0.025695866 0.009484845 -0.0577286 -0.07056669
0000f0 63 e3 e4 3d 2c 90 aa bd 8d 3a 7c 3d 25 2e d6 bd
       0.11176183 -0.0832828 0.061579276 -0.1045802
000100 5e 29 21 3d 6c bd 00 bd 63 bb 4b bd 41 1b 0a bd
       0.03934609 -0.031430647 -0.049739253 -0.033717398
000110 60 4e 71 bd 95 4a 98 bd cb aa f9 39 52 16 21 bd
       -0.058912635 -0.074361004 0.00047620232 -0.039327927
000120 62 3a 14 be b2 c4 2b bc 79 37 cb 3c 2d 5d 8d 3d
       -0.14475396 -0.010483908 0.024806725 0.069025375
000130 95 50 05 3d 0c 33 8a 3c 0d 3b 57 bd a5 b7 89 3c
       0.032547552 0.016870044 -0.05254655 0.016811201
000140 17 d2 e5 bd b3 be 82 bd f7 7d 66 3c 03 77 0c 3d
       -0.11221712 -0.06384029 0.014068118 0.034293186
000150 47 8c 2c bd eb 01 b7 bd 34 9e 92 bc c0 38 b1 bd
       -0.042125966 -0.08935913 -0.017897703 -0.08653402
000160 a3 f5 06 3c 0d b6 df 3b fc 55 ba bd 0c 36 35 3d
       0.008237275 0.006827122 -0.090984315 0.044240996
000170 f2 e6 79 bd cc d6 1d 3d 5e 6c ef 3c 87 c2 64 bc
       -0.061011262 0.038534924 0.029226478 -0.013962395
000180 8d 2c d7 3d cf 76 b9 3c 9c bc b7 3d fa ef 96 bd
       0.10506544 0.02263966 0.08971521 -0.07369991
000190 8d 93 d1 bd d8 1a 2e 3d e2 97 82 3d 47 83 47 bd
       -0.10233221 0.04250607 0.063766256 -0.04870918
0001a0 d7 df 91 bc 5b 96 26 bd 01 eb 25 3d f5 d4 98 bc
       -0.01780693 -0.040670734 0.04050732 -0.018656233
0001b0 73 c1 10 3d ed 6a 9d 3d df a5 96 3c 6f eb 2b bc
       0.035340738 0.0768641 0.01838964 -0.010493143
0001c0 9c c5 5f bd 3f cc 4c 3d b9 7c 86 bd 47 4e c5 3c
       -0.054631814 0.04999947 -0.06566758 0.024085177
0001d0 d1 8f 81 3d 1e e3 55 bd 0e 7e 57 3d 94 3f 99 3d
       0.06326259 -0.05221855 0.05261045 0.0748283
0001e0 0c 27 59 bd 32 50 e3 bb 92 29 2b bd ae 21 dc 3d
       -0.053015754 -0.0069370503 -0.04178769 0.107486114
0001f0 17 e6 e4 bd 8d 89 37 bc bb 02 1e 3d 9b 12 94 bd
       -0.11176699 -0.011202228 0.038576823 -0.07230111
000200 a4 0c 46 3d f6 6a 36 3d e8 44 08 bd c7 f3 c2 bc
       0.0483519 0.0445356 -0.03326884 -0.023797883
000210 a4 a7 3a bd 23 f5 dd bd ab 5b 09 3d 2e f9 b9 bc
       -0.04557003 -0.10837772 0.033534687 -0.022701826
000220 f8 cb 8f 3d b8 fb 92 3d 27 6f 01 bd 7a 4b 12 bd
       0.07021326 0.07176918 -0.031600144 -0.03571651
000230 e3 9e 1e 3d 32 c0 d1 bc c5 13 6b bd b2 68 14 bd
       0.038725745 -0.025604341 -0.0573919 -0.036232658
000240 05 7d 56 3b c5 56 83 bd 0d 06 12 3d 45 3e f1 3c
       0.0032728326 -0.06413034 0.0356503 0.029448638
000250 35 3a 80 3d 19 53 d9 bb 14 5a 1f 3e 43 6e 8a bd
       0.06261102 -0.0066322205 0.15561706 -0.06759312
000260 85 c4 78 bd 73 7c ab 3d 53 58 b2 3d 3a 22 91 bd
       -0.06073429 0.08373346 0.08708253 -0.07086606
000270 aa d4 b4 3d 14 3e 81 bb 07 37 71 bd c7 7d 68 bd
       0.08829625 -0.003944168 -0.05889037 -0.056760576
000280 0c 7c 2b bd 51 3d 3a 3d 7f 7b 93 3d 9a 60 83 3d
       -0.041866347 0.045468632 0.072012894 0.0641491
000290 46 9a 45 bd 97 59 68 3c 16 0b 34 3d 41 6f 30 3b
       -0.04824283 0.014181516 0.043955885 0.0026921781
0002a0 0b 5c 9f bc ff 97 86 bd 73 ee b6 3d 2b aa a4 bb
       -0.01945307 -0.0657196 0.08932199 -0.0050251684
0002b0 c0 1c 1c 3d 20 ac d8 bd 28 53 4d bd 6e 69 93 bd
       0.038113356 -0.10579705 -0.050128132 -0.071978435
0002c0 5c fb 93 bd b8 2d e0 3d 35 17 3e bc d7 45 6d bd
       -0.07225677 0.1094622 -0.011602213 -0.057927933
0002d0 16 e9 e2 bd 5c 0b 9a bd 78 a4 a8 3d 52 07 96 3d
       -0.11079614 -0.07521698 0.08234495 0.07325615
0002e0 14 2e e6 bc 34 6b 84 3c ae 17 14 bd 8b ee 55 bd
       -0.028098144 0.0161644 -0.036155395 -0.052229445
0002f0 e3 ca 9d 3c 53 44 a2 3d 4f f9 81 3d 62 fb 71 bd
       0.019261783 0.07923188 0.0634638 -0.059077628
000300 93 f6 10 bd 33 fd b7 bd b5 e3 86 3d 5a 06 d1 bb
       -0.0353914 -0.08983841 0.065864004 -0.006378931
000310 3d ed 73 3d f0 aa 20 bd eb e8 3b bc 93 ba 1d 3d
       0.05955242 -0.03922552 -0.011469106 0.03850801
000320 91 38 67 3c 1e 9d 70 3b 6e 05 0e 3d 94 16 44 bc
       0.014112608 0.0036714743 0.034673147 -0.011968274
000330 41 21 8a bd 5c 2e a1 bd 2c 2b 03 3d b1 9f 74 bd
       -0.06744624 -0.078701705 0.032023594 -0.059722606
000340 fe 82 47 3c bf 63 7e bc fb 0e b4 bc f5 c9 28 be
       0.012177227 -0.015526711 -0.0219798 -0.1648329
000350 7c b5 cf bc 4b cc c9 3d 0b 2e 17 3d d4 15 88 bc
       -0.025355093 0.09853419 0.036909144 -0.016611971
000360 4f b0 ef bc 51 56 01 3d c7 fd 93 3d 09 96 5b 3d
       -0.029258875 0.03157646 0.072261386 0.05360988
000370 ca 7a 8e bd 05 f7 35 3c 9c 3a 44 3d 78 01 81 bc
       -0.06957014 0.011106257 0.047907457 -0.01574777
000380 62 b9 a7 bd 8f 06 f4 bc cc 3d 5f 3d 34 b5 2f bb
       -0.08189656 -0.029788284 0.054502293 -0.0026810886
000390 98 8a 25 3d 12 88 22 3c d8 0e de 3c 6b 2d 0c 3d
       0.040415376 0.009920137 0.027106687 0.034223
0003a0 5c ed 46 bb e4 8b cd 3d b2 a3 6a 3d b4 cc c5 bc
       -0.003035388 0.10036448 0.05728502 -0.024145462
0003b0 59 81 9c bd 1c 2d 25 3d 64 5b 06 bd 11 b4 2c bb
       -0.076418586 0.040326223 -0.032802 -0.0026352445
0003c0 ba 2a 17 ba 5f 96 81 bd e9 9f e8 bd 4e c7 b9 bb
       -0.00057665596 -0.06327509 -0.113586254 -0.005669511
0003d0 ec a3 e4 3d e8 17 61 bc e9 bf b9 bd 1e 32 0d bd
       0.11164078 -0.01373861 -0.09069807 -0.034471624
0003e0 57 ee 68 3c 0f 25 99 3c c9 a5 29 3d c9 af 87 3c
       0.014216981 0.018694429 0.04141787 0.016563313
0003f0 1b 58 2a 3d 70 93 85 bd 10 f5 6d bd 02 c3 28 bd
       0.04158793 -0.06522262 -0.058095038 -0.0412016

bias f4 [64]
000000 23 02 5f bd 9a dd 56 3b e1 09 df 3c b2 30 ea 3d
       -0.054445397 0.0032785893 0.02722639 0.11435069
000010 40 7b 11 3d 92 91 ed bd 1f 59 be bd c8 74 f1 bb
       0.03551793 -0.11600031 -0.09294342 -0.0073686577
000020 bc f2 b9 bd 99 46 09 3d 52 d8 16 bd c5 67 62 3d
       -0.09079501 0.033514593 -0.036827393 0.055274744
000030 38 34 46 3d b6 86 a3 bd f5 8e a0 bd b8 16 e6 bb
       0.048389643 -0.079846784 -0.07839767 -0.0070217513
000040 02 a5 89 3d f8 a7 d1 bd e3 52 5e bd 3a 4a 54 3d
       0.06720926 -0.102371156 -0.054278266 0.0518286
000050 e4 15 00 be ed e9 8d 3c 2f 6d 0f 3d c2 52 8e bd
       -0.1250835 0.017323459 0.035016235 -0.069493786
000060 04 9b 48 3d 6d 76 c4 bb 61 fc 23 3c ee 3f 20 bd
       0.04897596 -0.0059955628 0.010008902 -0.039123468
000070 c6 f8 6e bd 41 cb 8d bd cf 7b 85 bc c9 5e 15 bd
       -0.058342718 -0.06923533 -0.016294388 -0.036467347
000080 02 75 52 3d 05 b4 72 bd d8 a9 c9 3c 26 19 c7 b9
       0.05138112 -0.05925371 0.02461712 -0.00037974975
000090 0c 14 7d bd d2 b7 36 3d 0d d2 de 3b 4f a7 18 bb
       -0.061786696 0.0446089 0.0067999423 -0.0023293083
0000a0 02 59 e3 3d 42 84 0b bd 12 60 5d 3d 9c a2 7f 3d
       0.11100961 -0.034061678 0.054046698 0.062410936
0000b0 5c 6b 14 3d 78 85 91 ba c2 7a 24 3c dc 64 49 3d
       0.0362352 -0.0011102399 0.010039033 0.049168453
0000c0 64 d0 d9 3d f9 ee 12 3d 1c c2 5c 3d 93 25 07 3c
       0.106354505 0.035872433 0.053896055 0.0082487045
0000d0 58 15 81 3d a1 e7 8c bc b6 a3 65 3d 84 b9 3c 3c
       0.06302899 -0.017200293 0.05606433 0.01151884
0000e0 9f 59 58 bd cc 0b 92 3d e3 e9 0f bd fd 6e c3 3d
       -0.052819844 0.07131156 -0.03513516 0.09542654
0000f0 d0 c7 dc 3b 5c a4 20 3d ae e6 2c 3d b1 bc 71 bd
       0.0067376867 0.039219245 0.04221218 -0.05901784

weight f4 [1, 64]
000000 4d c3 a0 3b 08 f3 10 3a 13 37 7b 3d 43 94 0c 3e
       0.004906094 0.00055293785 0.06133182 0.13728432
000010 cb b4 10 3d dc d6 83 3d 0c f9 de 3d a7 44 0c bd
       0.035328668 0.064374655 0.10887346 -0.03424516
000020 f6 d8 fe 3d 39 35 8e 3d ac a5 e1 3d 0b f6 ab 3d
       0.12443726 0.06943745 0.110179275 0.08396538
000030 3b c9 c4 bd 14 2f 5e bd 44 f4 c1 3d 0d 32 32 ba
       -0.09608694 -0.054244116 0.09470418 -0.0006797619
000040 76 dc aa 3d 29 ec b2 bc f4 f8 0c be 50 ac d4 bd
       0.08342831 -0.021841126 -0.13766843 -0.103844285
000050 ef c0 ad bc 29 13 c5 bd 7e fd 61 3d 18 f6 92 3c
       -0.021210162 -0.09622795 0.05517339 0.017939612
000060 97 c5 29 3c 55 04 bc 3d 64 48 dc 3b 25 43 75 bc
       0.0103620505 0.09180514 0.006722497 -0.014969622
000070 ee b4 08 bb 41 bd fe 3c 5a 8d 24 3a 48 ad c9 3d
       -0.0020859796 0.031096103 0.00062771665 0.09847504
000080 bf d3 ed 3d 5c a8 dd bc f4 79 12 be d7 bd bf 3c
       0.11612653 -0.027057819 -0.14304334 0.023405952
000090 e8 1b f7 3d fa 79 91 bd 4d 2b 28 be e8 96 54 bc
       0.120658696 -0.07103343 -0.16422768 -0.012975432
0000a0 5a 24 a4 3d 91 51 d4 3d 56 6f 9d bd c3 92 16 be
       0.08014746 0.1036712 -0.07687251 -0.14704423
0000b0 64 68 67 3b 3c 2d 29 ba 7c bb 71 bb e8 45 b6 bd
       0.0035310024 -0.0006453579 -0.003688543 -0.08900052
0000c0 a4 c2 e5 3d a7 30 d0 3d 13 cc 86 3d 7e 33 0d 3d
       0.112187654 0.1016553 0.06581893 0.034472935
0000d0 00 38 e8 bd 55 c4 be 3d 8f ab bc bd 82 03 28 bd
       -0.11338806 0.09314791 -0.0921241 -0.04101897
0000e0 db 0c 2c 3d b1 99 66 3c d0 ee 0a 3e 60 b2 b6 bd
       0.042004447 0.014074729 0.13567662 -0.08920741
0000f0 cd 43 11 be 6a 43 f4 3c 06 c0 bf bd a1 61 32 3b
       -0.1418602 0.029817302 -0.093627974 0.0027218836
