models/model.pth (torch, 955535 bytes, 7 tensors)

weight f4 [256, 768]
0	0x3d119dac	0.03555076
1	0x3d641371	0.055682603
2	0xbcc30835	-0.023807624
3	0x3ada430c	0.0016652062
4	0xbc95a9e0	-0.01826948
5	0x3d0fecd7	0.035137977
6	0xbd575678	-0.052572697
7	0xbc8be4bc	-0.017076842
8	0xbc67b2cc	-0.01414175
9	0x3ae35f2d	0.001734709
10	0x3b0a2b5b	0.002108297
11	0xbc9ce628	-0.019152716
12	0xbc57a570	-0.013162002
13	0xbd466622	-0.048437245
14	0xbcdb0dc2	-0.026739959
15	0xbc8b2d68	-0.016989425
16	0x3d406c05	0.046978015
17	0xbd29af9c	-0.04142724
18	0xbc98233d	-0.01857149
19	0xbc324bbf	-0.010882317
20	0x3d0de266	0.03463974
21	0x3d4332c1	0.047655825
22	0xbd40abaa	-0.04703871
23	0x3d03fb44	0.032222047
24	0xbd37fda7	-0.044919636
25	0xbc71dbe8	-0.014761902
26	0x3d625ee7	0.055266287
27	0x3bcddf46	0.00628272
28	0x3ca72da6	0.020407509
29	0x393e0c64	0.00018124428
30	0x3c8d4662	0.017245475
31	0xbd0467ed	-0.032325674
32	0x3b5da579	0.0033820553
33	0x3ccfc4ba	0.025362361
34	0x3b64ec33	0.0034930825
35	0x3d46462b	0.04840676
36	0xbb95edeb	-0.004575481
37	0x3c8a55fa	0.0168867
38	0xbb305065	-0.0026903388
39	0xbc896cde	-0.016775545
40	0xbb65ff6a	-0.0035094866
41	0xbc886bfa	-0.01665305
42	0xbd63a9b6	-0.05558177
43	0x3d1ed025	0.03877272
44	0xbce504dc	-0.027956419
45	0x3cad3260	0.021142185
46	0x3c4e7b30	0.012602612
47	0x3c905cd4	0.017622389
48	0xbc047718	-0.008085035
49	0x3d479df1	0.04873461
50	0xbc18562f	-0.0092978915
51	0xbc36cc60	-0.011157125
52	0x3b0caec0	0.0021466464
53	0xbd44cf63	-0.048049342
54	0xbd28f0c7	-0.04124525
55	0x3c042c63	0.008067223
56	0xbc4a8638	-0.012361102
57	0x3c9317c3	0.017955666
58	0x3d15de62	0.036589034
59	0xbb18cd8f	-0.0023315882
60	0xbcd7def4	-0.02635143
61	0xbc91666b	-0.017749032
62	0x3d5d9b31	0.05410308
63	0xbc39e325	-0.011345659
64	0xba6371e0	-0.00086763315
65	0x3c49f795	0.012327095
66	0xbc2c99f2	-0.01053475
67	0x3b837e11	0.004012831
68	0x3d14ce04	0.036329284
69	0xbc62c2c7	-0.013840384
70	0x3cbad14d	0.02280488
71	0x3c185d99	0.009299659
72	0xbc47e7a8	-0.012201227
73	0xbc582d51	-0.013194398
74	0xbcca0e3d	-0.024664992
75	0x3d20cd0c	0.039258048
76	0x3cb7bf0b	0.022429964
77	0x385edb32	5.3133066e-05
78	0xbc3b34d3	-0.0114261685
79	0x3c7cb30e	0.015423549
80	0xbcda2719	-0.026629971
81	0x3bb90440	0.0056462586
82	0x3c6bb8f9	0.014387363
83	0x3cb9dde1	0.022688808
84	0x3b1e4aca	0.0024153464
85	0x3b09f875	0.0021052633
86	0x3cccd7bc	0.025005214
87	0x3c51c096	0.012802264
88	0xbc409f6e	-0.011756761
89	0x3c356998	0.011072539
90	0x3cee9da6	0.029127907
91	0x3bbb1eb0	0.0057104453
92	0xbb8dda0e	-0.0043289727
93	0xbd62b06f	-0.05534404
94	0xbd508eb4	-0.050917342
95	0x3cd68010	0.026184112
96	0x3cdfce99	0.027320193
97	0xbcc9a5a4	-0.024615116
98	0xbcba6550	-0.022753388
99	0x3c114814	0.008867282
100	0xbd078373	-0.033084344
101	0x3c1f0d75	0.009707798
102	0xbbdcf8db	-0.006743533
103	0x3d0e77d2	0.03478224
104	0x3b81d8f9	0.0039626327
105	0xbba84ef6	-0.005136366
106	0x3c8befa9	0.017082052
107	0x3c5239b9	0.012831145
108	0xbc68beba	-0.014205629
109	0x3b08da72	0.0020882157
110	0xbbe11146	-0.006868514
111	0x3b65c6da	0.0035061152
112	0x3cf84c02	0.03030968
113	0x3d42a3b0	0.047519386
114	0x3c11e628	0.008904971
115	0xbd43815d	-0.047730792
116	0xbd083a65	-0.033258814
117	0x3d0ad328	0.03389278
118	0x3cc83017	0.024436994
119	0x3cc88c0d	0.024480844
120	0xbc8f781e	-0.017513331
121	0xbd60b0f8	-0.05485627
122	0x3b778700	0.0037769675
123	0xbce7d511	-0.02829984
124	0x3bf62887	0.0075121555
125	0xbd403bbf	-0.04693198
126	0x3c539ed5	0.0129162865
127	0xbc24055a	-0.010011042
128	0xbc9ed09a	-0.019386578
129	0x3b7fc71a	0.0039028586
130	0xbb22c37d	-0.0024835758
131	0xbd10abc1	-0.035320047
132	0x3d334d0a	0.043774642
133	0x3abc0130	0.0014343616
134	0x3d2622a4	0.04056038
135	0xbd698217	-0.05700883
136	0xbcd0e34d	-0.02549901
137	0xbc44331d	-0.011975077
138	0x3d348c48	0.044079095
139	0xbce9d192	-0.028542314
140	0x3cdb933c	0.026803605
141	0x3cef8c68	0.029241756
142	0x3c4112e0	0.011784285
143	0x3a9b386f	0.001184238
144	0xbc44ad02	-0.012004139
145	0xbd7a7ddf	-0.061155196
146	0x3bde5a6d	0.006785682
147	0x3bbf27d1	0.005833604
148	0x3c6fe40b	0.014641772
149	0xbc15a7b0	-0.009134218
150	0xbcf94301	-0.030427458
151	0xbcefbc72	-0.029264662
152	0x3bdb7b46	0.006698045
153	0xbc536631	-0.012902782
154	0x3d49c73e	0.049262278
155	0x3c33c5dd	0.010972467
156	0xbac78541	-0.0015222208
157	0xbc68931e	-0.014195232
158	0x3cf6189c	0.030041032
159	0x3bcec401	0.0063099866
160	0xbba31447	-0.0049767825
161	0x3c0e8eed	0.008701068
162	0xbc3c7f92	-0.0115050245
163	0xbc4c7803	-0.012479785
164	0xbb30a7d2	-0.0026955497
165	0xbd6b0462	-0.057377227
166	0xbcd8d070	-0.026466578
167	0xbc137950	-0.009001091
168	0x3ba68672	0.005081945
169	0x3d4e8395	0.050418455
170	0x3b62b3c3	0.003459201
171	0xb999c5df	-0.0002932986
172	0x3c586502	0.013207676
173	0x3b1e899c	0.0024190908
174	0xbd470d58	-0.04859671
175	0xbd5118ba	-0.05104897
176	0x3cd038b7	0.025417669
177	0xbc75d9f2	-0.0150055755
178	0x3cc71abf	0.024304746
179	0x3d0698b1	0.03286046
180	0x3cc90e85	0.024543056
181	0xbbdaca31	-0.006676935
182	0x3b488f4f	0.0030602997
183	0x3b87add5	0.0041405954
184	0xbd3cb45c	-0.04607044
185	0x3c911c25	0.017713616
186	0xbd049769	-0.03237096
187	0x3b95d635	0.0045726546
188	0xbc844264	-0.016144939
189	0xbd11082f	-0.035408195
190	0x3d06bef3	0.032896947
191	0x3c011c4e	0.0078802835
192	0x3a1bc07e	0.00059414643
193	0x3c2a2798	0.010385416
194	0x3c26dd1c	0.0101845525
195	0xbb544421	-0.003238924
196	0xbc136add	-0.008997646
197	0x3d4958c8	0.049156934
198	0x3c283ba8	0.010268129
199	0xbc085cbb	-0.00832289
200	0xbca184ad	-0.019716585
201	0x3ceec6b8	0.02914749
202	0xbcaecf2b	-0.02133902
203	0xbca0e647	-0.019641055
204	0x3d0c1d86	0.034207843
205	0xbc3b94e4	-0.0114490725
206	0x3c8fc013	0.017547643
207	0x3cdedfaa	0.02720626
208	0xbbd2ac4b	-0.0064292303
209	0xb9a5fe6c	-0.00031660812
210	0x3ca2a255	0.019852797
211	0xbd317f70	-0.043334424
212	0x3d299a47	0.041406896
213	0x3be7b947	0.0070716473
214	0xbcce3ec6	-0.025176417
215	0x3c0364f8	0.008019678
216	0x3b371019	0.002793318
217	0x3d5190f1	0.051163618
218	0x3cd082d2	0.025453005
219	0x3b6cd1d7	0.0036135816
220	0xbd0750e0	-0.033036113
221	0xbb51a37d	-0.0031988316
222	0xbcd02938	-0.02541028
223	0x3bffc80d	0.0078058303
224	0xbc06da25	-0.008230721
225	0xbd2cef86	-0.042220615
226	0xbc3e371f	-0.011609822
227	0xbd11ade8	-0.03556624
228	0xbb9b3ca0	-0.0047374517
229	0x3c0be64b	0.008538793
230	0x3be3dec4	0.006954046
231	0x3d516f34	0.051131442
232	0xbce9f0d7	-0.028557224
233	0x3c83dc91	0.016096385
234	0x3d39b495	0.045338232
235	0x3c90f2c7	0.01769389
236	0x3b99f881	0.0046988134
237	0x3d203bf5	0.03911968
238	0xbd63bbf0	-0.055599153
239	0x3d25a7e1	0.040443305
240	0x3ab772cf	0.0013996008
241	0xbc23a062	-0.009986969
242	0x3b80cc0b	0.003930574
243	0xbd0a3212	-0.033739157
244	0x3c5b8bbd	0.013400015
245	0xbcbaf625	-0.022822449
246	0xbd1a5929	-0.037682686
247	0x3c3b6450	0.011437491
248	0xbd69a745	-0.057044286
249	0x3d5f3206	0.054491065
250	0xbcc0b1d2	-0.023522291
251	0x3d42383c	0.04741691
252	0x3cd814cd	0.026377106
253	0x3d376c2f	0.044780906
254	0xbd555629	-0.05208412
255	0xbc50dccd	-0.0127479555

bias f4 [256]
0	0x3c05a6a4	0.008157406
1	0xbd006e23	-0.031355035
2	0x3c8c98ac	0.017162643
3	0xbcb0c00b	-0.021575948
4	0xbd28e528	-0.041234165
5	0xbd2cbc55	-0.042171795
6	0x3c2b8170	0.010467872
7	0xbc856a4b	-0.016286036
8	0xbc831bec	-0.016004525
9	0xbd574868	-0.052559286
10	0x3a9c80d8	0.0011940254
11	0x3ca2c050	0.019867092
12	0xbc92a07d	-0.017898792
13	0xbd4438bf	-0.04790568
14	0xbc91f0ad	-0.017814958
15	0xbb848f74	-0.0040454213
16	0x3d08e832	0.033424564
17	0xbcf1db18	-0.029523417
18	0x3c8427d0	0.016132265
19	0xbd01ed7a	-0.031720616
20	0xbcb3cb87	-0.021947635
21	0xbd1f23e9	-0.038852606
22	0x3c395298	0.011311196
23	0xbc07fd0c	-0.008300077
24	0xbbe26e71	-0.0069101383
25	0xbc22e991	-0.009943382
26	0xbd31e74a	-0.043433465
27	0xbcf14f0c	-0.029456638
28	0xbcb75efd	-0.022384161
29	0xbd007b5d	-0.03136765
30	0xbc6826ca	-0.014169404
31	0xbd07d850	-0.033165276
32	0x3ae7ade0	0.001767572
33	0x3ae04f20	0.0017113425
34	0xbcba5370	-0.022744864
35	0xbb25475e	-0.002521954
36	0xbcf10447	-0.029420985
37	0xbce33c79	-0.027738797
38	0xbd3c0ca5	-0.045910496
39	0xbd6b3395	-0.05742224
40	0xbd409bfe	-0.047023766
41	0xbc931dcb	-0.017958542
42	0x3c35b030	0.01108937
43	0xbd1dc77c	-0.03852032
44	0x3c3c1f15	0.01148202
45	0x3c5e0e87	0.013553268
46	0xbbdfffc8	-0.0068359114
47	0x3c035117	0.008014939
48	0xbd3cc983	-0.046090614
49	0xbc6ee950	-0.014581993
50	0xbc17c6f3	-0.009263742
51	0xbc869c35	-0.016431907
52	0xbd35d001	-0.04438782
53	0xbd172560	-0.036900878
54	0x3ac3ee80	0.0014948398
55	0xbcb914cc	-0.022592925
56	0xbc84f309	-0.01622917
57	0x3d05ba51	0.03264839
58	0xbd4a87de	-0.04944598
59	0xbcd57418	-0.026056334
60	0x3c55d2e0	0.013050765
61	0x3c154b67	0.009112216
62	0x3bbfdcac	0.0058551636
63	0xbd08a120	-0.033356786
64	0x3d2d18f3	0.04226012
65	0xbcc05bb8	-0.023481235
66	0xbd520b10	-0.05128008
67	0xbd023d16	-0.031796537
68	0x3ca03aae	0.01955923
69	0xbc6d85e1	-0.014497251
70	0xbc860a51	-0.016362341
71	0xbd18f074	-0.03733869
72	0xbc144b40	-0.009051144
73	0x39be87d2	0.00036340818
74	0x3d13c9ea	0.036081232
75	0x3bf7c9bc	0.0075618904
76	0xbd41a760	-0.047278762
77	0xbba78230	-0.005111955
78	0x3ca352bf	0.019936917
79	0xbd18f030	-0.037338436
80	0xbba61038	-0.0050678514
81	0xbcc38fa5	-0.023872206
82	0xbcf7d0e6	-0.030250978
83	0x3b5ae6e0	0.0033401772
84	0xbd248936	-0.040169917
85	0xbc9d78d7	-0.01922266
86	0xbb81b6bd	-0.0039585517
87	0x3c8f97f4	0.017528512
88	0x3ba27887	0.0049582156
89	0x3ba800cf	0.0051270495
90	0x3c4756bd	0.012166676
91	0x3bbe7a82	0.005812944
92	0xbd4fc3e6	-0.050723933
93	0xbcba6677	-0.022753937
94	0xbcc22d84	-0.023703344
95	0x3c2002d3	0.009766298
96	0xbd1c0803	-0.038093578
97	0x3c62b5e0	0.013837308
98	0x3c8fe4f8	0.017565235
99	0xbcdd8ae7	-0.027043773
100	0x3be60aa3	0.007020311
101	0xbc0bb345	-0.008526628
102	0xbb880108	-0.0041505136
103	0x3cd9d68c	0.026591562
104	0xb801f000	-3.0979514e-05
105	0xbb67e3c5	-0.0035383564
106	0xbca4e48c	-0.02012851
107	0x3ca1bc5f	0.019743143
108	0x3c932a96	0.017964642
109	0x3b38c92a	0.0028196075
110	0xbcd98e92	-0.02655724
111	0x3c3052c4	0.01076192
112	0x3cc2ed97	0.023794932
113	0xbc5a9423	-0.013340983
114	0xbc9aabbf	-0.018880723
115	0xbb5c2e3b	-0.0033596891
116	0x3cfc62a4	0.030808754
117	0x3c3b88e7	0.011446214
118	0xbcfe357c	-0.031031363
119	0xbc9314a4	-0.017954178
120	0xba9440d2	-0.0011310822
121	0xbc24b8b3	-0.010053801
122	0x3c803b12	0.015653167
123	0x3c2e10b0	0.010624096
124	0x3d14fae9	0.0363721
125	0xbd144f69	-0.036208544
126	0xbc9312a0	-0.017953217
127	0xbc8afaf7	-0.016965372
128	0x3ca8c977	0.020603878
129	0x3c8e3a0f	0.017361669
130	0xbcb70e46	-0.022345673
131	0x3c94c177	0.018158657
132	0x3b91f3f0	0.0044541284
133	0xbbfcb0e4	-0.0077115167
134	0xbd07ede8	-0.03318587
135	0xbb99e3eb	-0.0046963594
136	0xbd18f0e0	-0.03733909
137	0x3c1406fe	0.00903487
138	0xbc8b0542	-0.01697028
139	0xbd3a36f0	-0.04546255
140	0xbcda3400	-0.026636124
141	0xbd446fc4	-0.04795815
142	0xbb09c2a2	-0.0021020551
143	0xbd47dfc4	-0.048797384
144	0xbc0519fb	-0.00812387
145	0xbc817968	-0.015804961
146	0xbcf8220b	-0.03028967
147	0xbb75c889	-0.0037503561
148	0xbd4ffc7c	-0.050777897
149	0xbcab0363	-0.020875638
150	0xbaf2580a	-0.0018489372
151	0xbb6689f6	-0.0035177446
152	0x3cd0bc6d	0.025480473
153	0xbc4991cb	-0.012302826
154	0xbce053c3	-0.02738369
155	0xbc7ed629	-0.015553989
156	0xbd074859	-0.03302798
157	0xbcef57c0	-0.029216647
158	0xbc9cf435	-0.019159416
159	0x3c7dab05	0.015482669
160	0xbcda7ca5	-0.026670763
161	0xbd3a3f8e	-0.045470767
162	0x3c093e8d	0.00837673
163	0xbb876ab6	-0.004132594
164	0xbcb0f97d	-0.02160334
165	0xbc83de95	-0.016097346
166	0x3ba60050	0.005065955
167	0xbd2e3b97	-0.042537298
168	0xbc93cfac	-0.018043362
169	0xbc5a6c70	-0.013331518
170	0xbbffc5fd	-0.0078055845
171	0x3d0113c6	0.031512998
172	0xbc5ce8e2	-0.013483258
173	0x3c833dce	0.016020682
174	0xbd31c2c2	-0.043398626
175	0x3c5c6bff	0.013453483
176	0x3d59ebcb	0.053203385
177	0x3ac20500	0.0014802516
178	0x3c58ad21	0.013224871
179	0xbccd1977	-0.025036557
180	0xbd4cc268	-0.049990088
181	0x3b90e236	0.0044214977
182	0xbb80024f	-0.003906525
183	0xbbfc6c7e	-0.007703363
184	0x3c3d7e34	0.011565734
185	0xbc8879c4	-0.016659625
186	0x3c2838b5	0.010267426
187	0x3c67897f	0.014131903
188	0x3c608baf	0.013705178
189	0xbd1459e3	-0.036218535
190	0xbd242c3f	-0.04008126
191	0xbc4a1b92	-0.012335675
192	0xbcee4a41	-0.029088141
193	0x3bf41eff	0.007449984
194	0x3c51d985	0.012808208
195	0xbc26f41d	-0.010190037
196	0xbbb1d385	-0.0054268264
197	0xbcaa5bef	-0.02079579
198	0x3b80f33e	0.0039352467
199	0xbd1768d5	-0.03696521
200	0xbd34f06f	-0.044174608
201	0xbcba23bf	-0.022722123
202	0x3c0dfee0	0.008666724
203	0xbd0ce3f8	-0.034397095
204	0x3bedd4eb	0.007258048
205	0xbd0bb7e2	-0.03411091
206	0xbd263747	-0.04058006
207	0x3c3a6966	0.011377668
208	0xbbad53ff	-0.005289554
209	0xbc4b7561	-0.012418122
210	0x3b857070	0.0040722415
211	0xbd30b4f2	-0.043141313
212	0xbc9237fc	-0.017848961
213	0xb972463e	-0.00023105086
214	0x3bc73715	0.0060795643
215	0x3b95678d	0.0045594634
216	0xbd0c02b1	-0.034182254
217	0xbd10c25d	-0.03534161
218	0xbd3a2f7f	-0.045455452
219	0xbd454aae	-0.048166923
220	0xba0735ec	-0.00051578763
221	0x3cfe849d	0.031069094
222	0xbc4ae293	-0.012383121
223	0xbd0ff786	-0.035148166
224	0xbcf6af0d	-0.030112768
225	0xba4d0780	-0.0007821247
226	0x3d12e488	0.035862476
227	0xbd155ef8	-0.036467522
228	0xbc60af4f	-0.013713672
229	0xbd05c0f9	-0.032654736
230	0xbd31beff	-0.04339504
231	0xbcd36bdb	-0.025808265
232	0x3ce1c590	0.027560025
233	0x3c484814	0.012224216
234	0x3c351c20	0.011054069
235	0xbd069bf3	-0.03286357
236	0xbc487a8a	-0.012236247
237	0x394a8a00	0.0001931563
238	0x3c0520d2	0.008125501
239	0xbcbc38e6	-0.02297635
240	0xbd4881ca	-0.0489519
241	0x3ca479d9	0.020077633
242	0x3ca5e642	0.020251397
243	0xbd4047ee	-0.046943597
244	0xbc855f7b	-0.01628088
245	0xbcde98d5	-0.027172485
246	0xbc2590c8	-0.010105319
247	0xbc51d83e	-0.012807904
248	0x3d172437	0.03689977
249	0xbc9dd6f3	-0.019267535
250	0x3cef99b0	0.029248089
251	0xbc95a92e	-0.018269148
252	0xbd0eea53	-0.034891438
253	0xbd12a4fe	-0.03580188
254	0xbbc5807a	-0.0060272785
255	0x3d941c3a	0.07231946

weight f4 [128, 256]
0	0xbd796214	-0.06088455
1	0x3d1143d0	0.03546506
2	0x3b463034	0.0030241134
3	0x3b6f1389	0.003648015
4	0xbd363796	-0.044486605
5	0x3c948b6a	0.018132884
6	0xbd67361a	-0.05644808
7	0xbd575388	-0.052569896
8	0xbcdd1a55	-0.026990095
9	0xbd8d45f3	-0.068981074
10	0x3d0daca4	0.03458847
11	0xbc56b550	-0.013104752
12	0xbca84c88	-0.020544305
13	0x3bd009fe	0.0063488474
14	0xbcd7a75c	-0.02632492
15	0xbd735a00	-0.059412003
16	0xbd8a95d4	-0.06766859
17	0xbccfa8de	-0.025349077
18	0x3d41aba4	0.04728283
19	0xbb79d786	-0.0038122847
20	0x3d3f146b	0.04665033
21	0x39e7a265	0.00044180747
22	0xbd2a0f89	-0.04151872
23	0xbbeac85f	-0.0071649994
24	0x3acfdac8	0.0015858049
25	0x3ba23cdf	0.004951104
26	0xbd872744	-0.06599286
27	0x3d2f42d2	0.042788334
28	0xbc950f00	-0.01819563
29	0x3d0932ba	0.033495642
30	0xbd33f215	-0.04393204
31	0x3cdd6aaa	0.0270284
32	0xbaade000	-0.001326561
33	0xbd600ead	-0.054701496
34	0x3d07e55f	0.03317773
35	0x3d052600	0.032506943
36	0xbd77661e	-0.06040012
37	0xbafe3430	-0.0019394215
38	0x3a522491	0.0008016313
39	0x3d49294b	0.049111646
40	0x3c87a1f1	0.016556712
41	0x3d30d690	0.043173373
42	0x3ce829c4	0.028340228
43	0xbd029d3d	-0.031888235
44	0xbbd374f3	-0.0064531504
45	0xbc969ea6	-0.018386196
46	0xbd17e25e	-0.037081115
47	0xbd2218f5	-0.039574582
48	0x3d5c2922	0.053750165
49	0xbc6df996	-0.014524838
50	0xbd0ca9c0	-0.034341574
51	0x3cdd8480	0.02704072
52	0x3b7f7864	0.003898167
53	0xbcfbeea2	-0.030753437
54	0xbcb38b88	-0.02191712
55	0x3cf5388b	0.029934188
56	0xbd835cdd	-0.06414197
57	0xbc0b0d6e	-0.008487089
58	0xbcdea1ce	-0.027176764
59	0x3c9d05f8	0.019167885
60	0xbd3dbdce	-0.04632359
61	0xbcd7b466	-0.026331138
62	0x3c56c7f4	0.013109196
63	0xbd41c9e2	-0.04731167
64	0xbd042a39	-0.03226683
65	0xbd51f57e	-0.05125951
66	0x3ca8f427	0.020624233
67	0xbc904f68	-0.017615989
68	0x3d251779	0.04030559
69	0x3d0810d7	0.033219185
70	0x3c1660da	0.009178365
71	0xbcf42410	-0.029802352
72	0x3ac5962d	0.0015074663
73	0x3c9817b5	0.018565992
74	0x3a8131e2	0.0009856785
75	0xbbaef7de	-0.0053396067
76	0xbc30c9f7	-0.01079034
77	0xbd2e8cbb	-0.04261468
78	0xbd8b8925	-0.068132676
79	0x3d2ccf7b	0.042190056
80	0xbd1f8054	-0.038940743
81	0x3c934d5e	0.017981227
82	0x3d029304	0.031878486
83	0x3acebe59	0.0015773281
84	0x3cd36c99	0.02580862
85	0xbd529b6a	-0.051417746
86	0xbc9babfb	-0.019002905
87	0x3bf73731	0.007544421
88	0xbbf24061	-0.0073929285
89	0xbd81e434	-0.063423544
90	0x3ced78b1	0.028988214
91	0xbd131fd6	-0.035919033
92	0xbcc74438	-0.024324521
93	0xbd219035	-0.039444167
94	0xba3a2e4b	-0.0007102235
95	0x3cd92edb	0.0265116
96	0xbcb34310	-0.021882564
97	0xbd88baef	-0.0667628
98	0xbc45507b	-0.012043114
99	0x3c44c872	0.0120106805
100	0x3d7be456	0.061497055
101	0x3b6999ec	0.0035644723
102	0x3d24702e	0.040146045
103	0xbd73e2f6	-0.05954262
104	0xbd6ec7d0	-0.058296025
105	0x3d021503	0.03175832
106	0x3d067112	0.032822676
107	0xbd72e70d	-0.05930238
108	0x3ce1162c	0.027476393
109	0xbd33bafb	-0.04387949
110	0xbd1f3809	-0.0388718
111	0xbbafcd30	-0.0053650364
112	0xbd9b8c8e	-0.07595168
113	0xbcdd1454	-0.026987232
114	0x3ae6de80	0.0017613918
115	0x3cfeb9a5	0.031094382
116	0x3d2ed88a	0.042686976
117	0xbba935c4	-0.00516388
118	0xbd22a7d0	-0.03971082
119	0x3c25b06a	0.010112861
120	0xbd4ae04d	-0.049530316
121	0x3c9b24fd	0.018938536
122	0xbcdf3062	-0.02724475
123	0x3d1b30ef	0.037888464
124	0xbd2f61c8	-0.04281786
125	0x3c7e9aea	0.015539864
126	0xbd17a57f	-0.037023064
127	0x3d05e0b4	0.032684997
128	0xbd3845b6	-0.044988357
129	0x3d27eec8	0.040999204
130	0xbd5ef5d6	-0.054433666
131	0x3b6ee9fd	0.0036455386
132	0x3d3794a0	0.044819474
133	0xbccc87f1	-0.024967166
134	0xbd89dc16	-0.06731431
135	0xbd1c6ae5	-0.03818788
136	0xbd29d36a	-0.041461386
137	0xbcaa52ae	-0.020791378
138	0x3c68a894	0.014200348
139	0xbd2aa147	-0.041657712
140	0x3d0e28a6	0.034706734
141	0xbd53f341	-0.051745657
142	0xba73f054	-0.0009305526
143	0xbd4ee7f5	-0.05051418
144	0xbcf90095	-0.030395785
145	0x3c0fa041	0.008766235
146	0xbccd05e0	-0.025027215
147	0x3c8ad757	0.016948385
148	0x3cf1e763	0.02952928
149	0x3b65ed8c	0.0035084216
150	0x3a9422c0	0.001130186
151	0x3d41c3c1	0.047305826
152	0xbce94971	-0.028477402
153	0xbcc1519c	-0.023598485
154	0xbd6ef939	-0.058343146
155	0xbd851dd1	-0.06499828
156	0x3d1cc0b1	0.038269702
157	0xbca6a556	-0.02034251
158	0xbcaffa38	-0.021481618
159	0x3ac40060	0.0014953725
160	0xbd6c1873	-0.057640504
161	0xbd16565d	-0.036703456
162	0xbb838ce6	-0.004014599
163	0x3c4e1873	0.012579071
164	0xbd739d72	-0.059476323
165	0xbc81d1cd	-0.015847111
166	0xbc2f2568	-0.010690071
167	0xbbc36794	-0.005963275
168	0x3d4d2b57	0.05009016
169	0xbd6ed917	-0.0583125
170	0xbd0fce9a	-0.03510914
171	0xbd5e7452	-0.05431015
172	0xbcb24590	-0.021761686
173	0x3be1bc52	0.0068889046
174	0xbc1f14c2	-0.009709539
175	0x3cc8b332	0.02449951
176	0xbd1dda94	-0.03853853
177	0x3cbd26f8	0.02308987
178	0x3cd830a2	0.026390377
179	0xbc454666	-0.01204071
180	0xbd793013	-0.060836863
181	0x3d13fc0b	0.03612904
182	0xbd602bd8	-0.054729313
183	0x3d0c518a	0.03425745
184	0xbcd2de7c	-0.025740854
185	0xbb99f2ba	-0.0046981247
186	0xbba8c094	-0.00514991
187	0xbd6689c2	-0.05628372
188	0xbb364144	-0.0027809897
189	0xbc100521	-0.008790285
190	0xbd4b1252	-0.04957802
191	0x3d36171a	0.044455625
192	0x3d7c8ae0	0.06165588
193	0xbd239e60	-0.03994596
194	0xbd9b1f4d	-0.075743295
195	0x3cf401d9	0.029786037
196	0xbd813a4e	-0.06309949
197	0xbcc5d44f	-0.024149088
198	0xbd003c01	-0.031307224
199	0x3c9ef95f	0.019406019
200	0x3c0f8cdb	0.00876161
201	0xbd8b38a7	-0.06797915
202	0x3d71dee2	0.05905045
203	0xbd2f7021	-0.042831544
204	0xbcea8f67	-0.028632833
205	0x3d7c6890	0.061623156
206	0x3d12dac5	0.035853166
207	0xbd9e10c4	-0.077180415
208	0xba9fc835	-0.0012190404
209	0x3cff1c4b	0.03114142
210	0xbd1fcf97	-0.039016332
211	0xbcfe0a46	-0.031010758
212	0xbb3fc021	-0.0029258805
213	0xbd99ebba	-0.075156644
214	0x3bd71e85	0.0065649175
215	0x3c23abc1	0.00998968
216	0xbd63c234	-0.05560513
217	0xbd8e653f	-0.06952905
218	0xbc81d9cc	-0.015850924
219	0xbbbdfad4	-0.0057977233
220	0x3c9386f2	0.018008683
221	0xbd92b246	-0.07162909
222	0xbcdaf5fa	-0.026728619
223	0xbd14c3bc	-0.03631948
224	0x3d0bd758	0.034140915
225	0x3d1b4794	0.03791006
226	0x3ce8f34c	0.028436325
227	0xbd1385e5	-0.036016364
228	0x3ce38e2c	0.027777754
229	0xbd707e25	-0.05871405
230	0x3c3e2c74	0.011607278
231	0xbd37f06c	-0.04490702
232	0x3ab003c0	0.0013428852
233	0xbb455a4b	-0.0030113633
234	0xbaaeefa9	-0.0013346571
235	0xbc1d68f8	-0.009607546
236	0x3d6a98f6	0.05727478
237	0xbcd04e2c	-0.0254279
238	0x3be4127a	0.0069602104
239	0xbd79fee9	-0.061034117
240	0x3cb89eca	0.022536654
241	0x3d7f389a	0.06230984
242	0x3c8f9bae	0.017530289
243	0x3cfd2fd3	0.030906593
244	0xbd58ee24	-0.052961484
245	0x3d61faf6	0.055170976
246	0xbd3c23f8	-0.04593274
247	0x3d27d487	0.040974166
248	0xbc9f5945	-0.019451747
249	0x3be8bdd0	0.0071027055
250	0x3d2bf49e	0.041981332
251	0x3caa94bc	0.020822875
252	0x3d43d0d9	0.047806595
253	0x3b9d49ac	0.004800042
254	0xbd1a46ca	-0.037665166
255	0xbd19490b	-0.037423175

bias f4 [128]
0	0x3cf2668e	0.029589918
1	0x3c58b62f	0.01322703
2	0xbe011b77	-0.12608133
3	0xbdcf4a66	-0.10121612
4	0xbcd4c4b9	-0.02597271
5	0xbcb67d08	-0.022276416
6	0xbd873fbe	-0.06603955
7	0xbc895707	-0.01676513
8	0x3ba4fc7d	0.0050349818
9	0x3d3fdcc5	0.0468414
10	0x3d13dc32	0.036098666
11	0xbcda09e5	-0.026616046
12	0xbd9d5a7a	-0.07683273
13	0xbc86deaf	-0.016463606
14	0xbd507426	-0.050892018
15	0x3dbe81d0	0.093021035
16	0x3c047ca8	0.008086361
17	0xbd708957	-0.058724727
18	0xbdc88f64	-0.097929746
19	0xbca6b5ca	-0.020350356
20	0xbd2bca4a	-0.041940965
21	0x3ced704a	0.028984208
22	0xbbc06c29	-0.0058722687
23	0x3de718f3	0.112840556
24	0xbc847062	-0.01616687
25	0x3d18896f	0.037240442
26	0xbbbd9041	-0.0057850187
27	0xbd6d1883	-0.057884704
28	0x3d930c42	0.07180072
29	0xbd46cd64	-0.04853572
30	0xbcb73fdc	-0.022369318
31	0x3b3908a6	0.0028233915
32	0x3c87f0bb	0.016594281
33	0xbd17fb8c	-0.03710513
34	0xbd66ffc8	-0.056396276
35	0xbd413ee4	-0.047179118
36	0x3c7f9536	0.0155995395
37	0x388ca732	6.706863e-05
38	0x3c719516	0.0147450175
39	0x3e0db434	0.13838273
40	0x3c8947ea	0.016757924
41	0xbc0b8629	-0.008515873
42	0xbcc062f3	-0.023484683
43	0x3c19cad0	0.009386733
44	0xbd079bcc	-0.033107564
45	0xbd803d69	-0.06261713
46	0xbd1f885d	-0.038948406
47	0x3bbfe1a4	0.005855756
48	0x3cc1b45b	0.02364557
49	0x3cce08a1	0.025150599
50	0x3e004721	0.12527134
51	0xbc446557	-0.011987052
52	0x3d44e1cb	0.048066895
53	0x3d0142ad	0.031557728
54	0xbc39f0ac	-0.011348885
55	0x3d1b8b2f	0.037974533
56	0xbcc025c6	-0.023455512
57	0xbca71e7e	-0.020400282
58	0xbddefa11	-0.1088754
59	0xbe17116f	-0.14752744
60	0xbb6616a6	-0.0035108714
61	0x3e2e284d	0.17007561
62	0x3d9d717b	0.0768766
63	0x3dfba632	0.122875586
64	0x3d1f227b	0.038851243
65	0xbd382d7a	-0.044965245
66	0xbd870e51	-0.065945275
67	0x3bd46e1e	0.0064828536
68	0xbcc85e81	-0.024459125
69	0xbd7debd1	-0.06199247
70	0xbd71efba	-0.05906651
71	0xbdad6c4a	-0.0846792
72	0xbd47e5c1	-0.048803095
73	0xbd8c5b73	-0.0685338
74	0x3d0470f5	0.032334287
75	0x3cd7d30a	0.026345748
76	0xbd4cc0e0	-0.049988627
77	0x3be7d6e5	0.007075178
78	0x3d56f9ea	0.05248443
79	0xbbb6300c	-0.005559927
80	0xbcbc4b06	-0.022984993
81	0xbca5490a	-0.02017643
82	0xbd655d97	-0.055997457
83	0xbd00353e	-0.031300776
84	0xbd78bea7	-0.060728695
85	0xbd9cbfe7	-0.0765379
86	0x3d5d7f20	0.054076314
87	0xbdcf1ead	-0.10113273
88	0x3e19b6b3	0.150111
89	0x3d211c9b	0.03933392
90	0xbd89196f	-0.06694304
91	0xbcfb2e3d	-0.030661697
92	0xbb22da26	-0.0024849265
93	0x3c5f6205	0.0136342095
94	0xbd44d62e	-0.04805582
95	0xbd86a1b1	-0.06573809
96	0x3ceefaa3	0.029172247
97	0xbb3a61f9	-0.0028439744
98	0xbd4df889	-0.05028585
99	0xbd31caeb	-0.04340641
100	0x3d3ece2c	0.04658334
101	0xbda144b8	-0.07874435
102	0x3d5332f5	0.05156227
103	0xbd7e4acb	-0.062083047
104	0x3cf55b1e	0.029950675
105	0xbd055b0e	-0.03255754
106	0xbd4d3ab8	-0.050104827
107	0xbd1f5015	-0.03889473
108	0xbd9a2d99	-0.07528228
109	0xbd806d8b	-0.06270894
110	0x3e01b7fe	0.12667844
111	0xbd2531c7	-0.040330674
112	0x3dd2a706	0.102857634
113	0x3cd1898c	0.025578283
114	0x3bac0852	0.0052500153
115	0x3e10f65a	0.14156476
116	0xbd268324	-0.04065241
117	0xbaa8362a	-0.0012833525
118	0xbd57efb9	-0.05271885
119	0xbd53e724	-0.051734105
120	0xbce63b6a	-0.028104503
121	0xbcc614d3	-0.024179852
122	0xbcda4bca	-0.026647467
123	0xbdf63525	-0.12021855
124	0x3d373987	0.044732597
125	0xbcf6180b	-0.030040761
126	0xbdc17f2f	-0.094480865
127	0x3bd56d6c	0.0065132882

weight f4 [64, 128]
0	0x3d384a08	0.044992477
1	0xbc52c6ba	-0.012864763
2	0xbce549b4	-0.027989246
3	0xbcd63e59	-0.026152777
4	0xbdee3f1a	-0.116331294
5	0xbdb7c36d	-0.089728214
6	0xbd08992a	-0.033349194
7	0xbd773ae0	-0.060358882
8	0x3d513b67	0.05108204
9	0xbddd82cc	-0.10815963
10	0xbb5f1109	-0.0034037253
11	0x3d23dc53	0.04000504
12	0xbdb52c4e	-0.08846341
13	0x3d3ea69a	0.046545602
14	0xbce0d6fa	-0.027446259
15	0xbd100dfe	-0.035169594
16	0x3c0053ee	0.00783251
17	0xbd0c8fb1	-0.034316722
18	0xbcb8c022	-0.022552554
19	0xbcaf05f4	-0.021365143
20	0x3d39a746	0.04532554
21	0x3d5a185c	0.053245887
22	0xbd8f0c12	-0.06984724
23	0x3caba666	0.020953368
24	0xbb6f5d87	-0.0036524253
25	0xbc1cf505	-0.009579902
26	0x3d2d48e5	0.042305846
27	0x3ca89638	0.020579442
28	0xbb8af000	-0.004240036
29	0xbd2043e8	-0.03912726
30	0x3c090abc	0.008364376
31	0xbd994d9e	-0.074855074
32	0xbd6e132e	-0.05812376
33	0x3da44313	0.08020606
34	0xbd03e2b5	-0.032198627
35	0x3d8fbca1	0.070184
36	0xbd374968	-0.04474774
37	0x3cb199c3	0.021679765
38	0x3c5918a0	0.0132505
39	0xbc98c250	-0.018647343
40	0xbc2fa762	-0.0107210595
41	0x3cd67442	0.026178483
42	0x3d075331	0.033038322
43	0xbd0d8787	-0.034553077
44	0xbdbb0aea	-0.09132941
45	0xbdabe7c0	-0.08393812
46	0xbd40ee7e	-0.047102444
47	0xbcae2b14	-0.021260776
48	0xbd08b979	-0.033380006
49	0x3cd6e8a3	0.026233977
50	0xbce25d35	-0.027632335
51	0xbdbddf96	-0.09271161
52	0xbd9cd8c8	-0.07658535
53	0xbcc3054c	-0.023806237
54	0xbd9eb740	-0.07749796
55	0xbd8630fe	-0.06552313
56	0xbdab13a7	-0.08353358
57	0xbd5b8f56	-0.053603493
58	0xbd405d9c	-0.046964273
59	0xbd82a598	-0.06379241
60	0x3cdc18cb	0.026867291
61	0xbc2938bb	-0.010328467
62	0xbd20d216	-0.039262854
63	0xbd67ea25	-0.056619782
64	0x3c818edb	0.01581519
65	0xbb69f210	-0.003569726
66	0x3cbd7808	0.023128524
67	0x3becb930	0.0072242245
68	0xbd87cef7	-0.06631272
69	0xbce649b7	-0.028111322
70	0x3d9c2557	0.076243095
71	0x3d10d68c	0.035360858
72	0xbd5b97b2	-0.053611465
73	0xbc7fa3d6	-0.015603026
74	0x3bbf17f0	0.005831711
75	0x3bdd7315	0.0067581036
76	0xbd394629	-0.045232926
77	0x3d328ea5	0.043593068
78	0xbd87de7b	-0.06634232
79	0x3c2f3b48	0.010695286
80	0xbd30c3ec	-0.043155596
81	0xbd65e66e	-0.056127958
82	0xbd592dfc	-0.05302237
83	0x3c083c05	0.008315091
84	0xbdd3dfb6	-0.10345404
85	0xbbbe5edd	-0.0058096484
86	0xbd9bb3de	-0.07602666
87	0xbd930bf7	-0.071800165
88	0xbc1e0b68	-0.009646274
89	0xbc1ed1f9	-0.009693616
90	0xbd86c872	-0.06581201
91	0x3c257db8	0.0101007745
92	0xbcc0e740	-0.023547769
93	0x3d4f0ec9	0.05055121
94	0xbd4ea2bf	-0.050448176
95	0xbd2bf999	-0.04198608
96	0xbd65c80f	-0.056098994
97	0xbdc7cd1d	-0.09755919
98	0xbd96c7a3	-0.073622964
99	0x3d8e5844	0.06950429
100	0xbcd6b7d9	-0.026210712
101	0xbd1ef4e4	-0.038807765
102	0xbd463e49	-0.048399244
103	0xbd534c81	-0.05158663
104	0x3c448705	0.011995082
105	0xbd8915d0	-0.066936135
106	0xbd235a11	-0.039880816
107	0x3d135671	0.03597111
108	0x3d6ad5a2	0.057332642
109	0x3d6bf63d	0.057607878
110	0xbd22a612	-0.03970916
111	0xbd12143e	-0.035663836
112	0x3bbac0d0	0.0056992546
113	0xbda969e7	-0.082721524
114	0xbda4b5f1	-0.08042515
115	0x3d78c246	0.06073215
116	0xbd904b0b	-0.07045563
117	0xbd49d434	-0.04927464
118	0xbc804413	-0.01565746
119	0x3d4ec095	0.05047663
120	0x3dade1c7	0.08490329
121	0xbd3b5d67	-0.045743372
122	0xbdd195d9	-0.10233659
123	0xbda93e88	-0.0826388
124	0x399d58a3	0.00030011413
125	0x3d1b586b	0.03792612
126	0xbba99bb0	-0.00517603
127	0xbd34e441	-0.044162992
128	0x3d822197	0.06354063
129	0xbca4cf8b	-0.020118495
130	0xbde0cbb9	-0.10976357
131	0xbd46f37a	-0.04857204
132	0x3cac69d4	0.021046557
133	0x3a986ab5	0.0011628481
134	0xbca85e19	-0.020552682
135	0xbbf68585	-0.007523241
136	0x3d4b0add	0.049570907
137	0xbd59a756	-0.0531381
138	0x3e2c888c	0.16848963
139	0x3dcea593	0.100901745
140	0xbc5c7de3	-0.013457748
141	0xbcac0850	-0.021000057
142	0x3d62d002	0.055374153
143	0xbc6ad8bd	-0.014333901
144	0xbcf7e911	-0.030262502
145	0xbc1ce4c0	-0.009576023
146	0x3d56f197	0.05247649
147	0x3d98c50a	0.07459457
148	0xbca1a8b9	-0.019733774
149	0x3e19eabc	0.1503095
150	0x3d66fbde	0.056392543
151	0xbd0b5ad2	-0.03402216
152	0x3dc52abe	0.09627293
153	0x3e1b02fe	0.1513786
154	0xbd3ec5bf	-0.046575304
155	0xbd7263ac	-0.059177086
156	0xbd966769	-0.07343943
157	0x3cc62141	0.024185779
158	0xbd60392d	-0.054742027
159	0x3da09bf7	0.07842248
160	0x3dcd1aa5	0.10014848
161	0xbc0f438b	-0.008744131
162	0x3d2dcaab	0.042429607
163	0xbc658db9	-0.01401084
164	0x3d9ed8e4	0.07756212
165	0xbd133d7c	-0.035947308
166	0x3e278aa5	0.16361482
167	0xbc831147	-0.01599945
168	0x3d1abce2	0.03777779
169	0xbdcb45b1	-0.09925402
170	0xbd7f75de	-0.062368266
171	0x3cc2f5de	0.02379888
172	0xbd0f18d7	-0.0349358
173	0x3d1d9507	0.0384722
174	0xbddd702d	-0.108124115
175	0xbcab13d4	-0.020883478
176	0x3cf4e8f5	0.029896239
177	0x3da1d93e	0.07902764
178	0xbdefff93	-0.11718669
179	0x3d63e482	0.055637844
180	0x3db48ddd	0.08816121
181	0xbc9f0f99	-0.019416617
182	0xbe0db07e	-0.13836858
183	0x3dc96d54	0.09835306
184	0x3b965faf	0.004589043
185	0x3cad28c4	0.021137603
186	0x3da76b35	0.08174745
187	0xbde0d251	-0.10977615
188	0x3d709412	0.05873496
189	0xbd65b8ec	-0.05608456
190	0xbd78b393	-0.06071813
191	0xbcf22f16	-0.029563468
192	0xbd384f9b	-0.044997793
193	0xbd2e8abb	-0.042612772
194	0xbdb4eed9	-0.08834619
195	0xbbb130d4	-0.005407432
196	0xbe069649	-0.13143267
197	0x3d877923	0.06614902
198	0xbb672f9a	-0.0035276175
199	0xbc0a7437	-0.008450559
200	0xbc471885	-0.012151842
201	0x3cd1bb85	0.025602112
202	0xbe22c74b	-0.15896337
203	0x3dafb200	0.08578873
204	0x3d921d39	0.0713448
205	0x3dfc1850	0.12309325
206	0x3dcbb9f8	0.0994758
207	0xbc8b463f	-0.01700127
208	0x3ca1c480	0.019747019
209	0x3ccdf838	0.025142774
210	0xbd5636ef	-0.052298483
211	0x3e1d762d	0.15377112
212	0x3c52629d	0.012840894
213	0x3d7bcfda	0.06147752
214	0xbd570e54	-0.0525039
215	0xbc151cc0	-0.009101093
216	0xbe546378	-0.2074107
217	0x3dcf735f	0.10129427
218	0xbd80d4a3	-0.06290557
219	0x3cdf8237	0.027283771
220	0x3d8cd530	0.068766
221	0x3c2d82f4	0.010590304
222	0x3c74835a	0.014923895
223	0xbca7bb97	-0.020475192
224	0x3c6059a3	0.013693246
225	0x3d83d128	0.06436378
226	0x3e2dbcbb	0.16966526
227	0xbddf81fb	-0.10913464
228	0x3df05dc3	0.11736634
229	0x3dbc157e	0.09183787
230	0x3c499f86	0.0123061
231	0x3d46c146	0.048524164
232	0xbc5e9079	-0.01358425
233	0x3d4d8074	0.05017133
234	0xbda0964f	-0.07841169
235	0x39d716c0	0.00041024946
236	0x3d49c6f1	0.04926199
237	0x3d62f232	0.055406757
238	0xbde8a781	-0.11360074
239	0xbd9d532d	-0.0768188
240	0xbe41ffca	-0.18945232
241	0xbd302f92	-0.043014117
242	0x3d96c045	0.07360891
243	0xbe3d5699	-0.18490066
244	0x3d6ff36a	0.058581747
245	0xbcf68231	-0.030091377
246	0x3bb1d054	0.005426446
247	0x3dbe6d50	0.092981935
248	0xbd6ec7fb	-0.058296185
249	0xbd8e217e	-0.06939982
250	0x3de54837	0.111954145
251	0xbc9a5ea8	-0.018843964
252	0x3ddbe17c	0.10736367
253	0xbcd72669	-0.026263433
254	0x3d380b69	0.044932757
255	0x3ce5a34b	0.028031966

bias f4 [64]
0	0xbd8c7495	-0.06858174
1	0x3c49e529	0.012322702
2	0x3dadb2bb	0.08481356
3	0xbd729f26	-0.059233807
4	0xbd5fa714	-0.054602697
5	0xbd9ecb11	-0.077535756
6	0x3cc9f1c2	0.024651412
7	0xbcda91f2	-0.02668092
8	0x3d595494	0.053059176
9	0xbd1565c0	-0.03647399
10	0x3e029bf1	0.127548
11	0xbcb76dc1	-0.022391202
12	0xbce129d0	-0.027485758
13	0x3d6b1893	0.057396483
14	0xbdb27307	-0.08713346
15	0xbcea9550	-0.02863565
16	0x3d6f2dc0	0.05839324
17	0xbdb8b71a	-0.09019299
18	0xbd1760d5	-0.03695758
19	0xbdf080b4	-0.11743298
20	0xbd29eb43	-0.04148413
21	0xbd1b7e58	-0.037962288
22	0x3d64cc41	0.055858854
23	0xbd9a04bb	-0.075204335
24	0x3db43a14	0.0880014
25	0x3d869ba3	0.06572654
26	0x3dbfba67	0.09361725
27	0x3ce07fd2	0.0274047
28	0xbd3b64bb	-0.04575036
29	0x3d78c84b	0.06073789
30	0x3c843d4e	0.016142514
31	0xbd6af5ca	-0.05736331
32	0xbdb91552	-0.0903727
33	0xbdd35be3	-0.103202604
34	0xbbdac764	-0.0066766012
35	0x3d897117	0.06711023
36	0x3de2cebf	0.1107459
37	0xbd65ff99	-0.05615196
38	0x3d763460	0.060108542
39	0xbda2b270	-0.079441905
40	0x3d502667	0.050817873
41	0x3d816d37	0.06319659
42	0xbd2aead0	-0.04172784
43	0xbd599f22	-0.053130277
44	0xbb34273d	-0.0027489208
45	0x3ce6fbd7	0.028196258
46	0xbde96183	-0.11395552
47	0x3e19ec0e	0.15031454
48	0x3e10ffed	0.14160128
49	0x3d4aad03	0.049481403
50	0x3d3d9fb5	0.046294887
51	0x3de55642	0.11198093
52	0xbdce8beb	-0.10085281
53	0x3e2020dc	0.15637535
54	0xbd04b276	-0.032396756
55	0x3ce82b43	0.028340941
56	0x3ce9159f	0.028452693
57	0xbd8f5bb7	-0.06999915
58	0x3cb50216	0.022095721
59	0xbd40e7b9	-0.047095988
60	0xbcbf7119	-0.023369359
61	0x3d8593ca	0.06522329
62	0xbc7bfae9	-0.015379646
63	0x3d7fc439	0.062442992

weight f4 [1, 64]
0	0x3d89a5b3	0.06721058
1	0xbdb2d65c	-0.08732292
2	0x3e6d5060	0.23175192
3	0x3dcdb4d5	0.100442566
4	0xbc5a2c08	-0.013316162
5	0x3b6a7f49	0.0035781434
6	0xbe1cd278	-0.15314662
7	0xbc1fce31	-0.00975375
8	0x3e9b982e	0.3038954
9	0xbc69bfa0	-0.014266878
10	0x3e502a42	0.2032862
11	0xbe10c666	-0.14138183
12	0xbceaeffb	-0.028678885
13	0xbdfab3ca	-0.12241323
14	0x3d8abb81	0.06774045
15	0xbdc852e2	-0.09781434
16	0x3e311748	0.17294037
17	0xbc0be3d5	-0.008538206
18	0x3ba580e2	0.0050507644
19	0x3c96ac72	0.018392775
20	0x3c27d0a1	0.010242612
21	0x3cb8517e	0.022499796
22	0x3e72739b	0.23676912
23	0xb9f7e4a2	-0.00047281856
24	0x3e5d4bc0	0.21610928
25	0x3c5c7274	0.013455022
26	0x3e3b067d	0.18264194
27	0xbe253221	-0.16132404
28	0xbd6f84cb	-0.05847625
29	0xbddbfd57	-0.1074168
30	0x3e453f62	0.1926246
31	0x3da61060	0.08108592
32	0x3b8ca2f2	0.0042918855
33	0x3dc201a4	0.09472969
34	0xbdf647d0	-0.12025416
35	0x3b28ff44	0.0025786916
36	0xbdf9f347	-0.122046046
37	0x3db28436	0.087166235
38	0xbd82201d	-0.06353781
39	0x3d0cbadb	0.034357887
40	0x3e3bf301	0.18354417
41	0xbe2d6357	-0.16932426
42	0x3d18d9af	0.037316974
43	0x3dcdf27a	0.10056014
44	0x3ab35121	0.0013680795
45	0xbd8fa293	-0.070134304
46	0x39bc85c8	0.0003595783
47	0x3e527553	0.20552568
48	0x3e3ce0d3	0.18445139
49	0xbd2e1c6a	-0.042507567
50	0x3e48f9a9	0.19626488
51	0xbdeeca70	-0.11659706
52	0x3dd3c19d	0.10339663
53	0x3e69cb20	0.22831392
54	0x3d544400	0.051822662
55	0xbc7a22c0	-0.015267074
56	0xbe14dc4c	-0.14537162
57	0x3bef1be4	0.007297026
58	0xbdb804f6	-0.08985321
59	0xbe10e32c	-0.14149159
60	0xbcbaf600	-0.02282238
61	0xbdf9fa8d	-0.12205992
62	0xbdb254aa	-0.08707555
63	0xbe29e10d	-0.16589756
