models/model.pth (torch, 956223 bytes, 7 tensors)

weight f4 [256, 768]
-0.012176441 0.037123997 -0.042393655 -0.007164006 0.009962134 0.026553396 -0.04043725 0.004948815
0.037924986 0.04737793 0.016370187 0.011329612 0.04272892 -0.05389334 -0.022327507 -0.028309895
0.0042422567 0.001181326 0.007420491 0.03919915 -0.00407589 -0.0057479907 -0.042165622 0.036057454
0.026410751 -0.0054919235 0.036548436 0.03914718 -0.040549673 -0.04380785 -0.016856465 -0.026973106
0.037592772 -0.01713809 -0.017438006 -0.04588671 -0.000752075 0.0047396743 -0.023743805 -0.009347517
-0.0024605035 0.0069374302 0.011472329 0.028245565 0.044278536 -0.0139110265 0.010391557 -0.015412616
-0.014959204 -0.01711625 -0.030014222 0.046325292 -0.047367904 -0.04122438 -0.04349223 -0.009268169
0.0028183348 -0.033733644 -0.04239245 -0.05342054 -0.015661433 0.010803363 0.05008325 -0.036246814
0.021729352 -0.0106829265 0.020879399 -0.020338202 -0.0067291646 -0.0064302804 -0.012276899 -0.010864394
-0.0058258222 -0.0037225522 0.0038343281 0.017437726 -0.02326248 -0.0014468988 0.030196436 -0.011094416
-0.0053369193 0.013312192 -0.021044567 -0.027329287 -0.0517576 -0.021724774 0.0015714074 0.00076772296
-0.010211914 -0.020367319 0.04324746 0.051377 0.017310465 -0.053197168 -0.048088215 0.045090035
-0.013083847 -0.04621412 -0.004675565 -0.049702805 0.015910838 0.0006904058 -0.035025086 0.027103217
0.04816835 0.041629355 0.00238731 0.020176275 -0.02053632 -0.0040113763 0.014178239 -0.005476153
-0.009637604 -0.006717979 0.021526484 0.009955113 -0.023161707 -0.04129067 0.018037684 -0.008535897
0.042879604 -0.0025826138 -0.027419832 0.008410942 -0.002490282 -0.03864593 0.009322839 0.0226111
-0.030688973 0.004341192 0.016239816 0.0088464 -0.01384066 0.024877567 0.028004909 0.007922316
-0.007843585 0.02764118 0.032893594 -0.011305444 0.03315276 0.015953887 0.03049867 -0.006505323
-0.016335517 -0.02169288 0.026389215 -0.010047477 0.048905823 -0.0020836976 -0.03181796 -0.042280123
0.045389935 -0.021094771 0.0006981195 -0.00765298 0.006054839 -0.018269878 -0.013224147 -0.019651342
-0.0066188276 0.0030337537 -0.014091757 -0.005912919 0.005920613 -0.0031076295 -0.04696556 0.0029985926
-0.015633933 0.006833496 -0.010452572 -0.0026395537 0.010849006 0.006428697 -0.04102068 -0.026319664
-0.011939448 -0.009012358 0.04103253 -0.002875859 0.0153403375 -0.017416999 -0.009182279 -0.0070431717
-0.026020106 0.0034789683 -0.0074659595 0.04254535 -0.040112223 -0.0513206 -0.014694088 0.04012443
-0.030569432 -0.028407874 0.0029885815 -0.029821418 -0.009624642 0.016791321 0.003778085 -0.017877903
0.040432714 0.047391564 -0.006141748 0.015089686 0.031703755 -0.014133348 -0.023404421 0.002043664
-0.0047393804 -0.053044517 0.01578489 -0.041641377 0.0074355504 0.03509933 0.0035020767 0.005598189
0.008379773 0.045851473 0.033074923 -0.010100206 -0.026116515 -0.028780645 0.024704624 -0.020324145
0.049781315 -0.048703805 -0.027704015 -0.037636667 0.030138886 0.010177706 0.010147579 -0.0076441276
0.0029241627 -0.020797396 0.04789439 -0.018633906 -0.01770511 -0.049197894 0.004833375 -0.032855857
-0.012268963 0.017247409 -0.042733595 -0.00838946 -0.0147921685 -0.040563013 -0.05098523 0.03244024
-0.010519545 0.049969226 0.010613439 0.037269343 0.012850029 0.043055587 -0.020458728 0.040899184
00000000: b27f 47bc 550f 183d f8a4 2dbd 0ac0 eabb
00000010: 3838 233c 8286 d93c 88a1 25bd ab29 a23b
00000020: 3b57 1b3d 5c0f 423d c51a 863c d69f 393c
00000030: 8504 2f3d 43bf 5cbd 2de8 b6bc 27ea e7bc
00000040: a102 8b3b b9d6 9a3a 9727 f33b 4a8f 203d
00000050: 0b8f 85bb a459 bcbb dcb5 2cbd fbb0 133d
00000060: 5c5b d83c 98f5 b3bb d0b3 153d cb58 203d
00000070: 6a17 26bd dc6f 33bd 9216 8abc b4f6 dcbc
00000080: e1fa 193d 2e65 8cbc 26da 8ebc b4f3 3bbd
00000090: e626 45ba 454f 9b3b 5e82 c2bc 5426 19bc
000000a0: 6640 21bb 6253 e33b 6ff6 3b3c 3e63 e73c
000000b0: 695d 353d 13eb 63bc 5941 2a3c 3285 7cbc
000000c0: 7317 75bc 6137 8cbc 63e0 f5bc 97bf 3d3d
000000d0: d904 42bd e5da 28bd e924 32bd 85d9 17bc
000000e0: d0b3 383b 4a2c 0abd b5a3 2dbd 7fcf 5abd
000000f0: 684c 80bc 9700 313c 1824 4d3d 8a77 14bd
00000100: c101 b23c 7107 2fbc 460b ab3c 4d9c a6bc
00000110: 5380 dcbb 1ab5 d2bb 0c25 49bc 9200 32bc
00000120: 8ae6 bebb 10f6 73bb 5a49 7b3b 90d9 8e3c
00000130: f590 bebc dea5 bdba 845e f73c 5ac5 35bc
00000140: 53e1 aebb 611b 5a3c a865 acbc abe1 dfbc
00000150: c7ff 53bd 27f8 b1bc aff7 cd3a 0441 493a
00000160: df4f 27bc 5dd9 a6bc 4024 313d b070 523d
00000170: adce 8d3c 46e5 59bd 26f8 44bd 54b0 383d
00000180: a25d 56bc 044b 3dbd 7b35 99bb 2b95 4bbd
00000190: 7257 823c 59fc 343a 7776 0fbd 9107 de3c
000001a0: 2d4c 453d 8b83 2a3d 6a74 1c3b b748 a53c
000001b0: c93b a8bc dd71 83bb d84b 683c 4d71 b3bb
000001c0: 0ae7 1dbc 7e22 dcbb 4f58 b03c c51a 233c
000001d0: 9fbd bdbc 6820 29bd c4c3 933c 26da 0bbc
000001e0: 86a2 2f3d 1241 29bb 8e9f e0bc 0cce 093c
000001f0: 0034 23bb 324b 1ebd d2be 183c ea3a b93c
00000200: 7167 fbbc 8f40 8e3b 5d09 853c 7ef0 103c
00000210: f0c3 62bc 0acc cb3c 8d6a e53c 9acc 013c
00000220: 6182 00bc c26f e23c 6fbb 063d 783a 39bc
00000230: 30cb 073d bab1 823c 59d8 f93c 9b2a d5bb
00000240: 10d2 85bc 44b5 b1bc 322e d83c 2c9e 24bc
00000250: 7951 483d a58e 08bb 8d53 02bd ec2d 2dbd
00000260: ccea 393d f1ce acbc 0202 373a d9c5 fabb
00000270: ac67 c63b b6aa 95bc 18aa 58bc dafb a0bc
00000280: c0e2 d8bb f1d1 463b 1de1 66bc 29c1 c1bb
00000290: b401 c23b 5fa9 4bbb f65e 40bd 0984 443b
000002a0: bc12 80bc 85eb df3b 4441 2bbc 5dfc 2cbb
000002b0: 07c0 313c d2a7 d23b 4d05 28bd 569c d7bc
000002c0: ad9d 43bc 92a8 13bc ba11 283d e878 3cbb
000002d0: 0a56 7b3c 18ae 8ebc 4571 16bc 68ca e6bb
000002e0: 1e28 d5bc 67ff 633b 02a5 f4bb 0844 2e3d
000002f0: b74c 24bd 8d35 52bd 79bf 70bc 8459 243d
00000300: bf6c fabc a1b7 e8bc 14dc 433b 0c4c f4bc
00000310: adb0 1dbc f48d 893c c099 773b ae74 92bc
00000320: c69c 253d a81d 423d b740 c9bb bb3a 773c
00000330: ccdb 013d 8f8f 67bc a1ba bfbc feee 053b
00000340: ce4c 9bbb 3545 59bd 504f 813c 2690 2abd
00000350: eba5 f33b 51c4 0f3d 1983 653b 0371 b73b
00000360: 514b 093c c1ce 3b3d 9279 073d 567b 25bc
00000370: 4df2 d5bc 63c5 ebbc 5a61 ca3c d27e a6bc
00000380: 7ee7 4b3d a47d 47bd 88f3 e2bc e828 1abd
00000390: d3e5 f63c 65c0 263c 0842 263c 977b fabb
000003a0: 4fa3 3f3b 4d5f aabc e82c 443d 22a6 98bc
000003b0: 4f0a 91bc bb83 49bd 4a61 9e3b dd93 06bd
000003c0: c303 49bc 704a 8d3c 6c09 2fbd f273 09bc
000003d0: da5a 72bc 6725 26bd e3d5 50bd 0fe0 043d
000003e0: 2b5a 2cbc 88ac 4c3d fde3 2d3c bda7 183d
000003f0: ee88 523c 0e5b 303d 1099 a7bc e785 273d

bias f4 [256]
-0.0029542567 0.02196211 0.006857116 -0.050745357 0.017879996 -0.0104964785 -0.017281305 -0.02304679
-0.03851836 -0.033152167 -0.0078426115 -0.013512516 0.010760638 -0.050570488 0.01481077 -0.0136636505
-0.047021843 -0.014475498 -0.0043486753 -0.052690875 -0.009948558 -0.061703622 -0.037523326 -0.015481689
-0.0031429715 -0.027152933 -0.023494916 -0.0023272892 -0.034468252 -0.010415186 0.004361579 -0.043329135
0.027240308 -0.047544017 -0.008138833 0.0043654703 -0.028660467 -0.009651858 -0.00988346 -0.042960096
-0.036082394 -0.011065417 0.00024624652 -0.057959598 -0.022532055 -0.046849206 0.0056771203 -0.0018772768
-0.033616185 -0.08404677 -0.026136998 -0.024322001 0.021687228 -0.0064744856 -0.002449926 -0.03864817
0.016331432 -0.018874636 -0.043030728 -0.041656014 -0.014587032 -0.00091810344 -0.039490964 -0.027897209
-0.010799708 0.0037582943 0.0066257454 -0.03378277 0.012480037 -0.01647065 0.0133100785 0.0153748235
-0.008570683 0.008555152 -0.019426059 -0.012385731 0.013613735 -0.005626912 -0.036719397 -0.019374494
-0.046626396 -0.00024491697 -0.020668518 -0.0027979272 -0.033781778 -0.04382073 -0.047577728 -0.032203253
-0.01738932 -0.03451438 -0.0033586395 0.027452633 -0.028386794 -0.044334922 0.003983747 -0.030201882
0.025583815 0.011978352 -0.0061342777 -0.034067392 0.00117263 -0.03451944 -0.050112624 0.020960785
-0.019616583 0.017955737 0.011392642 -0.04591981 -0.009534469 -0.022603562 -0.01298826 -0.035292447
0.019563159 0.014247932 -0.037951138 -0.024918227 0.018840691 -0.019436585 0.0007036569 -0.0048961043
-0.04957168 -0.04869472 -0.03873668 -0.030993374 -0.036205877 -0.054835245 -0.03348596 -0.050796058
-0.03856394 -0.026067104 -0.024351597 -0.022883825 -0.025241872 0.04457464 -0.053121086 -0.03023501
-0.022283463 -0.010320107 -0.031175518 -0.031702507 -0.054947186 -0.017208025 -0.033460025 -0.018315328
0.022950584 0.022777122 0.0012887565 -0.020907655 0.013521727 0.0011385354 -1.0712443e-05 0.013552714
-0.028522039 0.013895744 -0.041062586 -0.04233791 0.016186638 0.014781834 -0.01584397 0.00036448607
0.0019184253 -0.0051017147 -0.050740235 -0.024186525 -0.014009115 0.013161538 0.0139532825 0.008098298
-0.04330031 -0.011190024 0.010580156 0.0046143867 -0.029639566 -0.050375737 -0.0006480857 -0.046889484
-0.013009881 0.010110825 -0.04888915 -0.018820493 0.004063905 0.008991852 -0.04643895 0.017538192
-0.03351108 0.011185141 -0.029782556 0.005951618 0.005620705 -3.9570034e-05 -0.06702378 -0.01802604
0.012071233 -0.027303504 -0.011023883 -0.0062851924 0.010715671 -0.0008529762 -0.04108543 -0.012726431
-0.011984214 0.004539307 -0.017536836 -0.033970796 -0.04410666 -0.052970722 -0.0036231286 -0.037584472
-0.032431636 0.020550353 -0.037518144 -0.011249662 -0.01851291 -0.014771517 0.0095974505 -0.043124653
0.007975174 -0.038275953 0.039108388 -0.014508716 0.013178511 0.00018741064 -0.053859502 0.01798239
0.0014724443 0.0036301159 0.016018944 0.0048289197 0.010649822 -0.017286874 -0.0446539 0.010883196
0.00096521253 -0.017263569 -0.016221197 -0.0055911774 0.00992489 -0.04849262 0.017195152 -0.022035524
0.02064723 -0.041787323 -0.0074392906 -0.0329137 0.012249109 -0.039107867 -0.019274833 -0.04160144
-0.026731327 -0.04594196 -0.0016137252 -0.03790989 -0.020638522 -0.022698127 0.032976728 -0.015998073
00000000: 349c 41bb e2e9 b33c a8b1 e03b 5dda 4fbd
00000010: 1279 923c 6cf9 2bbc 8691 8dbc 9fcc bcbc
00000020: 6ec5 1dbd 91ca 07bd 4c7e 00bc 9a63 5dbc
00000030: 634d 303c 0023 4fbd dfa8 723c 81dd 5fbc
00000040: fa99 40bd a42a 6dbc 557f 8ebb 63d2 57bd
00000050: 47ff 22bc f0bc 7cbd 0fb2 19bd e9a6 7dbc
00000060: 50fa 4dbb d46f debc 6978 c0bc 6f85 18bb
00000070: 952e 0dbd 75a4 2abc 94eb 8e3b e479 31bd
00000080: 1127 df3c 84bd 42bd bd58 05bc 380c 8f3b
00000090: 5bc9 eabc d422 1ebc 3cee 21bc edf6 2fbd
000000a0: 22cb 13bd b94b 35bc a61a 8139 0b67 6dbd
000000b0: 2595 b8bc f4e4 3fbd 2307 ba3b f50e f6ba
000000c0: 20b1 09bd b720 acbd 421d d6bc ef3e c7bc
000000d0: 6aa9 b13c ec27 d4bb f08e 20bb 8b4d 1ebd
000000e0: 7fc9 853c fb9e 9abc fd40 30bd 7f9f 2abd
000000f0: 72fe 6ebc e1ac 70ba 47c1 21bd b088 e4bc
00000100: 42f1 30bc b74d 763b c81c d93b cd5f 0abd
00000110: 1279 4c3c 75ed 86bc 8412 5a3c afe6 7b3c
00000120: 0d6c 0cbc e92a 0c3c 6623 9fbc 85ed 4abc
00000130: 250c 5f3c f661 b8bb 1467 16bd 42b7 9ebc
00000140: 52fb 3ebd 3368 80b9 0651 a9bc 6e5d 37bb
00000150: c35e 0abd 5e7d 33bd dde0 42bd 8fe7 03bd
00000160: 0c74 8ebc f35e 0dbd 9f1c 5cbb 58e4 e03c
00000170: 6c8b e8bc 8998 35bd 188a 823b f069 f7bc
00000180: 2695 d13c da40 443c 0d02 c9bb 408a 0bbd
00000190: efb2 993a 4264 0dbd e542 4dbd f4b5 ab3c
000001a0: f5b2 a0bc e917 933c 34a8 3a3c 6916 3cbd
000001b0: 7636 1cbc 1b2b b9bc b6cc 54bc d08e 10bd
000001c0: eb42 a03c 2870 693c a772 1bbd 4f21 ccbc
000001d0: cb57 9a3c 7939 9fbc 9d75 383a 806f a0bb
000001e0: ad0b 4bbd 1d74 47bd 5aaa 1ebd d1e5 fdbc
000001f0: 9d4c 14bd ec9a 60bd 9328 09bd 870f 50bd
00000200: 39f5 1dbd ae8a d5bc 007d c7bc dc76 bbbc
00000210: 0bc8 cebc e693 363d 7f95 59bd 69af f7bc
00000220: cf8b b6bc ab15 29bc cd63 ffbc 7dda 01bd
00000230: 4d10 61bd d8f7 8cbc 610d 09bd 070a 96bc
00000240: dd02 bc3c 1697 ba3c 7eeb a83a 8846 abbc
00000250: 3c8a 5d3c e93a 953a 98b9 33b7 340c 5e3c
00000260: 0da7 e9bc faaa 633c 3e31 28bd 846a 2dbd
00000270: d799 843c 812f 723c 37cb 81bc 7e18 bf39
00000280: ac73 fb3a 492c a7bb fed4 4fbd d222 c6bc
00000290: 7d86 65bc 7ea3 573c 4f9c 643c b9ae 043c
000002a0: aa5b 31bd 5d56 37bc 6458 2d3c 4834 973b
000002b0: adce f2bc ca56 4ebd 4ce4 29ba 300f 40bd
000002c0: 6527 55bc e0a7 253c fd3f 48bd 6f2d 9abc
000002d0: 822a 853b 9052 133c c536 3ebd 41ac 8f3c
000002e0: ea42 09bd e241 373c 8cfa f3bc ca05 c33b
000002f0: e42d b83b 00f8 25b8 c343 89bd 59ab 93bc
00000300: 6cc6 453c 99ab dfbc 849d 34bc 04f4 cdbb
00000310: c890 2f3c 449a 5fba 3249 28bd 8582 50bc
00000320: 7059 44bc 78be 943b 69a9 8fbc f624 0bbd
00000330: 2fa9 34bd d4f7 58bd 0372 6dbb 2df2 19bd
00000340: 09d7 04bd 3759 a83c a0ac 19bd 8150 38bc
00000350: 63a8 97bc 3c04 72bc a03e 1d3c 7aa3 30bd
00000360: 4eaa 023c 3fc7 1cbd 1e30 203d f7b5 6dbc
00000370: aeea 573c a983 4439 c89b 5cbd ce4f 933c
00000380: 08ff c03a 3de7 6d3b 293a 833c ea3b 9e3b
00000390: 977c 2e3c 349d 8dbc 02e7 36bd 6f4f 323c
000003a0: 5106 7d3a 546c 8dbc 51e2 84bc 3236 b7bb
000003b0: 019c 223c 33a0 46bd d9dc 8c3c d883 b4bc
000003c0: 6124 a93c 2f29 2bbd 4bc5 f3bb 84d0 06bd
000003d0: 7db0 483c 922f 20bd 41e6 9dbc 4666 2abd
000003e0: a8fb dabc a32d 3cbd a283 d3ba 6747 1bbd
000003f0: 1e12 a9bc 6cf1 b9bc 9b12 073d 640e 83bc

weight f4 [128, 256]
-0.0044284444 0.0932221 -0.050931633 -0.106980585 -0.04119179 0.022748822 -0.048455056 0.04271507
-0.04650436 -0.039382048 -0.061622504 -0.036797523 -0.083714634 0.016158901 0.006452127 0.007152675
0.032654464 -0.080584444 -0.034783334 -0.033637 -0.0121669695 -0.009391084 0.023368718 -0.07421976
-0.026287248 0.043691702 0.042133544 -0.044465743 0.00054008426 0.008713872 -0.0016165216 -0.047248423
0.007504545 -0.008116341 -0.037106797 -0.009065643 0.009184033 -0.016677082 0.045635413 -0.055678733
-0.024302304 -0.051626544 0.04019789 -0.07775646 -0.0026017744 -0.0017625734 -0.15612158 -0.016942577
-0.012992966 0.01474668 -0.066516556 0.043613598 -0.016269038 0.030932419 -0.01864463 0.0679448
-0.04580231 -0.040642194 0.049189266 0.0018091144 -0.10244774 0.034276593 -0.10980806 -0.032177363
-0.026485525 -0.006435238 0.03190755 -0.03287451 -0.06616731 0.03700354 -0.03895607 0.044419155
-0.045163363 0.0011927066 -0.017030047 -0.07283064 -0.07329363 -0.2328731 0.0035597857 -0.050110642
0.00042256012 -0.0025617366 0.023760378 0.00455478 -0.0012086367 -0.080615446 0.011783828 -0.00058091746
0.015449978 -0.031289533 -0.080238394 0.030628217 -0.013702572 0.010895906 -0.06895284 -0.010130263
0.049161457 0.016812693 0.002489708 -0.0075079594 -0.020575216 -0.0125092855 -0.11001301 0.004501968
0.046511766 -0.02585 -0.049271256 -0.100908525 -0.02416028 -0.0085573 0.02942326 0.017000172
0.031026341 -0.0591645 0.0034474959 0.008558345 0.05082492 0.0033918705 -0.050342303 -0.03660519
-0.044375166 -0.031151121 0.005108035 -0.026013635 -0.049069133 0.17743436 -0.023418436 0.025595821
-0.08171423 0.089733124 0.06476655 -0.05111613 0.00908596 -0.00012340248 0.0029348433 -0.0058898367
-0.049607214 0.022300355 0.013091639 -0.018211253 0.03765424 -0.016378472 0.13245074 -0.0037527978
-0.05387723 0.029727638 0.055609383 -0.013024309 -0.047635272 0.026884971 -0.046102185 0.019606277
-0.050055984 0.03294988 -0.02766154 0.011950069 0.008944851 0.08713191 -0.07435291 -0.053207327
-0.11216235 -0.05803764 0.053513885 -0.0522457 0.018389873 -0.104535624 0.0491162 -0.06238844
0.02136048 -7.3852374e-05 -0.0010135844 -0.044824272 0.15069368 -0.08238007 0.03000196 0.008734089
-0.025084514 0.021557026 0.016195744 0.04057152 -0.03585757 0.0075178617 0.049739063 0.049817547
-0.034155868 0.002679112 0.007859478 0.031633362 0.0046575353 0.026878461 0.010173722 0.03229575
0.04359056 0.008852422 -0.027153937 -0.03041672 -0.049621478 0.015177631 0.060371272 -0.01481711
0.035146557 -0.043651275 -0.028717801 -0.038646962 -0.07432881 0.027851833 -0.019232709 -0.011306791
-0.16800572 -0.067063235 0.038098685 -0.028889364 -0.07715751 0.031320363 -0.006009184 0.051456578
-0.0020520405 -0.008196587 -0.06832946 -0.07901267 -0.07846331 -0.055557095 0.018532448 -0.051266354
0.054228444 -0.049080897 0.0032412037 0.0092995 -0.046515577 -0.004211833 -0.027984923 -0.019941738
-0.023356546 -0.03834246 0.032644045 -0.026890943 -0.069600165 -0.034306716 -0.033049565 0.040437557
-0.0521574 -0.049300157 -0.033691645 0.02639126 -0.04311311 0.0023448465 0.042876467 -0.006871455
0.0077748545 0.021411594 -0.0014938302 -0.0018867959 -0.0229769 0.033090428 -0.06381021 0.03822332
00000000: 7c1c 91bb 3aeb be3d b09d 50bd a318 dbbd
00000010: b9b8 28bd bd5b ba3c cf78 46bd fff5 2e3d
00000020: 5b7b 3ebd 124f 21bd e167 7cbd 00b9 16bd
00000030: 9472 abbd ac5f 843c 5d6c d33b fd60 ea3b
00000040: b0c0 053d 7509 a5bd f878 0ebd f3c6 09bd
00000050: f857 47bc 10dd 19bc c16f bf3c 8800 98bd
00000060: 5b58 d7bc 12f6 323d 3994 2c3d b621 36bd
00000070: 7194 0d3a a1c4 0e3c 77e1 d3ba 9087 41bd
00000080: b0e8 f53b 67fa 04bc 4cfd 17bd 1088 14bc
00000090: a078 163c 609e 88bc 33ec 3a3d 620f 64bd
000000a0: a015 c7bc 5b76 53bd 8ba6 243d c73e 9fbd
000000b0: 8882 2abb 2606 e7ba 56de 1fbe 29cb 8abc
000000c0: 73e0 54bc 0f9c 713c d539 88bd 2ca4 323d
000000d0: a546 85bc fc65 fd3c a0bc 98bc a526 8b3d
000000e0: 349b 3bbd 6e78 26bd af7a 493d ce1f ed3a
000000f0: 1fd0 d1bd 9d65 0c3d 0ce3 e0bd 69cc 03bd
00000100: 2cf8 d8bc b0de d2bb 7eb1 023d 6ca7 06bd
00000110: ba82 87bd 0691 173d 6690 1fbd dcf0 353d
00000120: 38fd 38bd 9854 9c3a 9982 8bbc 3b28 95bd
00000130: f81a 96bd 4976 6ebe 4b4b 693b d140 4dbd
00000140: 0f8b dd39 cfe2 27bb 20a5 c23c 4440 953b
00000150: 1e6b 9eba b619 a5bd f510 413c b648 18ba
00000160: e821 7d3c 7429 00bd 0754 a4bd 07e8 fa3c
00000170: c180 60bc be84 323c 2637 8dbd 67f9 25bc
00000180: 865d 493d c6ba 893c 5e2a 233b 5405 f6bb
00000190: 5b8d a8bc bff3 4cbc 804e e1bd 3f85 933b
000001a0: 1f83 3e3d 61c3 d3bc a8d0 49bd 21a9 cebd
000001b0: c8eb c5bc eb33 0cbc 0c09 f13c f243 8b3c
000001c0: f42a fe3c 7a56 72bd 62ef 613b 4d38 0c3c
000001d0: cb2d 503d 254a 5e3b bb33 4ebd 53ef 15bd
000001e0: bcc2 35bd a330 ffbc 4e61 a73b 8c1a d5bc
000001f0: b7fc 48bd 5ab1 353e 05d8 bfbc 54ae d13c
00000200: ca59 a7bd 00c6 b73d 53a4 843d 265f 51bd
00000210: 47dd 143c 9a65 01b9 8056 403b 88ff c0bb
00000220: ef30 4bbd 3caf b63c 507e 563c c42f 95bc
00000230: 553b 1a3d 252c 86bc 2ba1 073e 80f1 75bb
00000240: 5fae 5cbd 6087 f33c aac6 633d e963 55bc
00000250: 341d 43bd df3d dc3c a5d5 3cbd 589d a03c
00000260: 8107 4dbd 74f6 063d 749a e2bc 39ca 433c
00000270: 6d8d 123c 3772 b23d 5746 98bd edef 59bd
00000280: 60b5 e5bd e0b8 6dbd 6031 5b3d 96ff 55bd
00000290: 5ca6 963c c616 d6bd 122e 493d 058b 7fbd
000002a0: 2cfc ae3c 31e1 9ab8 40da 84ba a899 37bd
000002b0: 724f 1a3e e2b6 a8bd acc6 f53c 6d19 0f3c
000002c0: 0a7e cdbc 5c98 b03c f0ac 843c 522e 263d
000002d0: 63df 12bd 6558 f63b 30bb 4b3d 7c0d 4c3d
000002e0: 06e7 0bbd 0a94 2f3b 0ac5 003c fc91 013d
000002f0: 3d9e 983b 3830 dc3c afaf 263c 8c48 043d
00000300: 048c 323d c009 113c ef71 debc 7c2c f9bc
00000310: e43f 4bbd 99ab 783c de47 773d 77c3 72bc
00000320: d6f5 0f3d aecb 32bd 9841 ebbc 474c 1ebd
00000330: b439 98bd 8729 e43c ea8d 9dbc 1e40 39bc
00000340: b109 2cbe 7358 89bd 5e0d 1c3d 63a9 ecbc
00000350: c204 9ebd c849 003d b0e8 c4bb 22c4 523d
00000360: 877b 06bb fa4a 06bc 51f0 8bbd 65d1 a1bd
00000370: 5fb1 a0bd d68f 63bd 5cd1 973c abfc 51bd
00000380: a51e 5e3d 0d09 49bd 606a 543b ee5c 183c
00000390: 1e87 3ebd 6a03 8abb a340 e5bc db5c a3bc
000003a0: 3a56 bfbc fc0c 1dbd c3b5 053d 654a dcbc
000003b0: 888a 8ebd 3385 0cbd fb5e 07bd daa1 253d
000003c0: ffa2 55bd f6ee 49bd 4000 0abd 7c32 d83c
000003d0: 5f97 30bd ffab 193b 3c9f 2f3d f129 e1bb
000003e0: 35c4 fe3b 5e67 af3c a0cc c3ba 5d4e f7ba
000003f0: 0d3a bcbc d489 073d edae 82bd 0e90 1c3d

bias f4 [128]
-0.027180836 0.1503474 -0.085825704 -0.005593492 -0.08765454 -0.09144647 -0.040586624 -0.056790225
0.22638655 0.19998915 -0.116526805 -0.028871533 -0.06380398 -0.075720206 -0.11592889 -0.10139259
0.35845858 -0.046116687 -0.126646 -0.24747665 -0.1888907 0.23341125 0.16647106 -0.12905116
-0.07591998 -0.033916038 -0.09757532 -0.10304692 -0.063684255 -0.10632172 -0.07797557 -0.17629606
0.21112569 0.04225338 -0.13238895 -0.06361844 0.26324993 0.14702977 0.09561678 -0.005269043
-0.09367081 -0.11171369 0.016324906 -0.10294202 -0.08003206 -0.14862102 0.0437183 -0.045089882
0.22103441 -0.16493455 -0.057957575 -0.006144572 0.1838329 0.087285854 -0.12826441 -0.13312675
-0.046407234 -0.093283385 -0.06497989 -0.13245863 -0.06556649 0.13086899 -0.077749826 0.27801657
-0.04356475 -0.0898618 0.21671744 0.023129735 -0.06974135 -0.0568215 0.10844598 -0.12535207
-0.07154851 -0.08770463 -0.08831006 0.246007 -0.06587797 0.1757441 -0.09901854 0.018066125
-0.045908708 -0.07216039 0.12252316 -0.14847599 -0.034863625 -0.108218536 0.0072593503 -0.09095544
0.02466854 -0.059521906 0.12209156 -0.033266123 -0.15745504 -0.1296802 -0.053198338 0.32082483
-0.06375687 -0.16054843 0.15107723 -0.09159678 -0.049060244 0.107622184 0.3772403 -0.04004592
-0.09907021 -0.05379468 0.14970471 -0.107902125 -0.06426755 0.08752569 -0.009729956 -0.14658585
-0.024437675 0.13228944 -0.12956887 -0.07418666 0.22687206 0.23862244 -0.095037326 0.0077750185
-0.08688977 0.13162091 -0.1249437 -0.24455847 -0.16004112 -0.043946814 1.5321799e-05 -0.11249695
00000000: 58aa debc abf4 193e 63c5 afbd 9d49 b7bb
00000010: 3984 b3bd 4948 bbbd 293e 26bd de9c 68bd
00000020: e0d1 673e f5c9 4c3e 9ba5 eebd fe83 ecbc
00000030: a9ab 82bd 3213 9bbd 206c edbd eba6 cfbd
00000040: e287 b73e dae4 3cbd 7daf 01be 856a 7dbe
00000050: 906c 41be 5c03 6f3e 6477 2a3e fd25 04be
00000060: ef7b 9bbd 8beb 0abd 92d5 c7bd 430a d3bd
00000070: e46c 82bd 34bf d9bd a8b1 9fbd f486 34be
00000080: 5531 583e e111 2d3d f890 07be 624a 82bd
00000090: b2c8 863e f98e 163e bbd2 c33d f0a7 acbb
000000a0: 7bd6 bfbd 26ca e4bd cfbb 853c 44d3 d2bd
000000b0: d9e7 a3bd 1c30 18be f611 333d 2bb0 38bd
000000c0: d856 623e 9ae4 28be ec64 6dbd 6858 c9bb
000000d0: b13e 3c3e edc2 b23d bf57 03be 6152 08be
000000e0: 8315 3ebd 5c0b bfbd 2d14 85bd 3ca3 07be
000000f0: b947 86bd 8502 063e 4d3b 9fbd 3058 8e3e
00000100: f470 32bd 7709 b8bd 2deb 5d3e 927a bd3c
00000110: 8ed4 8ebd a9bd 68bd ed18 de3d 4b5c 00be
00000120: 0688 92bd 7c9e b3bd e8db b4bd 42e9 7b3e
00000130: 07eb 86bd 43f6 333e 3bca cabd 69ff 933c
00000140: c50a 3cbd d4c8 93bd 6ced fa3d 170a 18be
00000150: 29cd 0ebd aea1 ddbd d8df ed3b d946 babd
00000160: ae15 ca3c 3ecd 73bd 240b fa3d 0f42 08bd
00000170: e53b 21be e3ca 04be 80e6 59bd 2743 a43e
00000180: f692 82bd cf66 24be fdb3 1a3e 1897 bbbd
00000190: 65f3 48bd 0569 dc3d a425 c13e 3107 24bd
000001a0: 52e5 cabd cf57 5cbd 314c 193e cafb dcbd
000001b0: b59e 83bd ab40 b33d 656a 1fbc 9a1a 16be
000001c0: 8531 c8bc e276 073e b4ad 04be 2def 97bd
000001d0: 2651 683e 7159 743e eea2 c2bd 95c5 fe3b
000001e0: 44f3 b1bd a2c7 063e 7ce2 ffbd 896d 7abe
000001f0: d2e1 23be 9301 34bd 5087 8037 cd64 e6bd

weight f4 [64, 128]
0.044129316 0.068587765 0.09510723 -0.049271423 0.08700611 0.010500131 -0.10798392 0.015371071
-0.12267912 0.025633542 -0.12046966 0.021131651 0.034250643 -0.064305864 0.054084405 0.030861408
-0.218155 0.07745288 -0.045389857 -0.04302952 -0.048034832 0.02762323 -0.15507704 0.08054532
0.011827017 -0.018615512 0.09891565 0.06396888 0.04980697 0.032949086 0.008715109 -0.08773177
-0.16604775 -0.09736486 -0.02811677 0.04328608 -0.17710406 -0.14578338 0.009890121 0.11957069
0.06266096 0.0018223634 0.065481365 -0.086050384 0.07216586 -0.016857386 0.049932152 0.12716733
-0.17153364 0.05339089 -0.0026527585 -0.04273463 -0.03849129 0.046606317 0.005804982 0.050842725
0.10299679 0.11121924 0.065134026 0.09973536 -0.08160903 0.044406988 0.01965309 -0.20142695
0.08406951 0.0012570439 -0.16027856 0.15792216 0.024108332 0.142259 -0.043769866 0.116546646
0.17007056 -0.05223554 0.062203635 -0.11060575 -0.030157821 -0.07324896 0.009889884 0.07762261
-0.07667636 -0.06005177 0.001347571 -0.050692968 0.105914444 0.2388789 0.044762384 0.089710005
-0.027098427 0.05616944 0.00089539646 0.08675696 0.060085803 0.15096822 0.04963661 -0.03949745
0.061945423 0.0956758 0.06979129 0.03383312 0.12976566 -0.028196378 -0.22063643 -0.033276048
0.0698085 -0.033504777 -0.06960306 0.076518126 0.12377559 -0.2069445 -0.019482272 -0.09297729
0.080776304 -0.05819154 0.11588833 0.008792865 0.040344402 -0.2500612 -0.015816443 0.010949347
-0.05362379 0.105413556 -0.122661084 0.17369 -0.032733962 0.049630214 -0.11180967 0.027700532
-0.100852445 0.15536177 -0.065590955 -0.05362828 -0.12668952 -0.03836969 -0.047068857 -0.026371734
0.010150866 -0.100200124 -0.045826748 -0.16892879 0.0018099427 0.0035422246 -0.030874291 -0.07177739
0.049619798 -0.20022666 -0.03746209 -0.05188768 0.048471954 -0.15724336 -0.11431404 -0.037510365
0.0041524903 -0.058614325 0.01618882 -0.038712427 -0.033106875 -0.042111613 -0.101572335 -0.08091791
0.009861641 -0.1659538 -0.058978148 -0.19759405 -0.16388264 -0.08239583 -0.041991036 -0.1839829
-0.2848152 -0.18537444 -0.13298693 -0.023590868 0.04442846 -0.057470612 -0.013395959 -0.073146716
-0.25316942 -0.042641513 0.038312394 -0.16761611 -0.0925623 -0.06356202 -0.09574585 -0.08665919
-0.15732406 -0.1175426 0.02460275 -0.099976666 -0.07483884 0.07809658 0.010842504 -0.07299852
-0.07744221 0.045963485 -0.031515986 -0.05977602 -0.033548106 -0.1121574 0.029073369 -0.16693927
0.17673819 0.023411956 -0.11497374 -0.13709055 -0.087264076 -0.15552334 -0.018268472 0.053894546
0.035920378 -0.062507436 -0.17488371 -0.09739476 0.024275845 0.029998025 0.019366436 -0.12736426
-0.11506253 -0.16559021 -0.11645083 -0.12006867 -0.07457961 -0.08816915 -0.19395196 -0.07857838
-0.052171037 0.083687045 0.07373869 -0.021807062 -0.20062603 0.0003937166 0.032819424 -0.018213432
-0.017505724 -0.14999953 -0.12499579 -0.04723285 -0.14044136 -0.05703205 -0.09314302 -0.040315397
-0.07916984 -0.01904577 -0.06757263 -0.16970272 -0.015467824 -0.05510237 -0.1265647 -0.08349875
-0.06031563 -0.12545632 0.029706847 -0.062919855 -0.10169068 -0.05502267 -0.15078469 -0.02034264
00000000: f1c0 343d be77 8c3d 94c7 c23d d5d0 49bd
00000010: 4230 b23d be08 2c3c ac26 ddbd f2d6 7b3c
00000020: 313f fbbd 6ffd d13c ccb8 f6bd 491c ad3c
00000030: 674a 0c3d cbb2 83bd 9c87 5d3d 10d1 fc3c
00000040: 0664 5fbe 9e9f 9e3d b7ea 39bd b93f 30bd
00000050: 2cc0 44bd 1d4a e23c 84cc 1ebe f2f4 a43d
00000060: 1bc6 413c 8f7f 98bc 4a94 ca3d 1e02 833d
00000070: 6502 4c3d 9ff5 063d d1c9 0e3c b7ac b3bd
00000080: 6c08 2abe 3a67 c7bd 2455 e6bc bf4c 313d
00000090: c45a 35be 3d48 15be 2d0a 223c 7ae1 f43d
000000a0: 6454 803d 5edc ee3a 181b 863d 2f3b b0bd
000000b0: b2cb 933d 8018 8abc a885 4c3d 2738 023e
000000c0: 84a6 2fbe 68b0 5a3d e7d9 2dbb 820a 2fbd
000000d0: 0ba9 1dbd 44e6 3e3d b837 be3b 7640 503d
000000e0: fbef d23d eac6 e33d fd64 853d 0d42 cc3d
000000f0: a322 a7bd 1ae4 353d 84ff a03c de42 4ebe
00000100: a32c ac3d 65c3 a43a 1020 24be 59b6 213e
00000110: d67e c53c 58ac 113e 0848 33bd 02b0 ee3d
00000120: fa26 2e3e eff4 55bd 3dc9 7e3d 4485 e2bd
00000130: 890d f7bc 8d03 96bd 2e09 223c 9af8 9e3d
00000140: 7f08 9dbd d8f8 75bd fba0 b03a 6ea3 4fbd
00000150: ace9 d83d ac9c 743e c358 373d e1b9 b73d
00000160: 85fd ddbc ed11 663d 0ab9 6a3a a2ad b13d
00000170: 881c 763d 6a97 1a3e c24f 4b3d 14c8 21bd
00000180: 7cba 7d3d adf1 c33d bcee 8e3d 9994 0a3d
00000190: 4ae1 043e 17fc e6bc 84ee 61be 774c 08bd
000001a0: c2f7 8e3d 4e3c 09bd 0d8c 8ebd 89b5 9c3d
000001b0: 0e7e fd3d 42e9 53be 4999 9fbc e16a bebd
000001c0: 0c6e a53d 415a 6ebd dc56 ed3d f30f 103c
000001d0: 2c40 253d 0608 80be 7c91 81bc e464 333c
000001e0: 9fa4 5bbd 10e3 d73d bc35 fbbd cbdb 313e
000001f0: 0c14 06bd 0d49 4b3d 78fc e4bd 3aec e23c
00000200: ba8b cebd 2817 1f3e 8d54 86bd 54a9 5bbd
00000210: e6ba 01be 8929 1dbd 46cb 40bd 8909 d8bc
00000220: d14f 263c b935 cdbd d4b4 3bbd abfb 2cbe
00000230: 993b ed3a ab24 683b 15ec fcbc 0600 93bd
00000240: 213e 4b3d 3808 4dbe d971 19bd 2d88 54bd
00000250: 878a 463d 6704 21be 7b1d eabd 78a4 19bd
00000260: 9d11 883b 9315 70bd 6b9e 843c ec90 1ebd
00000270: 139b 07bd 3a7d 2cbd 2805 d0bd 4ab8 a5bd
00000280: b892 213c cbef 29be 1293 71bd 1856 4abe
00000290: dad0 27be 25bf a8bd cbfe 2bbd 0366 3cbe
000002a0: 4cd3 91be ccd2 3dbe ba2d 08be a341 c1bc
000002b0: 9efa 353d 4e66 6bbd b97a 5bbc f2cd 95bd
000002c0: 6c9f 81be dea8 2ebd 75ed 1c3d 8fa3 2bbe
000002d0: 4e91 bdbd ce2c 82bd 6616 c4bd 607a b1bd
000002e0: 8f19 21be 2dba f0bd b58b c93c 91c0 ccbd
000002f0: 1b45 99bd 1af1 9f3d c2a4 313c 4080 95bd
00000300: 059a 9ebd 3544 3c3d e816 01bd b3d7 74bd
00000310: bd69 09bd c7b2 e5bd 462b ee3c 21f2 2abe
00000320: dbfa 343e 6eca bf3c 5a77 ebbd 7761 0cbe
00000330: 82b7 b2bd 8341 1fbe c3a7 95bc 87c0 5c3d
00000340: 3f21 133d e603 80bd b714 33be e776 c7bd
00000350: 23de c63c 6bbe f53c 5ca6 9e3c c76b 02be
00000360: e7a5 ebbd 7b90 29be c67d eebd 90e6 f5bd
00000370: 32bd 98bd 0792 b4bd 589b 46be b4ed a0bd
00000380: 4cb1 55bd 1d64 ab3d 4f04 973d b9a4 b2bc
00000390: e970 4dbe bf6b ce39 a96d 063d 5634 95bc
000003a0: 2a68 8fbc 7a99 19be cbfd ffbd 3c77 41bd
000003b0: dccf 0fbe 709a 69bd c5c1 bebd c221 25bd
000003c0: cc23 a2bd e005 9cbc 8563 8abd 8dc6 2dbe
000003d0: c26c 7dbc 06b3 61bd 2d9a 01be 6501 abbd
000003e0: 860d 77bd 9f77 00be c65b f33c 20dc 80bd
000003f0: 3443 d0bd 745f 61bd 4d67 1abe 9ca5 a6bc

bias f4 [64]
0.0026356906 0.0011684364 -0.07213285 0.20944417 -0.0958084 0.011678579 0.10561022 0.096027434
0.26932824 0.047538888 0.02243073 0.00495195 -0.039627872 -0.009466288 -0.0654508 0.028448269
-0.101939134 -0.027212009 0.02074572 0.08715655 0.14116381 -0.17711027 -0.074836 -0.04613426
-0.0343208 0.02483406 0.035896808 0.043424174 0.03011627 0.01918534 -0.0847317 0.0064775096
-0.07820897 -0.001299553 0.19396438 0.02043099 0.10137668 -0.13027357 -0.0021614106 -0.13292727
-0.040329065 -0.10978949 0.054659877 0.2352891 -0.015003444 0.104700625 -0.12083685 0.009284583
0.19597977 0.04897067 -0.008382231 -0.06554341 0.16009028 -0.026886184 0.07518133 -0.042849943
-0.073603794 -0.04967043 0.014274751 0.14956431 0.024648057 -0.010293539 0.04088823 -0.037457258
00000000: 8dbb 2c3b 3826 993a 63ba 93bd 8878 563e
00000010: 3237 c4bd 8357 3f3c 2c4a d83d 08aa c43d
00000020: 64e5 893e 23b8 423d a6c0 b73c f843 a23b
00000030: d650 22bd 7d18 1bbc 120b 86bd 580c e93c
00000040: 77c5 d0bd b8eb debc eef2 a93c 227f b23d
00000050: 3f8d 103e 655c 35be 9e43 99bd 47f7 3cbd
00000060: f893 0cbd cc70 cb3c 8808 133d 8cdd 313d
00000070: 65b6 f63c 932a 9d3c d087 adbd 4a41 d43b
00000080: 062c a0bd c355 aaba 999e 463e e45e a73c
00000090: 949e cf3d 6f66 05be 74a6 0dbb 161e 08be
000000a0: 1730 25bd 50d9 e0bd 09e3 5f3d a0ef 703e
000000b0: 01d1 75bc 486d d63d 4f79 f7bd 5d1e 183c
000000c0: ecae 483e 7895 483d a055 09bc a03b 86bd
000000d0: b5ee 233e 6a40 dcbc abf8 993d 6c83 2fbd
000000e0: 96bd 96bd 3973 4bbd a5e0 693c 6327 193e
000000f0: b9ea c93c 3ba6 28bc 6b7a 273d c86c 19bd

weight f4 [1, 64]
-0.07934708 0.082844265 0.043638766 0.1322755 0.058781832 0.060121696 0.12600237 -0.11196086
0.13583003 -0.05665064 -0.048265453 -0.055572703 -0.05465534 0.12740664 -0.11263266 -0.091793954
-0.09588987 -0.098479815 0.0052283797 0.10923362 0.08887087 0.025522955 0.0037671465 -0.10728213
-0.09421688 -0.085899696 -0.004984946 0.12952659 0.1567769 -0.13042547 0.06222364 -0.0085354885
-0.014011053 -0.08823196 0.09297123 -0.016671557 0.073200606 -0.00730746 -0.09875945 0.008206467
0.037902877 0.08683687 -0.08981088 0.09244893 -0.0997061 -0.07519926 0.005332506 -0.0688233
0.13908866 0.14498247 -0.074474156 0.13301969 0.1616602 0.13714913 -0.0935312 -0.012148895
-0.10293352 0.12342107 -0.08212325 0.1372543 0.009225197 -0.039198898 -0.063865505 -0.031145008
00000000: b980 a2bd 41aa a93d 90be 323d 3b73 073e
00000010: 38c5 703d 2b42 763d c406 013e bc4b e5bd
00000020: 0717 0b3e 800a 68bd ffb1 45bd 34a0 63bd
00000030: 47de 5fbd e376 023e f4ab e6bd 78fe bbbd
00000040: e861 c4bd c9af c9bd d452 ab3b e0b5 df3d
00000050: ee01 b63d 8415 d13c 3be2 763b bcb6 dbbd
00000060: c8f4 c0bd 2eec afbd c258 a3bb 9ea2 043e
00000070: 208a 203e 418e 05be 37de 7e3d 6fd8 0bbc
00000080: 9e8e 65bc f5b2 b4bd b367 be3d ca92 88bc
00000090: 33ea 953d 6b73 efbb 6542 cabd 6b74 063c
000000a0: 0c40 1b3d 87d7 b13d c4ee b7bd dd55 bd3d
000000b0: b632 ccbd 1202 9abd 4dbc ae3b 3bf3 8cbd
000000c0: 426d 0e3e 4976 143e e885 98bd 5036 083e
000000d0: 408a 253e d270 0c3e 498d bfbd 290c 47bc
000000e0: cfce d2bd 30c4 fc3d 3c30 a8bd 648c 0c3e
000000f0: 4825 173c 068f 20bd ebcb 82bd d123 ffbc
