models/model.pth (torch, 955855 bytes, 7 tensors)

weight f4 [256, 768]
000000 db c7 3f 3d b5 61 f8 3c 10 4c 8e 3c 43 b1 3f bc
       0.046821456 0.030320028 0.017370254 -0.011699977
000010 42 51 67 bd cc 95 63 3b 9b 45 4b ba 60 fe 16 bd
       -0.056473978 0.0034726737 -0.00077542075 -0.036863685
000020 1a 16 1c 3d ae 70 11 3d 17 76 48 bc 87 ee 45 bd
       0.038107015 0.03550785 -0.012235186 -0.04832318
000030 38 b5 41 bd 35 3d 41 bd 97 7f f0 3c 37 52 41 3c
       -0.047291964 -0.047177512 0.029357715 0.011799387
000040 bd 06 0e bb 5a c1 27 3c 26 4e 13 bc 49 b0 eb 3c
       -0.0021671497 0.01023897 -0.0089908 0.028770583
000050 8d 62 d4 bb a5 53 84 3a 39 d4 8f 3c c0 da a0 3a
       -0.0064814747 0.0010095729 0.01755725 0.0012272224
000060 e0 f5 37 3c 04 3f 0a bd f7 32 e4 bc f2 00 06 b7
       0.011228055 -0.033751503 -0.027856333 -7.9872425e-06
000070 f3 0d a5 3c e2 87 49 bd 2c ea 55 3b 81 ae 55 3c
       0.020148253 -0.049201854 0.0032640798 0.013042093
000080 c3 61 a4 bc cd c2 3c 3d f2 29 97 bc b1 eb 83 bc
       -0.020066148 0.046084214 -0.018452618 -0.016103597
000090 c9 7c b8 bc 9e 0a 13 3c 3b f3 0b 3c 33 23 9f 3c
       -0.02252044 0.008974699 0.008541877 0.019425964
0000a0 86 52 14 3d 59 81 22 bc 7f 0c cc bc a4 9f 1f bd
       0.036211513 -0.009918534 -0.024908302 -0.038970605
0000b0 20 4d c8 bb 8c f2 d6 bc 24 3f 5e bb 04 f1 53 bc
       -0.0061127096 -0.026238702 -0.0033912146 -0.012935881
0000c0 22 ad fa 3c 34 88 2f bc 9b ef 4e 3d 2b 54 47 bd
       0.030600134 -0.010713626 0.050521474 -0.048664253
0000d0 a3 12 0c 3d 8a 65 47 bc e3 fe 13 bd 76 46 a3 3b
       0.03419746 -0.012170205 -0.03613175 0.004982765
0000e0 c5 a7 f4 bc 8c c2 05 bc c2 8a e4 bc 11 33 b0 3b
       -0.029865155 -0.008164059 -0.027898196 0.0053771813
0000f0 57 35 8c 3c 37 26 45 bc 94 f0 41 3d 67 02 03 3c
       0.017115278 -0.012033037 0.047348574 0.007996178
000100 40 02 58 3d 36 c2 5f 3d 38 7b 30 bd 3e f0 fb bc
       0.05273652 0.054628573 -0.04308626 -0.030754205
000110 27 3e 0a 3d fd a1 59 bc 71 a3 89 bc 12 eb d2 3a
       0.03375068 -0.01328325 -0.016801568 0.0016091785
000120 a2 10 07 bd eb 92 be 3c 27 87 66 3d ec 02 e1 bc
       -0.032974847 0.023263415 0.056281235 -0.027467214
000130 ee f0 1b 3d d3 e1 b9 bb fe b4 9f 3b 22 9f 47 3d
       0.038071565 -0.0056726723 0.004873871 0.048735745
000140 ad bc 30 3c 8e 0c 1c 3d 83 f1 1c bd cd 2e e5 3c
       0.010787171 0.03809791 -0.03831626 0.027976418
000150 b5 23 9e bc 4a 6a f0 3c e0 62 3d 3c 99 99 e1 3c
       -0.019304136 0.029347558 0.011559218 0.027539061
000160 90 2d 7d 3c 58 d2 57 bc ad 9a 80 3b c0 62 6a bc
       0.0154527575 -0.013172708 0.003924689 -0.01430577
000170 f4 f1 2a 3c 04 86 31 bd d3 35 11 bd 75 cd 2e 3d
       0.010433663 -0.043340698 -0.03545172 0.042676408
000180 1d b0 40 3c 03 b5 49 bc be 8c 81 bc 19 16 60 bc
       0.011760739 -0.012311223 -0.015814181 -0.0136771435
000190 22 cc 3b bd e6 b1 6f 3a 1d 5a c9 3a 2d b5 af 3c
       -0.045848973 0.00091436354 0.0015361939 0.021448696
0001a0 ac cb 00 bd b2 c7 eb 3b a1 02 70 bc a3 0f b7 3c
       -0.031444237 0.0071954364 -0.014649064 0.022346323
0001b0 b8 6f 1e bd cf 2b 03 3d 6d 64 24 bd 66 ec 20 bd
       -0.038680762 0.0320242 -0.040134836 -0.039287947
0001c0 0b 88 09 3d 9e 19 b8 bc dc 81 c1 3c e6 f8 fa bb
       0.033577006 -0.022473153 0.023621492 -0.0076590655
0001d0 bf 8a 99 3a 36 03 38 3c ab 94 53 bd 2e 5f 0a bd
       0.0011714323 0.011231234 -0.051655453 -0.033782177
0001e0 00 8b aa bb 09 e8 10 bd 8f d0 99 3c b8 b3 f5 3c
       -0.0052045584 -0.035377536 0.018776206 0.029992923
0001f0 e0 66 3e bc c3 78 a0 bc b9 4b 29 bd 4c 81 48 3d
       -0.011621207 -0.019588834 -0.04133198 0.048951432
000200 fa 9b 21 3b 62 37 40 bd 09 e8 dd bb 23 b3 5a bc
       0.002465962 -0.046927817 -0.0067720455 -0.013348374
000210 8e 3b 32 3d 7f ac fb bb 1e 30 3d bd 54 2e c0 bc
       0.043513827 -0.0076804752 -0.046188466 -0.023459591
000220 68 a0 37 3c 8c a4 ef 3b b2 3c 24 bd a6 e8 24 3c
       0.011207677 0.0073133167 -0.040096946 0.010065233
000230 56 ce 30 3d 38 3f 1c bd 90 f6 08 bc 77 af a7 3c
       0.043165527 -0.038146228 -0.008359566 0.02046941
000240 cc 6d 30 bd 9a 14 12 3c c6 ab 01 3d ad 7a 3c 3d
       -0.04307346 0.008916045 0.031657957 0.04601543
000250 ba 62 43 3d ee 19 fd ba 1e d1 8c 39 9f 26 c7 3b
       0.047701575 -0.0019310096 0.00026858685 0.006077602
000260 e5 9e 48 bb 01 d1 2e bd 8b 24 f2 3c fc 07 59 3c
       -0.0030612287 -0.04267979 0.02955844 0.0132465325
000270 06 96 6a ba e8 34 29 3d 5b 52 65 3d cf 46 d9 bb
       -0.0008948747 0.04131022 0.055986743 -0.0066307555
000280 c8 09 af bc 2d 10 2f 3b a1 6f 04 bc 8c f8 80 bb
       -0.021366969 0.0026712522 -0.008083255 -0.003935879
000290 6d 1f 51 3d bb 90 2a bd 65 25 5d bc 28 ce 84 3b
       0.05105536 -0.041641932 -0.013497685 0.004052896
0002a0 54 74 18 3d b9 d0 f9 bb 19 98 1a bb 24 66 2b bc
       0.037220314 -0.0076237586 -0.0023589192 -0.010461364
0002b0 46 86 0f bb 3c 09 21 3d 46 7a 43 bc 5b 44 b6 bc
       -0.0021900102 0.039315447 -0.011931008 -0.022249391
0002c0 eb 4d 78 3c ff 15 2f 3c 61 f7 da bc ed f1 1f ba
       0.015155296 0.010686397 -0.026729288 -0.00061014184
0002d0 0f c5 fb 3c 21 f3 12 bd e3 73 45 bd 54 e1 1f bd
       0.030733613 -0.035876397 -0.04820622 -0.03903325
0002e0 07 0d f2 bc fb 65 d5 bb 6f e9 a1 bc 4c 0f 20 3d
       -0.029547228 -0.006512401 -0.01976463 0.03907709
0002f0 89 d8 dc bb d6 a1 92 bc c6 a6 b8 bb 01 a7 41 3d
       -0.00673968 -0.017899435 -0.0056351153 0.047278408
000300 7a 62 71 ba d9 b4 0d 3d c3 2d 8d 3b e3 7f a7 3c
       -0.00092080946 0.034596298 0.0043084337 0.020446723
000310 43 27 7e bb c1 2f 28 3b d7 c5 17 3a 9b c9 2d bc
       -0.0038780726 0.002566323 0.00057896733 -0.0106071485
000320 95 8d 39 3d 56 e4 6e bc c5 50 46 3b 12 b2 99 3c
       0.04530104 -0.014580807 0.0030260545 0.018761668
000330 e8 75 47 3d e3 44 1d bc 38 7e 48 3d 41 1a ba 3c
       0.04869643 -0.009598943 0.048948497 0.022717597
000340 e4 3e cb bb e8 0a ab bc d7 5c 3e 3d 0f 7a e2 3c
       -0.0062025655 -0.020879224 0.046475258 0.027646093
000350 29 0e 95 bc bb 4b 08 3b a2 f6 7a 3b 78 b5 2d bd
       -0.018195229 0.0020797092 0.0038293977 -0.04240939
000360 c6 b2 9b bc 63 fa 4c 3d 1b ef 9a 3c 46 d5 e8 bc
       -0.019006144 0.050043475 0.018912842 -0.02842201
000370 b4 5f 45 bd 44 41 55 3c 7f 09 69 bc 47 58 09 3c
       -0.048186973 0.013016049 -0.014223455 0.008382863
000380 46 6e 43 bc ae da 87 bc 8a f6 b5 3c f8 c2 e2 bb
       -0.011928147 -0.016583767 0.022212286 -0.0069202147
000390 ab 73 20 3c ed 90 e5 bb 92 64 52 bd 32 ac 23 bd
       0.009793202 -0.007005802 -0.051365443 -0.03995914
0003a0 73 ec 46 3c 02 62 0a 3c f8 2d 16 3d 28 81 4b 3d
       0.012141335 0.008446218 0.036664933 0.04968372
0003b0 a9 50 db 3c 5f 4c da bb 16 38 24 bd 72 f8 a9 bc
       0.02677186 -0.006661936 -0.04009255 -0.02074835
0003c0 11 00 e0 bb b1 59 e7 bc 68 dd d0 bc 05 cc 19 bd
       -0.0068359454 -0.02824101 -0.0254962 -0.037548084
0003d0 e7 7f c2 3b da 66 35 bd 66 5a a6 3c c0 e0 a2 3c
       0.0059356573 -0.04428754 0.020306777 0.01988256
0003e0 f7 fb 78 3c 5d 05 4d 3b 01 47 91 bc 8f 96 f8 3c
       0.015196792 0.0031283714 -0.017734053 0.03034523
0003f0 39 7a fe 3c 90 6d f6 3c d6 13 15 bd b1 2f 44 3d
       0.03106414 0.03008154 -0.03639587 0.047897045

bias f4 [256]
000000 93 8a b2 bc ea dc e1 3b 05 c9 09 bd 0d d2 f7 bc
       -0.021794593 0.00689279 -0.033638973 -0.030251527
000010 0c 97 43 bd c5 67 b4 bc c2 e3 1d bc 10 b5 c8 bb
       -0.04775147 -0.022022137 -0.009636821 -0.0061251
000020 21 8e 1a bb 92 a5 9d bc 70 cb 40 bc 10 be 03 3c
       -0.002358325 -0.01924399 -0.011767253 0.00804092
000030 eb af 6c 3b b1 af 6b 3c c2 84 8c 3c 86 3b f8 3b
       0.0036115597 0.01438515 0.017153148 0.007575455
000040 92 cb 11 bc a1 85 c8 3c 37 ed 2b bd bd 3f 04 bd
       -0.008898633 0.024477782 -0.041974273 -0.032287348
000050 81 23 a5 3b b8 6b 8b bd 7a 7e 2e 3c 91 63 12 bd
       0.005039633 -0.06807655 0.010650272 -0.035739485
000060 85 10 95 bb fd ab e1 bc 1b 6e 4c bc 30 a2 e3 bc
       -0.0045490884 -0.02754783 -0.012477423 -0.027787298
000070 58 76 2d bc e0 f5 f8 bc 8e 7c 9b bc 20 40 4a bd
       -0.010587297 -0.03039068 -0.01898029 -0.04937756
000080 3e b3 7c 3b 6d 39 25 3c d2 4e 43 bd 34 16 97 3c
       0.0038558985 0.010084492 -0.04768259 0.018443204
000090 bc b7 4b 3c ea 05 80 ba 4b 3e 35 bd fc 7c 86 38
       0.012433942 -0.0009767388 -0.04424886 6.412898e-05
0000a0 cc 3a f9 3b 77 bb d2 bc 6c 46 65 bc fa 52 5b bd
       0.007605886 -0.025724156 -0.013993841 -0.05354593
0000b0 8e 4e 0f bd 3d 72 2f bd 1f b7 c4 bc 09 48 cf bc
       -0.034987025 -0.042833555 -0.0240131 -0.025302904
0000c0 08 a7 f8 bc ec a4 31 bd 2c 49 e4 3c cf 5c 31 3c
       -0.030353084 -0.043370172 0.027866922 0.01082535
0000d0 c5 88 2e bd f5 a2 bb bb 5b df 0f 3d 8d 75 b4 3c
       -0.042610902 -0.005726213 0.035125118 0.022028709
0000e0 84 fb d6 bb 21 66 01 bd 75 62 46 bd b1 58 48 3c
       -0.0065607447 -0.03159154 -0.04843374 0.012228177
0000f0 05 ad f7 bc 69 76 2c bb 00 92 91 b9 48 17 98 3b
       -0.03023387 -0.0026315695 -0.00027765334 0.004641447
000100 d3 c6 cd 3b 79 8a d9 3c 88 13 11 bd 16 59 83 3b
       0.006279805 0.026555287 -0.035419017 0.0040084226
000110 04 19 f9 bb f8 ee 8d bc 04 54 fe bc 91 2d 0d bd
       -0.007601859 -0.017325863 -0.031045921 -0.034467284
000120 b0 6f 29 bd a1 c5 ad bc ef d1 44 bd a7 23 ab bc
       -0.04136628 -0.0212124 -0.04805177 -0.020891024
000130 d6 b9 47 bc 20 cf 49 3c bf 16 b8 3c 72 dc 2c 3c
       -0.012190303 0.012317449 0.022471784 0.010550605
000140 7c 89 99 3c 3e 52 6f bb 00 8c d9 bb a0 12 27 bc
       0.018742315 -0.0036517526 -0.0066390038 -0.010197312
000150 ec 48 9c 3a 00 a8 e2 ba 52 b5 ba 3c 1b 1b 17 bd
       0.0011923588 -0.00172925 0.022791538 -0.036891084
000160 f1 04 c7 bc f2 18 be bc 52 74 b6 bc 0a 3c 8c bc
       -0.024294348 -0.023205254 -0.022272263 -0.017118473
000170 36 46 3d bc f2 80 26 bd d1 a4 0f 3c 28 52 27 bd
       -0.011552384 -0.040650316 0.008767323 -0.040849835
000180 c9 a0 80 bc af 3b 43 bc b0 8b f9 3c 6a 3b 36 bb
       -0.015701668 -0.011916085 0.030462116 -0.002780641
000190 20 c6 e8 bc 5d 14 17 bd b1 d0 18 bd 22 b3 60 bb
       -0.028414786 -0.036884654 -0.0373084 -0.003428646
0001a0 c9 45 0b bc 27 c9 49 bd 16 72 74 bc 5f 09 87 3c
       -0.008500525 -0.0492641 -0.014919778 0.01648396
0001b0 7f 34 09 3d eb 82 e9 bc 0c cf bf 3c 16 bc ac 3c
       0.03349733 -0.02850481 0.023414157 0.02108578
0001c0 6e a8 5a 3c 79 2c 17 bd 94 95 85 bc d7 67 41 bd
       0.013345821 -0.036907647 -0.016306676 -0.04721817
0001d0 d4 d3 90 3c a0 19 14 3c 83 0b b6 bc b4 da 3d bd
       0.017679133 0.009039313 -0.022222286 -0.04635115
0001e0 5e 8f be bb ac 8e c6 3b 10 0d 32 3c cd 20 19 bd
       -0.0058154305 0.0060594883 0.010867372 -0.037384797
0001f0 94 c0 ab bb 63 c6 d1 bc b2 11 0f 3d 67 24 a0 3c
       -0.005241463 -0.025607293 0.034928985 0.019548608
000200 13 38 14 bd 76 8f b7 bc 3a b2 3f bc bd 56 de bc
       -0.03618629 -0.022407275 -0.011700207 -0.02714097
000210 06 f6 4c bc 76 0c d1 3c 20 97 d4 3c ae 15 2f bd
       -0.012509828 0.025518637 0.025950968 -0.042745285
000220 55 f1 7b bb 53 3f 40 39 0e 67 13 3a ea 52 4b bd
       -0.0038443406 0.00018334137 0.00056229613 -0.04963962
000230 56 73 95 3c 10 d9 87 3c f8 45 a0 bc 4f 68 01 bd
       0.018243473 0.016582996 -0.019564614 -0.031593617
000240 dd 1c bc 3b 70 7b 6c 3c e2 a2 17 3c 55 85 0f bd
       0.0057407455 0.014433727 0.009255143 -0.035039265
000250 a4 e5 ea bc 87 14 1b bd 69 a4 c5 3c 6e ab 42 bd
       -0.028673954 -0.037861373 0.024126248 -0.04752677
000260 28 f3 10 bd b0 59 66 3c 78 b1 82 bc 25 0a 02 bd
       -0.035388142 0.014059469 -0.015953764 -0.031747956
000270 2e c7 6e 3c 0e ca cb 3c 91 6d 9f bc 80 b8 13 3d
       0.014573855 0.02487662 -0.019461425 0.036064625
000280 50 cb 74 bb 2c 54 4e bd 6f b8 68 bc 92 f5 21 3b
       -0.003735263 -0.05037324 -0.014204129 0.0024713022
000290 30 8f 93 3c 61 f3 0d bd fc 04 86 bd 53 ff e6 bc
       0.018012613 -0.034655932 -0.065439194 -0.02819792
0002a0 0f ea 1a 3c 7d b7 c6 bc 37 25 f9 bb 7c 62 ca bc
       0.009455218 -0.024257416 -0.0076033133 -0.024705164
0002b0 e0 ec cc bc b1 27 14 bd f1 ba 96 bc ea da ab bc
       -0.025015295 -0.036170665 -0.018399687 -0.02097841
0002c0 c6 dc 97 bb d4 37 c8 bc 58 64 b2 3b aa a8 26 bd
       -0.0046344725 -0.024440683 0.005444091 -0.040688194
0002d0 df 78 28 bb 35 af fc ba 25 d4 b0 39 3e d2 97 bc
       -0.002570681 -0.001927829 0.00033727396 -0.018532868
0002e0 71 d5 2d 3c d8 bd f5 bb df 83 4e bd 40 0e fa bc
       0.01060997 -0.007499438 -0.05041873 -0.030524373
0002f0 d0 86 c5 3c ee 8b 58 3b ee c1 9c bc 51 12 79 bb
       0.024112135 0.003304239 -0.019135442 -0.0038005302
000300 4e e6 3d 3b f5 11 89 bc 25 2a 1a bd 91 a2 cd ba
       0.0028976384 -0.016732195 -0.03763785 -0.0015688707
000310 52 62 cb bc 57 6e 21 3d 88 22 2c bc ad 9b 85 bc
       -0.024827156 0.03941187 -0.01050628 -0.016309584
000320 6b d5 0a bc 20 2e de bc 41 3b 3f 3c dc 9f 10 bd
       -0.008473734 -0.027121603 0.011671842 -0.035308704
000330 14 23 16 bd 6e 9d 5c 3c 3c 4a 23 bc 6d 56 4c bd
       -0.036654547 0.013465269 -0.009966429 -0.04988711
000340 f4 3f bf bc 37 b1 b0 3c 40 07 12 3d 00 cf 64 bb
       -0.023345925 0.021568878 0.035651445 -0.003491342
000350 a6 0b a9 bc 75 ee dd bc 7c 61 bc 3c cf 62 51 3c
       -0.020635437 -0.027091244 0.022995703 0.012779905
000360 1c 0d 09 bd d9 58 04 bd df 54 70 3c 50 21 58 bd
       -0.033459768 -0.032311294 0.014668672 -0.052766144
000370 9c 84 d3 3c 23 1b 77 bc e1 63 3f 3c 7a 7f 63 bc
       0.025820069 -0.0150821535 0.011681528 -0.013885373
000380 d9 63 38 bd 7a 40 23 bd 72 6a 36 bd 79 cf 1b 3b
       -0.045017097 -0.03985641 -0.044535108 0.0023774786
000390 4a 58 12 bd d8 cf 33 bc 30 ee 82 3c 03 86 63 3c
       -0.03572873 -0.010974847 0.015982717 0.013886931
0003a0 68 07 54 bd d7 82 cd bc 90 ba 2f bd 4c 6f 88 bb
       -0.051764876 -0.025086803 -0.04290253 -0.0041636582
0003b0 d6 27 5c bd 65 44 35 bd 07 f1 79 39 11 9b 9f bc
       -0.053748928 -0.04425468 0.0002383628 -0.019483121
0003c0 2b 15 5c 3c c8 ca 31 bd 0b 2b 98 bc 5f ca 19 bc
       0.013432781 -0.043406278 -0.018575212 -0.009386628
0003d0 64 92 3a bd 13 fc 29 bd b7 73 2b bd 6c 90 13 bd
       -0.045549765 -0.041500162 -0.0418584 -0.036026403
0003e0 c5 3b bc bc 95 1e 17 bd 69 28 2c 3c c0 2f 05 3a
       -0.02297772 -0.0368944 0.010507681 0.00050806627
0003f0 ed 1b 08 bc 4a 0f 10 bd 05 0d 01 bd 8c ad dc bc
       -0.008307439 -0.03517083 -0.031506557 -0.026938222

weight f4 [128, 256]
000000 c9 39 86 bd 2e 03 3f bd f4 31 f9 bc c2 1c 53 3d
       -0.065539904 -0.04663389 -0.030419327 0.051541097
000010 8a 26 82 bc cf 46 66 bb 48 5e fd 3c 3e b9 66 3d
       -0.015887517 -0.003513742 0.030928746 0.056329004
000020 18 57 4d 3d 5e b3 57 3d 0e 56 00 3d 2a f0 0d bd
       0.050131887 0.052661292 0.03133207 -0.034652866
000030 14 31 00 bc e7 52 b0 bc 30 fe 6f bc c5 6f 87 bd
       -0.007824201 -0.021523906 -0.014648005 -0.06613115
000040 4f c1 1a 3c 87 8e 8d bd f5 55 5d bc ff 06 1f bd
       0.009445502 -0.069119506 -0.013509263 -0.03882503
000050 92 45 35 3d e9 78 4a bd ce 37 42 3b db d5 9d bd
       0.0442558 -0.049431715 0.0029635313 -0.07706805
000060 03 a0 d7 3c 09 e8 4f 3c ce 02 65 bc 05 a2 44 3c
       0.026321417 0.012689599 -0.0139777195 0.012001519
000070 89 5c ce bc c0 d3 d4 bb 6d b5 56 3a 4d 2a 86 3c
       -0.025190609 -0.006494969 0.00081904867 0.016377592
000080 32 1d 89 3d ad 2d 1f b8 fb 19 ba 3c 94 2b 4a 3c
       0.06695022 -3.7951093e-05 0.022717467 0.012339491
000090 b4 b9 ae bc 91 62 78 bd 44 2a 37 bd a0 4a 6e bd
       -0.021328785 -0.060640875 -0.044718042 -0.058176637
0000a0 99 51 71 bd ef 49 91 ba b4 ab e8 b8 28 1f 0e 3d
       -0.05891571 -0.0011084656 -0.00011094604 0.03469768
0000b0 7a a3 c1 bc 25 7f 28 bc 9a 4a 5a bd bd 3a ae 3d
       -0.023637522 -0.01028422 -0.0532938 0.08507297
0000c0 78 bd 15 3c 52 ff cc bc a8 41 60 bc 7d 96 06 3c
       0.009139411 -0.02502409 -0.013687529 0.00821459
0000d0 86 77 c6 bc a5 0c 17 3d e5 ac 99 bd b5 c5 5f bd
       -0.024226915 0.036877293 -0.0750368 -0.054631907
0000e0 42 e8 06 3d 95 52 7d bd 57 87 23 bd 65 d4 4c 3c
       0.032936342 -0.061846334 -0.039923992 0.012501811
0000f0 02 e2 3e bd de be 8a 3c e6 07 08 3d 28 f8 21 bc
       -0.046602257 0.016936716 0.033210658 -0.009885825
000100 13 67 b2 3c 2d 31 db bc dd 3b 14 3d dd ba 26 3c
       0.021777665 -0.026756847 0.036189903 0.010176388
000110 ac f3 e1 3c 9a d1 0a bd 4c 69 79 3d aa c6 d0 bb
       0.027582012 -0.033891298 0.060891435 -0.006371339
000120 f7 7c d0 bc ec 9d 87 bd 7b c0 cc 3c bc c4 04 3d
       -0.025450213 -0.06621918 0.024994126 0.032414183
000130 8f 8e ac 3b a8 83 c6 3a 38 ce 00 bb eb e4 da 3c
       0.0052660177 0.0015145438 -0.0019654166 0.026720485
000140 0b e6 9c bc 04 bd 7f bd 10 0f 8b 3b c4 b0 9a 3a
       -0.019152662 -0.06243612 0.004243739 0.0011801948
000150 92 d0 93 3b 0a 8b 15 3d 0b 02 a8 bd f0 82 98 bd
       0.0045109475 0.03650955 -0.08203515 -0.07446849
000160 3b ea eb bc 64 f3 1a bc 72 ae 3b 3d 79 64 2e 3c
       -0.028798213 -0.009457443 0.04582066 0.010644072
000170 b7 d1 bc 3c ad 30 9d bd a0 f5 44 3b 19 7d 94 bd
       0.023049219 -0.076753 0.003005363 -0.07250423
000180 d0 46 f9 3b 1c 51 9c bd 8c 20 87 bc 25 a4 06 39
       0.0076073185 -0.07632658 -0.016495012 0.00012840384
000190 80 ae bf ba 1e ae 82 3d a8 69 0d 3d ae af 51 3c
       -0.0014624149 0.063808665 0.03452459 0.012798233
0001a0 6d 87 f0 bc 80 e9 03 3d 38 77 51 3b b6 74 3a 3d
       -0.029361451 0.032205105 0.003196193 0.04552146
0001b0 df 32 ee 3c ac 6e 5f bd 33 13 0a bb 5a dd 90 bd
       0.029076992 -0.054548904 -0.0021068573 -0.070734695
0001c0 98 6f d5 3c 62 68 55 bd 26 8d 89 3c d5 2b 55 3c
       0.026054189 -0.0521015 0.016790938 0.013010939
0001d0 b4 df 9e bd 94 49 0a bd d4 9a ae 3b 43 cf 86 b9
       -0.07757512 -0.033761576 0.0053285155 -0.00025712894
0001e0 77 21 85 bc 77 c8 de bc 3c 39 9c 3c 43 82 3e bd
       -0.016251309 -0.027195198 0.01907026 -0.046510946
0001f0 16 31 1c bd 55 b8 4b bd 56 21 29 3d 62 a7 45 bd
       -0.03813275 -0.04973634 0.041291557 -0.04825533
000200 01 6a 8d 3a c0 24 5f bb 12 5a 1e bd 26 6d 7a 3c
       0.0010789038 -0.0034049004 -0.038660116 0.015284812
000210 df b9 cd 3c 18 f0 b4 bc 73 e3 13 3d ca cf 96 bc
       0.025113044 -0.022087142 0.036105584 -0.018409628
000220 97 ff a7 3c b6 21 06 bd 5a c9 07 bd e0 24 63 3c
       0.020507617 -0.032746993 -0.03315101 0.013863772
000230 36 f1 8f bb 9a 6a 30 bd cc cc 38 3c e2 ca 2a bd
       -0.0043927683 -0.043070413 0.011279296 -0.04169739
000240 7a e2 a9 bd 79 4e 92 3d bd af be 3c 22 28 f2 bc
       -0.0829515 0.07143874 0.023277158 -0.029560152
000250 76 78 91 bd ae e4 00 3d 75 c5 32 3d ce 6a 6e bd
       -0.07103054 0.031468086 0.04364534 -0.058207326
000260 b0 86 04 bd 38 5e ee bc 1a 88 47 bc 9b cf 91 bb
       -0.03235501 -0.029097661 -0.012178445 -0.0044497973
000270 74 7d 9c bd a5 41 fe bc 1d fb 48 bc 7b 7e 80 bd
       -0.07641116 -0.031037161 -0.012266901 -0.06274124
000280 70 37 a7 3c e0 12 c6 bc 18 d7 4d bd 2a 59 db bc
       0.020412177 -0.024178922 -0.050253958 -0.026775915
000290 24 c1 20 bb 26 f2 48 3d d1 df 53 bd 05 f0 c7 bc
       -0.0024529183 0.049059056 -0.05172712 -0.024406442
0002a0 d0 ed 82 3d c5 10 cf bc 13 6f 83 3d 71 88 46 bd
       0.063930154 -0.025276551 0.0641767 -0.048469964
0002b0 ad d7 df bb 1d dd 1e 3c 8a 97 9b 3d 70 5f d0 bb
       -0.0068311305 0.009696272 0.07597263 -0.0063590333
0002c0 98 ca 95 bc 11 62 72 bc 2c 5f ab bc 38 b0 20 bd
       -0.01828508 -0.014793889 -0.020919405 -0.039230555
0002d0 4b 5d 9f bc 79 e5 ea bb f0 84 54 3c 59 79 06 bd
       -0.019453665 -0.0071684686 0.012971148 -0.03283057
0002e0 4b 3a 06 bc 06 87 58 3c b8 46 48 3c 50 29 b8 3c
       -0.008192609 0.013215786 0.012223892 0.022480637
0002f0 97 43 06 bd a9 f4 bc bc f5 3a 90 bd 21 82 8b bd
       -0.032779302 -0.023065882 -0.07042495 -0.068119295
000300 94 6a 31 bc 22 8c 94 3c a7 88 7e 3c 17 0a cf bc
       -0.010828633 0.018133227 0.01553551 -0.025273366
000310 78 f9 07 bd c4 82 d3 3c 51 05 2e bd 5c ed 99 bd
       -0.033196896 0.02581919 -0.04248554 -0.07515976
000320 7c 7e b7 3c f3 ec b5 bc 05 4b 2d bd 84 16 28 bd
       0.02239918 -0.022207713 -0.042307872 -0.041037098
000330 b2 4e 38 3d 27 87 ad bd 87 30 6a bd 8c 5e 19 3d
       0.044996925 -0.08473044 -0.057175186 0.037443683
000340 6c c3 53 3d c7 7a 08 bd aa c8 51 bd 10 d4 30 bd
       0.05170004 -0.033320215 -0.05121676 -0.04317099
000350 ba 39 3d bd fd 84 5a 3d 9e 7e 1f 3d ef 05 f5 3b
       -0.04619763 0.053349484 0.03893911 0.007477514
000360 ec 15 4b 3d fd 83 2a 3d 03 b2 09 3d 9b 5f 8d 3d
       0.049581453 0.04162978 0.03361703 0.06903001
000370 25 0b 3c bd cf fd 9d 3d b7 dc 5b 3d 34 18 cd 3b
       -0.045909066 0.07714426 0.053677287 0.0062589888
000380 fe 29 7e bd 7f 46 03 3d 82 4b a7 3c 1f 1d 03 3d
       -0.062051766 0.032049652 0.020421747 0.032010194
000390 b5 3d 6c bd 0a 1e 37 bd 80 c0 56 bc e0 35 7f bb
       -0.057676036 -0.04470638 -0.013107419 -0.0038942024
0003a0 d4 aa 37 bd 7e e6 27 3d 34 20 96 bc 30 c7 1e bd
       -0.04484065 0.0409913 -0.018325903 -0.03876418
0003b0 a1 87 94 bd 6f be 9b bd 56 f3 6e bd ac 9f a2 bd
       -0.07252432 -0.07604682 -0.058337532 -0.07940611
0003c0 2c 0a a1 3b 69 be ec 3b 2c 2c 50 bd b3 28 51 bc
       0.0049145427 0.007224847 -0.050823376 -0.012766051
0003d0 e2 fa 9a bd b4 1e 5a bd fe bf 4a 3c 72 67 90 3d
       -0.07567383 -0.053251937 0.012374876 0.07050981
0003e0 11 6b 8e 3b 2f 65 ad 3c b8 fe 81 bc 78 50 5c 3d
       0.0043462594 0.021166412 -0.01586853 0.05378768
0003f0 88 f2 2c 3d b4 ba 49 bc e0 ff e0 3c 08 aa a6 bd
       0.042223483 -0.01231258 0.02746576 -0.081379

bias f4 [128]
000000 42 7b b3 bc cf 3e 82 3c b7 4c 91 bd de 85 89 bd
       -0.02190936 0.01589909 -0.0709471 -0.06714986
000010 c6 fa d5 bd 89 f2 31 bd ed d2 9b 3c fd 98 af bc
       -0.10448222 -0.04344419 0.019021476 -0.021435255
000020 51 38 12 bd 2a 67 c3 bc 27 7f 68 3c 78 6e 8b bd
       -0.03569824 -0.023852903 0.014190472 -0.068081796
000030 4a 0e 5f 3d 91 e1 d0 bc 5c ff 31 bc 79 e9 3e 3d
       0.054456986 -0.025498183 -0.010864105 0.046609376
000040 af 49 af 3c 70 e9 0b bd 05 08 3d bb 48 e3 07 3d
       0.02139744 -0.03415817 -0.0028843891 0.033175737
000050 11 02 77 bd 1c a3 56 3d 53 b3 c4 bd 76 42 71 bd
       -0.060304705 0.052401647 -0.09604516 -0.058901273
000060 6a af 81 bd 22 1f ce 3c f9 68 cb 3d a5 2b 9f 3c
       -0.06332286 0.02516133 0.09932131 0.019429991
000070 46 a7 c4 3b 23 38 0b be 65 5a 2e 3d 42 0c df bd
       0.006001386 -0.13595633 0.042566676 -0.1089101
000080 2c ac 36 bd 0b 07 d9 bc b4 ff 62 3d 86 18 7a bd
       -0.04459779 -0.026492616 0.05541964 -0.061058544
000090 89 1c 50 bd ce 9e ee bc a4 0b bb bc a2 e9 8a bd
       -0.050808463 -0.029128458 -0.0228327 -0.06782843
0000a0 8c 88 1e bd fe 34 05 bd c6 08 9e bd 68 dd e0 bd
       -0.03870444 -0.03252124 -0.07716517 -0.1097973
0000b0 65 1d 98 bd 71 54 89 bc ee 06 07 bd d3 50 b2 bd
       -0.074274816 -0.016763898 -0.032965593 -0.08706822
0000c0 6e bb c2 bd 7a c7 6b bd 9c 2d 3f bd ec c6 39 3d
       -0.095084056 -0.057563283 -0.046674356 0.045355722
0000d0 65 56 b7 bd 8f 4e 44 3d a4 bd 26 bd 84 0a ba bc
       -0.08952025 0.04792648 -0.0407082 -0.022710092
0000e0 e9 2a 08 3d aa b0 e0 bd ed c6 3f bd dd c9 6e bd
       0.033244047 -0.10971196 -0.04682057 -0.05829798
0000f0 6e 54 d5 3b 1b 13 19 bd aa 58 54 bc e5 f6 a8 bd
       0.006510309 -0.037371736 -0.012960592 -0.082502164
000100 e8 db 91 3d b2 02 4d 3d 82 83 84 bd d8 01 e1 3c
       0.07122022 0.0500514 -0.064703956 0.0274667
000110 ec 6a e6 bc f1 df 89 3d ba cc 98 3c 67 e5 80 bd
       -0.028127156 0.067321666 0.018652309 -0.06293755
000120 6e 21 bb bd 8c 44 57 bd 1b 30 35 bd bd 29 56 bd
       -0.091372356 -0.052555606 -0.04423533 -0.0522859
000130 1c ca 2e bd a2 e4 5f 3c 31 d4 c1 bc 3d 73 a0 bc
       -0.042673215 0.01366535 -0.023660751 -0.0195862
000140 e4 13 2b bd 7b db 6c bc 1e 2f 91 bd 9a 64 9a 3b
       -0.041767016 -0.014456625 -0.07089065 0.0047116997
000150 68 5a 7d bd d4 46 cb 39 a0 c1 6d bd 6b 84 ca bc
       -0.061853796 0.00038771948 -0.058045983 -0.024721345
000160 7e 0f 66 bb e1 cc 85 3d 7e 87 a8 bc 08 1f 44 bc
       -0.003510445 0.06533218 -0.02057242 -0.011970289
000170 d1 bf 01 be a1 80 c4 bd 3f 11 33 bd 87 cc 55 bd
       -0.12670828 -0.095948465 -0.04371762 -0.052197006
000180 41 95 8f 3d 51 6f 08 bc f3 d0 31 bd 93 59 78 bb
       0.0701089 -0.008327321 -0.04341216 -0.0037895187
000190 db 4b ce bd f1 90 c4 bd 0a 3a 48 bd 67 88 c8 3c
       -0.10073062 -0.09597958 -0.048883475 0.024479104
0001a0 77 e6 81 bc a5 b8 a9 3d 1c 8f aa 3d cc 59 99 bd
       -0.015856965 0.08287171 0.08328077 -0.074878305
0001b0 8c ba 7e bd 11 eb 8d bd 65 09 a3 bd 06 6a c3 bb
       -0.062189624 -0.06929601 -0.07960776 -0.0059635667
0001c0 52 ed 81 bd 86 08 b8 3a 80 b0 4c bd 1a 88 de bc
       -0.063440934 0.0014040626 -0.04997301 -0.027164508
0001d0 79 4e a4 bd ef 56 f6 3c 02 ac ef bc 1e 02 f1 bd
       -0.0802278 0.03007075 -0.029256824 -0.11767982
0001e0 d6 ea 1d 3d e0 a0 5c bd 49 1e 1d 3e b9 f5 a6 3c
       0.038554035 -0.05386436 0.15343584 0.020380842
0001f0 27 65 db 3a f7 c2 c2 bc c2 e1 59 39 01 f4 92 bd
       0.001673852 -0.023774607 0.00020778834 -0.07175446

weight f4 [64, 128]
000000 c7 98 07 bd ec 07 8f bb 26 4d d7 bd 58 b9 d2 3c
       -0.033104684 -0.004364958 -0.10512762 0.025723144
000010 9b ec b3 bc 05 e1 c0 bc 66 ce a4 3c 4b 11 05 3d
       -0.021963408 -0.023544798 0.02011795 0.032487195
000020 0e f7 93 3d 3e b5 1f be e2 e2 60 bd 61 ef 0a bd
       0.07224856 -0.15596482 -0.054903872 -0.033919696
000030 ae 3a a9 3d b2 49 8f bc bb fb 31 3c b3 4b ed bd
       0.082631454 -0.017491195 0.01086324 -0.11586704
000040 44 79 d9 3d 48 4a 48 3d 09 29 2e 3d 3a 79 4b 3d
       0.10618833 0.048898965 0.042519603 0.049676158
000050 e7 cb a3 bc db 1e fe 3c 7b 39 23 3d 3c fd 86 bd
       -0.01999469 0.031020572 0.03984974 -0.065912694
000060 23 f3 50 bd 3d 80 04 bd af 42 71 bd 2a ca 4b bb
       -0.051013123 -0.03234886 -0.058901485 -0.003109584
000070 cb 17 4d 3b 7e bb 15 bc bc 13 50 3c 2c ca be bc
       0.00312947 -0.00913894 0.012700018 -0.023289762
000080 83 84 70 bd 06 9d 66 3c 7b 8a a8 3b bb 74 ad 3d
       -0.058720123 0.014075523 0.0051434613 0.0846953
000090 12 bc 21 3d cc fd 2e 3c 4d 54 9b bc ae b6 cb bc
       0.039486 0.010680627 -0.018961096 -0.024867382
0000a0 9c 55 54 bc 3e 65 8f bd e9 11 fe bc bd c4 9d 3c
       -0.012959864 -0.07001732 -0.0310144 0.019258851
0000b0 31 7d 6b bd 4e 35 43 bc ed 49 02 be 70 46 c9 3d
       -0.05749244 -0.011914564 -0.12723513 0.09827888
0000c0 f1 14 4b bd e9 0b 15 3d 39 01 f3 3c 4a d7 4d bd
       -0.04958052 0.03638831 0.029663669 -0.050254144
0000d0 de 2c 78 bd dc 0f e8 3c 1e 99 1c bd 33 c2 16 3c
       -0.060589664 0.028327875 -0.03823196 0.009201574
0000e0 80 0f 8a 3d 14 07 e2 3d db 32 02 be 47 19 2a bd
       0.06741238 0.11036506 -0.12714712 -0.041528013
0000f0 36 7d 93 3c a0 d3 44 3c a3 18 cc 3c 5a 68 c2 3d
       0.018004041 0.012013346 0.024914091 0.0949256
000100 04 2b f7 3c 43 a1 fe 3c 98 11 5b bd 00 d8 66 3d
       0.030171879 0.031082755 -0.053483576 0.056358337
000110 3c 0a 84 3d 96 93 ae 3d 67 43 d3 bd e5 fa b9 bd
       0.064472646 0.085242435 -0.1031559 -0.090810575
000120 41 1d e2 3a df ad 1d 3d 03 06 c3 bc 48 f1 0c 3d
       0.001725115 0.038495895 -0.023806578 0.03440979
000130 55 16 74 bd cb ce cd bd f7 53 e2 3d c9 3c bd ba
       -0.05959161 -0.10049208 0.11051171 -0.0014437671
000140 1a 7b be bc 30 b4 80 bc 25 c0 4d 3d 7d 13 1d 3d
       -0.023252059 -0.01571092 0.05023207 0.038348664
000150 db 70 af bd 6c de 7e 3d 8e 8b cd 3b d2 5e 23 be
       -0.08566447 0.062223837 0.0062727397 -0.1595414
000160 09 12 32 bb 12 da 15 3d 11 ef 90 3d 56 cb 7d ba
       -0.0027171394 0.03658492 0.07076848 -0.00096814835
000170 86 7c 8e 3c 29 17 27 bc b7 3e ad bd b3 98 b7 3d
       0.017393362 -0.010198393 -0.084592275 0.08964672
000180 7b 79 e8 bd c7 0a 04 3d 8d cc b7 3d 7e 4c 84 3d
       -0.113512956 0.03223684 0.08974562 0.06459902
000190 a6 27 5a 3c 12 35 86 bc ab a5 1e bd 88 ff a5 bd
       0.013315117 -0.016382728 -0.038732212 -0.08105379
0001a0 18 c2 51 3d f3 35 bd 3d 6f ea 15 3e 36 cc 01 3d
       0.051210493 0.092388056 0.1464021 0.03168889
0001b0 d9 ca 21 bc 25 12 05 bd 05 1f b4 3d 27 7c 8a 3c
       -0.009875023 -0.032488007 0.08794979 0.016904904
0001c0 dc 9d 9b 3b aa 01 5c 3d 37 b2 00 be 6b 50 c4 3c
       0.004749043 0.053712524 -0.12567984 0.023964128
0001d0 38 63 ab bc c2 e6 b0 3d e4 41 81 3d 9b 8d 18 3c
       -0.020921335 0.086377636 0.06311396 0.009311105
0001e0 12 53 14 be d8 20 8b bd 73 89 00 3e 15 b7 30 bd
       -0.14484814 -0.06793374 0.12552433 -0.04314335
0001f0 1f 8b 80 3b bf ca a8 3c b2 3c 21 3d e2 8c 0b be
       0.0039228345 0.02060449 0.039364524 -0.13627961
000200 a6 81 65 3d 58 3d 4c bd fb 55 a4 bd 36 8b c9 bd
       0.056031846 -0.04986319 -0.08024212 -0.098410055
000210 db 38 37 bd 70 5f 4f 3d 23 39 af 3d c1 13 89 bc
       -0.044731956 0.050628126 0.0855582 -0.016733052
000220 6e 4d 41 bd 96 b0 98 3d 35 a3 fa 3d 84 95 d8 bd
       -0.047192983 0.07455556 0.122381605 -0.10575393
000230 e7 fa fc 3b da c7 84 bc a9 66 94 3c a3 0b 8f bd
       0.0077203396 -0.016208578 0.018115358 -0.069846414
000240 98 2f a3 bd fa 3b 8c 3a 26 9b 7e 3d 7a b0 6b 3c
       -0.07968062 0.0010699027 0.06215968 0.014385337
000250 13 d7 af bc 94 ec c9 3c 15 e2 79 3c ca d8 01 3d
       -0.02146486 0.024648942 0.015251656 0.031700887
000260 e2 56 29 3d c6 1a 2b bb 56 10 73 3d 1e 7a 41 bd
       0.041342624 -0.0026108488 0.05934175 -0.0472356
000270 61 90 ee bd fc 02 a1 3d 6a 76 ae 3b 31 01 02 bd
       -0.11648632 0.07861897 0.0053241747 -0.031739417
000280 28 1a 30 be 9f cf be bd cb 91 0d 3e 1b 64 28 3d
       -0.17197478 -0.09316944 0.13825147 0.041111093
000290 cd 92 0b 3d 46 8f bc bd 5a 29 af bd e6 5e a5 3d
       0.034075547 -0.09207015 -0.08552809 0.08074741
0002a0 02 22 e8 bd f0 2b 4b 3b 17 e9 cc bd 4e a6 96 bc
       -0.113346115 0.003100153 -0.10005396 -0.018389847
0002b0 d9 14 84 bd 22 f6 80 3d 51 ac a8 3d 9a f4 cc 3d
       -0.06449289 0.06296946 0.08235992 0.100075915
0002c0 d4 04 cf b9 89 1a d5 bd 4c d5 19 be 85 4c ab 3d
       -0.00039485714 -0.10405452 -0.15022773 0.08364204
0002d0 bf 63 b5 bc e7 dc e5 3d 4e 9e 35 3d 58 e0 83 3b
       -0.02214229 0.112237744 0.044340424 0.0040245466
0002e0 f4 6d f1 3c 07 bc 0e 3d 9f de 2b bb 74 53 f4 bc
       0.029471375 0.034847286 -0.0026225222 -0.02982495
0002f0 cf c3 de 3c 74 3f 51 bc 06 63 dc bd 67 91 cd bd
       0.027192978 -0.012771476 -0.10761075 -0.10037499
000300 b0 1a 34 bd 40 ef ef ba 93 2d 25 3d 0f 3a 55 3d
       -0.043970764 -0.0018305555 0.040326666 0.052057322
000310 8f 85 81 bd 35 4a 7f bd 84 30 91 3c 06 22 0c 3e
       -0.063243024 -0.06232663 0.01772333 0.13684854
000320 0b f0 06 3d bb 6f 9c bc 30 04 88 3d d2 27 84 bc
       0.032943767 -0.019096246 0.06641424 -0.016132269
000330 9d 3f af 3d d7 00 93 3d aa 80 7a bd eb e0 96 bb
       0.08557055 0.071778946 -0.06115786 -0.004604449
000340 fb 7b 64 bd fc 28 09 be fe 96 3e bd cb e9 61 3d
       -0.0557823 -0.1339454 -0.046530716 0.055154603
000350 97 f5 7c bd e8 db fd bc 00 a0 fc bd 90 f0 75 3d
       -0.06175765 -0.030988649 -0.12335205 0.06004387
000360 18 da 15 bd 26 a1 3a bd 3b 78 e7 3c ba f0 c5 3d
       -0.036584944 -0.04556384 0.028255573 0.096650556
000370 b8 02 20 3e 75 6a 93 3d fe 56 cd bd f9 04 c0 bc
       0.15626037 0.071980394 -0.10026358 -0.023439871
000380 00 a0 be 3d 32 a4 a6 3c 7d cb 62 ba 00 ce a4 bd
       0.09307861 0.020341966 -0.0008651538 -0.08047104
000390 0f e4 5b 3c ab de a4 3b b2 36 b0 3c 61 68 ae 3d
       0.013421073 0.005031427 0.021510456 0.085160024
0003a0 42 e6 b3 bd 25 7a 92 bd 14 f3 a8 bd 61 4a 0a be
       -0.087841526 -0.071522035 -0.082494885 -0.13504936
0003b0 d5 78 fa bc 7d fa 3d bc 94 e6 4f 3c c4 49 52 bd
       -0.030575195 -0.011595366 0.012689251 -0.05133988
0003c0 5e 81 af bd a8 92 95 3d 35 14 d7 3d 2b 5a aa bd
       -0.08569597 0.07303363 0.10501901 -0.083179794
0003d0 70 1a 95 bc 3b f5 9e bd 0b 76 82 bd 9c a0 59 bd
       -0.018201083 -0.07761618 -0.06370171 -0.053131685
0003e0 f4 1d 6b 3d b4 ad d6 bd 6d 54 a9 bd 40 b3 44 bd
       0.057401612 -0.1048235 -0.08268056 -0.04802251
0003f0 6c c9 26 3c 32 fc c0 3d ed 40 f5 3c a5 93 dd bd
       0.010179859 0.094231024 0.029938186 -0.108191766

bias f4 [64]
000000 7d 9d 4c bd fc 12 ae 3d 97 50 b8 3d 86 a3 99 3d
       -0.04995488 0.08499715 0.08999746 0.07501893
000010 be 1a 99 3c c2 77 ea bb 3a c8 5c bd 90 2e aa bc
       0.01868951 -0.0071553895 -0.05390189 -0.020774156
000020 09 af ae bd 78 f5 b4 bc 58 a4 87 bd 63 71 39 bc
       -0.08529479 -0.022089705 -0.06623143 -0.011318537
000030 52 b0 4c 3d 10 92 99 bb 63 cc a6 bb 1e 59 1a 3c
       0.04997284 -0.0046866015 -0.0050902828 0.009420661
000040 e8 bf a9 3d eb 9f 80 3d c1 17 e5 3d 21 53 ab bd
       0.08288556 0.06280502 0.11186171 -0.08365465
000050 39 2d 0c bd d7 0b 13 bc 46 24 8f bc c7 26 6e bd
       -0.034222815 -0.008974991 -0.017473351 -0.05814245
000060 17 e3 75 3d 7d 76 1a bc 70 4b 0e bd ed 69 01 3e
       0.060031023 -0.009427664 -0.03473991 0.12638064
000070 b8 40 97 bd df a8 eb bb 59 83 8d 3d 03 46 92 bd
       -0.07385391 -0.007191762 0.06909818 -0.0714226
000080 a5 3f c5 bd 77 4b 93 bd d8 8f a0 bd c5 d4 bc bb
       -0.0963128 -0.07192128 -0.07839936 -0.005762669
000090 32 67 db bd 9f ec 90 3c 1a 51 10 be 81 0b 85 3d
       -0.10713042 0.017690955 -0.14093438 0.06496335
0000a0 c7 93 95 bd 82 1d ba 3d d4 02 02 bc 7c 16 92 bd
       -0.07303577 0.090876594 -0.007935245 -0.07133195
0000b0 12 ff b0 ba c0 62 c4 3d be 95 b3 3d fc e7 04 ba
       -0.0013503751 0.095891476 0.087687954 -0.0005069969
0000c0 c6 48 67 bd 41 9b 14 3c 3f f0 7f bd 0c 04 8c 3d
       -0.056465887 0.009070219 -0.062484976 0.068367094
0000d0 53 57 4e bd 61 6e 56 bd c0 77 82 bb 90 62 75 3b
       -0.050376248 -0.05235136 -0.0039815605 0.003744278
0000e0 f6 aa 20 bc 4f 45 80 bd db 0b 7e bd a8 43 b5 3b
       -0.009806385 -0.062632196 -0.062023025 0.005531747
0000f0 50 41 6c bd ea e2 88 bd eb 64 2b bb 25 15 40 3c
       -0.057679474 -0.066839054 -0.002615268 0.011723791

weight f4 [1, 64]
000000 85 ab 30 bd 52 f6 9b 3d 6e 5f e5 3d 21 76 c1 3d
       -0.043132324 0.07615341 0.111998424 0.094463594
000010 dd a4 ea bd 54 07 ae bd 12 9f 79 3d 55 ff fd bd
       -0.114572264 -0.084974915 0.060942717 -0.12402216
000020 93 62 99 bd 3c be ae bd 3f 94 cb bd 27 e1 60 bd
       -0.07489505 -0.08532378 -0.09940385 -0.054902222
000030 20 a6 23 3e 8f 28 a5 3d 1b e9 1a be c3 ab cd bd
       0.1598134 0.080643766 -0.15127985 -0.100425266
000040 a8 e2 00 3d 46 29 ea bd 14 fd 16 3e d7 6f 09 bc
       0.031466156 -0.114336535 0.14744979 -0.008388481
000050 31 95 34 be b6 be ee 3d ac 37 f6 3d 8b 73 f1 3b
       -0.17635037 0.11657469 0.12022337 0.00736851
000060 be 6a 25 bd 38 ca 68 bd 90 a1 dc bd 5e 79 a2 3d
       -0.040385 -0.056833476 -0.10773003 0.07933305
000070 7a ce 05 3d 10 98 71 3c 01 d8 1d 3e 0d a5 19 bd
       0.032667615 0.014745727 0.1541443 -0.03751092
000080 73 9f ab 3c ca 5d dc bd 5a 27 0a bc bb 0e 5b 3c
       0.020950055 -0.10760076 -0.008432234 0.013370211
000090 1a 3c da bc 98 a1 6e bb 2d c3 d5 bc 88 3d 3c be
       -0.026639987 -0.0036412235 -0.026094044 -0.18382847
0000a0 2b 03 00 be a6 90 23 3b d7 5e e5 3d dd 50 a0 3d
       -0.12501208 0.0024958043 0.1119973 0.078279234
0000b0 bf 23 cd 3c 06 d6 4e 3d ae 40 1a 3e 8f cd 17 3b
       0.02504146 0.050497077 0.15063736 0.0023163294
0000c0 31 95 d4 bd da 0c 1c bc 92 22 b4 bd 23 0d 89 bd
       -0.103800185 -0.009524548 -0.08795656 -0.06691959
0000d0 99 ec a7 3c bd 0a a0 bd 43 cf 6a 3c 82 16 62 bd
       0.02049856 -0.07814548 0.014331642 -0.055197246
0000e0 80 98 76 3d 20 5c b9 bd fe 0b a5 3d d6 64 99 bc
       0.06020403 -0.090507746 0.08058928 -0.01872484
0000f0 ac 7b f1 bb 5e 00 27 be 6b eb 18 3c 4e 10 cc 3d
       -0.007369479 -0.16308734 0.009333472 0.09964047
