models/model.pth (torch, 956479 bytes, 7 tensors)

weight f4 [256, 768]
0.00753866 0.004322751 -0.030971233 -0.020737022 -0.01757486 0.020072564 -0.00075968757 0.026942117
-0.011970555 0.018241294 0.008235727 -0.0120018 -0.020044401 -0.02057882 -0.030343099 -0.0029196905
0.02553658 0.019269137 -0.019794839 -0.0055403826 0.019595973 0.04217835 -0.019294841 0.03000618
0.0024295785 0.028547963 0.017136771 -0.03873168 -0.0063491133 0.0020529786 -0.010473372 0.024463968
-0.038690805 -0.020254197 -0.04375027 -0.029100887 -0.021372966 0.04072242 0.0053942916 0.020896496
0.00046448116 0.0083389 -0.010181865 -0.027261753 -0.07294152 -0.02312969 0.02406642 0.04768924
0.006769605 -0.0045973524 0.031433705 0.023137862 0.008975675 -0.0030920466 0.024253814 -0.014605082
0.021871723 -0.041906193 -0.03118612 -0.012488062 0.015397584 -0.009079687 0.0036557338 0.0120899975
0.011724828 0.020911446 0.007889729 0.005294632 0.024841953 0.031649653 -0.01672336 -0.016339444
0.011285863 0.014436726 -0.007998186 0.03736815 0.0019183789 -0.034488197 0.030034581 -0.013347309
-0.041182637 0.027751736 0.014692984 -0.035931516 -0.006125005 -0.024324024 -0.0016607123 0.005406267
0.00551228 -0.027183384 0.016131055 0.014160012 0.034680996 0.017208094 -0.035802756 -0.01779549
0.043136932 0.007970631 -0.021840509 -0.018965155 0.026668329 0.029753326 -0.03099692 -0.011355035
-0.047767565 0.015499422 -0.009195595 -0.027997337 -0.001294421 0.005484734 -0.0024323654 0.004773989
-0.012577274 0.052625 0.024081757 -0.028219901 -0.011356288 -0.021908192 -0.0041277427 0.0025206215
0.00868905 -0.0036740857 -0.0054979105 0.015941367 -0.02885395 -0.024061155 -0.019671436 0.0065673436
-0.017097207 -0.03068101 -0.015254363 0.0051588146 -0.042861577 -0.0013698161 0.038793173 -0.028284816
0.0050759674 -0.010681749 0.0017114592 0.022304256 0.049619704 0.042544466 0.03537179 0.002628052
-0.03631027 -0.0065241912 0.011300658 -0.008615562 -0.002531163 -0.032469984 -0.044974025 -0.055789545
0.020046163 0.014962776 0.028017301 -0.049280427 0.018774742 -0.028269505 -0.0003247191 -0.00413107
-0.037909847 -0.015166994 -0.033974696 -0.02209928 -0.0041845436 -0.025266483 -0.018964214 -0.014437694
-0.052009683 0.0431248 0.03987811 0.011995056 0.024323717 0.018468075 -0.031627882 0.025348274
0.0036422007 -0.031735536 0.0033756432 -0.022986034 0.00790529 -0.004231285 0.008557639 -0.0016264768
0.0127009945 0.029974153 -0.010510548 0.009366228 -0.04072408 0.012603168 0.06714054 0.029731825
-0.034969036 0.009342299 -0.021445343 -0.057307795 -0.0071667656 0.009452894 -0.037863366 0.004078176
0.007633091 0.0135963885 -0.026596757 -0.015789466 -0.013882214 0.02370909 -0.0150310965 0.057638507
0.0350803 0.002494087 0.008887963 -0.009546535 -0.0010102006 -0.0086473385 -0.013463019 0.007653982
-0.023643548 0.01089373 0.019897087 -0.03061427 0.0027058402 0.029047837 -0.0018862173 -0.0034767794
-0.014334174 0.01993738 -0.041570347 -0.040486798 -0.009035615 -0.0031694726 -0.0044062375 0.058949653
0.027486473 0.023239799 0.034524847 -0.014812612 0.03437623 -0.042277288 -0.04862687 0.02138131
0.0027457923 0.031925112 -0.0106385 0.021424374 0.0059513254 -0.03355378 0.01924763 -0.036115225
0.007180459 -0.017945409 -0.04287425 0.01962492 0.01387562 -0.011311813 -0.01691896 -0.023064367
00000000: dd06 f73b dda5 8d3b 62b7 fdbc b0e0 a9bc
00000010: 27f9 8fbc 386f a43c c525 47ba b7b5 dc3c
00000020: 2620 44bc c46e 953c 25ef 063c 33a3 44bc
00000030: 2834 a4bc ea94 a8bc 1792 f8bc 4758 3fbb
00000040: 1732 d13c 4fda 9d3c c928 a2bc 198c b5bb
00000050: bc87 a03c 35c3 2c3d 3710 9ebc 85cf f53c
00000060: 9039 1f3b 6bdd e93c 6a62 8c3c 1ca5 1ebd
00000070: 390c d0bb 448b 063b 8298 2bbc a968 c83c
00000080: 407a 1ebd 21ec a5bc 7c33 33bd fc64 eebc
00000090: 5c16 afbc 8dcc 263d 99c2 b03b 212f ab3c
000000a0: 9b85 f339 e29f 083c d6d1 26bc 0a54 dfbc
000000b0: 5d62 95bd 7a7a bdbc f126 c53c cb55 433d
000000c0: 90d3 dd3b 63a5 96bb a1c0 003d 9d8b bd3c
000000d0: b60e 133c efa3 4abb efaf c63c 274a 6fbc
000000e0: 542c b33c d4a5 2bbd 097a ffbc ba9a 4cbc
000000f0: 2646 7c3c f8c2 14bc 0995 6f3b 2015 463c
00000100: 7e19 403c 7b4e ab3c ec43 013c 987e ad3b
00000110: 5a81 cb3c 11a3 013d 6eff 88bc 4cda 85bc
00000120: 57e8 383c 0588 6c3c d30a 03bc 580f 193d
00000130: 1d72 fb3a 7f43 0dbd 150b f63c acae 5abc
00000140: 20af 28bd 9c57 e33c d7ba 703c ed2c 13bd
00000150: 44b4 c8bb 2d43 c7bc 42ac d9ba 0e27 b13b
00000160: 5ba0 b43b b0af debc 4625 843c 65ff 673c
00000170: a90d 0e3d fdf7 8c3c e9a5 12bd d9c7 91bc
00000180: 5ab0 303d 4097 023c deea b2bc d05c 9bbc
00000190: 8a77 da3c 3fbd f33c 41ed fdbc 780a 3abc
000001a0: eca7 43bd 4af1 7d3c 1fa9 16bc ac5a e5bc
000001b0: 90a9 a9ba 49b9 b33b 5268 1fbb 1f6f 9c3b
000001c0: e910 4ebc 508d 573d 1b47 c53c 6c2d e7bc
000001d0: b90f 3abc cf78 b3bc 0442 87bb 0331 253b
000001e0: 845c 0e3c eec8 70bb d127 b4bb 7897 823c
000001f0: 1e5f ecbc e61b c5bc fe25 a1bc df32 d73b
00000200: 710f 8cbc be56 fbbc 70ed 79bc 460b a93b
00000210: 9f8f 2fbd 678b b3ba 97e5 1e3d 8fb5 e7bc
00000220: 4d54 a63b 8102 2fbc 0b53 e03a 6ab7 b63c
00000230: 083e 4b3d 1b43 2e3d 03e2 103d 653b 2c3b
00000240: 14ba 14bd e2c8 d5bb 6526 393c 4928 0dbc
00000250: dee1 25bb 3fff 04bd af36 38bd 9483 64bd
00000260: da37 a43c 6e26 753c 8a84 e53c 46da 49bd
00000270: 7dcd 993c 7395 e7bc 0f3f aab9 ed5d 87bb
00000280: 5b47 1bbd fc7e 78bc 0d29 0bbd 8d09 b5bc
00000290: 7f1e 89bb a8fb cebc d75a 9bbc 148c 6cbc
000002a0: 1b08 55bd a1a3 303d 3b57 233d e986 443c
000002b0: 8842 c73c 5c4a 973c 3d8c 01bd 2fa7 cf3c
000002c0: fdb1 6e3b 1ffd 01bd e539 5d3b 354d bcbc
000002d0: 3185 013c 97a6 8abb 5735 0c3c 812f d5ba
000002e0: d517 503c 5b8c f53c 6f34 2cbc cf74 193c
000002f0: 4bce 26bd 857d 4e3c fb80 893d 2890 f33c
00000300: b13b 0fbd 7110 193c 25ae afbc 94bb 6abd
00000310: 30d7 eabb 50e0 1a3c 9e16 1bbd 38a2 853b
00000320: 021f fa3b 63c3 5e3c 71e1 d9bc e958 81bc
00000330: 3a72 63bc 9139 c23c fd44 76bc 5b16 6c3d
00000340: 5cb0 0f3d d673 233b d29e 113c 1269 1cbc
00000350: b568 84ba 91ad 0dbc ff93 5cbc 41ce fa3b
00000360: 1db0 c1bc 9e7b 323c 37ff a23c c7ca fabc
00000370: 7754 313b bbf5 ed3c f33a f7ba aeda 63bb
00000380: e2d9 6abc b753 a33c ab45 2abd 7cd5 25bd
00000390: 1e0a 14bc edb6 4fbb 3362 90bb 3175 713d
000003a0: 502b e13c 6461 be3c ed69 0d3d 99b0 72bc
000003b0: 17ce 0c3d f32a 2dbd f82c 47bd db27 af3c
000003c0: c0f2 333b e8c3 023d 1a4d 2ebc 2b82 af3c
000003d0: 5603 c33b b06f 09bd 35ad 9d3c 8fed 13bd
000003e0: 0e4a eb3b 4002 93bc e99c 2fbd 71c4 a03c
000003f0: 9256 633c 2f55 39bc a199 8abc 7cf1 bcbc

bias f4 [256]
-0.0007899839 -0.03010869 -0.00324835 0.033156253 -0.028413258 -0.010493679 0.016772186 0.001057217
0.015237978 0.027636964 -0.033799794 -0.030258175 0.030161135 -0.004848527 -0.015762376 -0.024567325
-0.009732719 -0.03217635 -0.015289761 0.0062327906 -0.003389539 0.010243491 -0.01032646 -0.016773397
0.008013582 -0.03798049 -0.013617297 -0.0069644153 0.012197811 0.020571083 0.01834185 -0.0006909665
-0.008374244 0.025283514 0.014719926 -0.006196812 -0.024435123 0.0012006238 -0.0121724345 -0.0064397175
0.012391739 -0.03777195 -0.019123413 -0.029037008 0.009690208 -0.027343506 0.004834681 -0.016278159
-0.021084001 0.033345416 -0.025237944 -0.0281181 0.013887849 0.037986293 -0.032326553 -0.018027002
-0.031313784 -0.013255393 0.0067445445 0.0073627895 0.0024398123 -0.0037561362 0.029510187 0.03290299
-0.027263995 -0.016516028 0.024336586 -0.02358156 0.0013515336 0.027617864 0.012906889 -0.033119693
0.03226082 0.0009348963 0.024020202 0.011486391 0.028234426 0.016103232 -0.018022742 -0.02406116
0.0065636057 0.005597526 -0.020021403 0.023964956 0.041267697 -0.023021711 0.023413133 -0.008725874
0.018054085 0.032946557 0.0043905545 0.028029833 0.007816531 0.036061514 0.02696812 8.163974e-05
0.021189246 -0.021793056 0.033169005 0.03192305 -0.031710774 -0.004913233 -0.013177854 -0.001218088
-0.011109645 0.011087402 0.004874859 -0.02476942 -0.032465477 -0.026800586 0.023081603 0.017840745
0.0048193857 0.010487829 -0.028461464 -0.03250791 -0.0026589725 0.0071914727 0.00434113 -0.017697645
-0.018273493 0.014960087 0.01712377 0.019716915 -0.013859096 0.020305162 0.026084846 0.02058338
1.4025194e-05 -0.019525772 -0.03148408 0.016494878 -0.009263672 -0.036649685 0.0068177935 0.0027856715
0.015443785 0.008115666 0.01678344 0.025736183 -0.014240136 -0.02578086 -0.016138569 -0.026420737
0.0068621146 -0.021944001 0.03435419 0.030597044 -0.025087936 0.02752627 0.005282178 -0.022548657
-0.027076598 -0.035461925 -0.037433185 0.010592214 -0.014082787 -0.025084823 0.0086228 -0.007864028
-0.012395005 0.024789173 -0.023755148 0.005380709 -0.0059071546 0.04628078 -0.002247657 -0.02756867
0.018633658 -0.024770398 0.007930134 0.0021138405 -0.0032124599 -0.02677852 -0.019807307 0.018036954
0.009319455 0.026185283 -0.016465994 0.024872456 0.024995131 0.003299599 -0.010517644 -0.03284803
0.014094764 0.0032280511 -0.003552383 -0.003879051 -0.015474447 0.022008926 0.014584495 0.015703667
0.015436228 0.01735492 0.013472871 0.009185318 -0.033727624 -0.0016034967 0.042681985 -0.03375406
-0.04350864 -0.00076399045 0.012154992 0.0032456564 0.004371811 0.0325425 0.0029810558 0.021553567
-0.001061913 -0.023064308 0.02037139 -0.04144679 -0.014572719 -0.036750346 0.00087704667 -0.03415909
-0.027024496 0.02087822 -0.014798279 -0.024823768 -0.012712031 -0.006787872 0.017267046 -0.0047709947
-0.0017654641 0.006790683 -0.03260835 -0.030271165 0.0021519156 -0.0072425464 -0.0049832547 -0.015596345
0.0047837547 0.03371656 -0.00024697953 0.019594064 0.008957589 0.013970985 -0.008627256 0.042907815
-0.02136438 -0.004702615 -0.0075414805 0.043860268 -0.01891991 0.025921049 0.0024626963 -0.038812514
0.018869147 0.006067479 0.0040370687 0.010133289 -0.020588739 0.019957509 0.013899349 0.0069692903
00000000: ec16 4fba 80a6 f6bc 45e2 54bb dace 073d
00000010: ecc2 e8bc aeed 2bbc d365 893c 5192 8a3a
00000020: b6a8 793c ea66 e23c a771 0abd fedf f7bc
00000030: 7c14 f73c 64e0 9ebb 1920 81bc 6a41 c9bc
00000040: fb75 1fbc 59cb 03bd e881 7abc 703c cc3b
00000050: 0723 5ebb 51d4 273c 5030 29bc 5d68 89bc
00000060: 664b 033c 6e91 1bbd 151b 5fbc c035 e4bb
00000070: 54d9 473c b084 a83c a641 963c fa21 35ba
00000080: 2034 09bc 5f1f cf3c d82b 713c a00e cbbb
00000090: 2b2c c8bc 405e 9d3a e46e 47bc 4404 d3bb
000000a0: b806 4b3c c3b6 1abd b4a8 9cbc 05df edbc
000000b0: aec3 1e3c 7dff dfbc 3e6c 9e3b c659 85bc
000000c0: 5bb8 acbc 3495 083d cebf cebc ee57 e6bc
000000d0: dc89 633c 8497 1b3d d968 04bd 5dad 93bc
000000e0: e242 00bd 262d 59bc 5701 dd3b 8e43 f13b
000000f0: 42e5 1f3b 8229 76bb 59bf f13c 49c5 063d
00000100: be58 dfbc 9f4c 87bc 855d c73c 1e2e c1bc
00000110: f125 b13a dc3e e23c 6b77 533c 84a8 07bd
00000120: ec23 043d d413 753a 04c6 c43c 6a31 3c3c
00000130: e24b e73c edea 833c 6ea4 93bc e91b c5bc
00000140: 8413 d73b 746b b73b ed03 a4bc 2852 c43c
00000150: 5108 293d 0798 bcbc e6cc bf3c f8f6 0ebc
00000160: 29e6 933c f8f2 063d a4de 8f3b d29e e53c
00000170: e810 003c 3db5 133d 3fec dc3c 0036 ab38
00000180: 1295 ad3c 5a87 b2bc 39dc 073d bec1 023d
00000190: 28e3 01bd 30ff a0bb ede7 57bc 40a8 9fba
000001a0: 3a05 36bc efa7 353c 48bd 9f3b 3de9 cabc
000001b0: 85fa 04bd e78c dbbc a115 bd3c c126 923c
000001c0: f0eb 9d3b 25d5 2b3c 0428 e9bc 0427 05bd
000001d0: 2842 2ebb 72a6 eb3b 0a40 8e3b a7fa 90bc
000001e0: 4bb2 95bc 271b 753c 2647 8c3c 5e85 a13c
000001f0: 4311 63bc 0357 a63c e3af d53c 7a9e a83c
00000200: c04d 6b37 83f4 9fbc 73f5 00bd 4420 873c
00000210: a8c6 17bc fb1d 16bd cc67 df3b d08f 363b
00000220: ee07 7d3c 92f7 043c 6d7d 893c b0d4 d23c
00000230: 764f 69bc 6232 d3bc 0835 84bc 4d70 d8bc
00000240: 97db e03b e8c3 b3bc fbb6 0c3d a7a6 fa3c
00000250: 3785 cdbc c67e e13c 1f16 ad3b f6b7 b8bc
00000260: becf ddbc 8640 11bd 8a53 19bd f78a 2d3c
00000270: 7dbb 66bc b07e cdbc a546 0d3c 20d8 00bc
00000280: 6b14 4bbc aa12 cb3c 289a c2bc a950 b03b
00000290: ce90 c1bb ea90 3d3d 6d4d 13bb b1d7 e1bc
000002a0: 9da5 983c 4aeb cabc 65ed 013c 5c88 0a3b
000002b0: 2288 52bb a05e dbbc ef42 a2bc 3cc2 933c
000002c0: a1b0 183c 8582 d63c b1e3 86bc 52c1 cb3c
000002d0: 97c2 cc3c 163e 583b 3252 2cbc a88b 06bd
000002e0: baed 663c b68d 533b 19cf 68bb ad37 7ebb
000002f0: 8988 7dbc 104c b43c cef3 6e3c faa4 803c
00000300: 3ce8 7c3c e82b 8e3c 51bd 5c3c 047e 163c
00000310: fa25 0abd 6c2c d2ba 4ed3 2e3d b241 0abd
00000320: 1e36 32bd 8846 48ba bb25 473c 14b5 543b
00000330: 6941 8f3b 494b 053d d15d 433b 1b91 b03c
00000340: e32f 8bba 5cf1 bcbc e7e1 a63c 1cc4 29bd
00000350: 6ac2 6ebc 8887 16bd 9be9 653a 67ea 0bbd
00000360: 7a62 ddbc cd08 ab3c 7b74 72bc 375b cbbc
00000370: 1f46 50bc cc6c debb 9f73 8d3c 0156 9cbb
00000380: 2567 e7ba 6184 de3b 5590 05bd 3cfb f7bc
00000390: 2707 0d3b e252 edbb 924a a3bb d087 7fbc
000003a0: 0bc1 9c3b 601a 0a3d 087d 81b9 bb83 a03c
000003b0: dac2 123c 8fe6 643c 5659 0dbc 1bc0 2f3d
000003c0: 5a04 afbc 6518 9abb 861e f7bb d3a6 333d
000003d0: edfd 9abc 6158 d43c 3065 213b dff9 1ebd
000003e0: 7893 9a3c b4d1 c63b 6349 843b 1806 263c
000003f0: b7a9 a8bc ee7d a33c 18ba 633c a55e e43b

weight f4 [128, 256]
0.04504743 0.01642491 0.050251894 -0.013055122 0.035899185 0.01618328 0.083503 -0.0036879731
-0.06418635 0.016570982 0.04822678 0.09620429 0.054737665 0.012191693 0.0072811362 -0.010333911
-0.033408843 -0.06906609 0.0949456 -0.0064696698 -0.08630883 0.02655467 0.0452967 -0.023866298
-0.053901672 0.016877383 0.027878476 -0.030177735 -0.021522447 0.010177545 -0.052578703 0.02331426
-0.06646712 0.017199786 0.0021173942 -0.02964107 0.058211077 -0.028279252 0.07080078 -0.0490741
0.029501237 0.022924121 -0.06374172 -0.02947551 -0.028106526 0.0042053442 -0.04896455 0.05388374
0.038821366 0.0073673534 0.0070386906 0.01491829 0.019587187 0.02320488 -0.061183244 0.055852756
0.039010048 0.049521483 -0.08099239 -0.016233616 -0.02888358 0.058256075 0.008659098 -0.018229613
0.046056397 0.04251888 0.018985301 -0.05045692 -0.010042109 0.058954656 0.04027664 0.0798374
-0.04844453 -0.087223925 -0.10128518 0.024938252 0.14782865 0.01611041 0.0729074 -0.0005755201
0.030374963 -0.022944745 -0.12807438 0.021893205 0.058001876 0.046391822 -0.007849603 -0.024292752
-0.040824022 -0.015215196 -0.018086202 0.039659787 0.035802443 -0.0025256763 0.006192894 0.024705663
0.049752966 0.0040108785 0.122694366 0.051945128 -0.037589476 -0.021338776 -0.014371954 -0.021138646
0.11867595 0.045502853 -0.0066415593 -0.030003298 -0.07227033 0.04898747 -0.008473266 -0.02546171
0.032109812 -0.057442218 0.03856004 0.041210767 0.025213517 -0.05990843 -0.011532724 0.095697515
-0.057508606 0.032937333 0.02775098 0.030335901 -0.015860567 0.008757463 0.013820681 0.035906628
-0.003758824 0.01596802 0.026108362 0.012479393 0.008193742 0.08838731 -0.034935497 0.01258681
0.035069313 -0.017938713 0.03069055 -0.00872796 -0.017839938 -0.016047113 -0.013403617 -0.00041989982
0.022662323 0.05251371 -0.0071246168 -0.008826016 0.012225404 -0.13910732 -0.04325799 0.023459703
-0.035725776 -0.0053156465 -0.027630566 0.037394032 0.0433169 -0.0700597 -0.099531375 -0.055092763
-0.03123346 -0.038674667 0.026940748 0.026067777 0.024087833 -0.005565279 0.0078464085 -0.0012875038
0.022055913 0.07545056 -0.031554595 -0.04375675 -0.00520847 -0.10819361 0.029728219 0.046744347
0.06790993 -0.028346539 0.017285375 0.03621176 0.041542795 0.055140562 -0.04002212 -0.07904803
0.03458047 -0.055586644 0.085279986 0.0493945 0.03153068 0.032707214 0.025103066 0.04720263
-0.0533946 -0.03708422 0.010593447 0.0024118498 -0.044781446 0.12505266 0.03431439 0.057475522
0.05645466 0.12700689 -0.045666654 -0.002148691 -0.041486815 0.03692178 -0.009690682 0.09884525
0.024339363 -0.062360145 0.08502686 -0.010464087 -0.027733624 0.050268203 -0.02646126 -0.046189874
0.062371884 -0.03394799 -0.01688575 0.11340327 -0.009787725 -0.050126255 -0.021878256 -0.010160396
-0.0027300057 -0.012528995 -0.014542998 -0.030273058 0.058338616 -0.04364855 0.04029557 -0.09990835
-0.005417423 -0.0055446364 -0.03799365 0.03497602 -0.05407983 -0.0334992 0.04093679 0.034075208
-0.015446834 0.02286899 0.011324957 0.020396983 -0.14098957 0.05520854 -0.007978924 -0.049266376
0.07608371 -0.06579429 0.039910987 0.05079377 0.0060352795 0.046902347 -0.037414603 -0.051344898
00000000: a783 383d 888d 863c eed4 4d3d 27e5 55bc
00000010: 060b 133d cc92 843c 9f03 ab3d ecb1 71bb
00000020: 2274 83bd debf 873c 7289 453d c106 c53d
00000030: 9a34 603d abbf 473c 9996 ee3b 904f 29bc
00000040: b6d7 08bd 8672 8dbd d772 c23d 86ff d3bb
00000050: afc2 b0bd 2e89 d93c 0889 393d 4183 c3bc
00000060: 00c8 5cbd 7042 8a3c 6761 e43c 4c37 f7bc
00000070: d84f b0bc b8bf 263c c45c 57bd 8cfd be3c
00000080: ea1f 88bd 91e6 8c3c fbc3 0a3b d4d1 f2bc
00000090: bd6e 6e3d e4a9 e7bc 0000 913d ec01 49bd
000000a0: 94ac f13c 5ecb bb3c 058b 82bd a076 f1bc
000000b0: a83f e6bc fccc 893b 0d8f 48bd 32b5 5c3d
000000c0: 2703 1f3d d769 f13b d1a4 e63b d86b 743c
000000d0: 4f75 a03c 2918 be3c 489b 7abd dcc5 643d
000000e0: 00c9 1f3d 0ad7 4a3d 57df a5bd 5cfc 84bc
000000f0: 429d ecbc ec9d 6e3d e4de 0d3c 4556 95bc
00000100: a2a5 3c3d 4728 2e3d 1087 9b3c eaab 4ebd
00000110: a887 24bc 707a 713d 1ef9 243d ca81 a33d
00000120: c66d 46bd 75a2 b2bd 9b6e cfbd 4e4b cc3c
00000130: 6560 173e fbf9 833c 7a50 953d 80de 16ba
00000140: ead4 f83c 9ef6 bbbc ee25 03be 6159 b33c
00000150: 6093 6d3d 5a05 3e3d 9f9b 00bc 9801 c7bc
00000160: 1737 27bd 2849 79bc 8429 94bc 4d72 223d
00000170: 95a5 123d d185 25bb c3ed ca3b 8863 ca3c
00000180: c4c9 4b3d b06d 833b 2f47 fb3d 6ac4 543d
00000190: 6cf7 19bd a8ce aebc 5878 6bbc f42a adbc
000001a0: 600c f33d 3361 3a3d 70a1 d9bb 7ac9 f5bc
000001b0: 7702 94bd 16a7 483d 74d3 0abc 1395 d0bc
000001c0: 9485 033d 8848 6bbd 22f1 1d3d 9fcc 283d
000001d0: 948c ce3c 8b62 75bd c0f3 3cbc 0ffd c33d
000001e0: 258e 6bbd 4ce9 063d 0656 e33c ff82 f83c
000001f0: 05ee 81bc 767b 0f3c 2370 623c d412 133d
00000200: 9a56 76bb 5dcf 823c 34e1 d53c 5e76 4c3c
00000210: 0b3f 063c 6804 b53d 8618 0fbd e838 4e3c
00000220: d7a4 0f3d 35f4 92bc c06a fb3c b8ff 0ebc
00000230: 1025 92bc 3c75 83bc d89a 5bbc 0026 dcb9
00000240: 56a6 b93c 9e18 573d 9e75 e9bb ff9a 10bc
00000250: 104d 483c 2672 0ebe 4a2f 31bd 902e c03c
00000260: 3155 12bd e02e aebb 7f59 e2bc 7c2a 193d
00000270: 106d 313d 767b 8fbd 1bd7 cbbd f3a8 61bd
00000280: 50dd ffbc 5469 1ebd d8b2 dc3c 178c d53c
00000290: d953 c53c f25c b6bb 398e 003c 75c1 a8ba
000002a0: 9aae b43c d385 9a3d 643f 01bd 473a 33bd
000002b0: d0ab aabb 9d94 ddbd 9888 f33c 0077 3f3d
000002c0: 5d14 8b3d 0037 e8bc 0f9a 8d3c c852 143d
000002d0: c728 2a3d 12db 613d 3cee 23bd efe3 a1bd
000002e0: 40a4 0d3d d2ae 63bd 46a7 ae3d e351 4a3d
000002f0: 5026 013d 00f8 053d f2a4 cd3c 8c57 413d
00000300: 4cb4 5abd a0e5 17bd 2390 2d3c 2010 1e3b
00000310: c06c 37bd ce0d 003e 3f8d 0c3d 746b 6b3d
00000320: 003d 673d 180e 023e f50c 3bbd 0ed1 0cbb
00000330: 14ee 29bd 4b3b 173d abc5 1ebc 616f ca3d
00000340: 5863 c73c 5a6d 7fbd 9022 ae3d 9071 2bbc
00000350: a031 e3bc 08e6 4d3d 49c5 d8bc 9831 3dbd
00000360: a979 7f3d 0c0d 0bbd fc53 8abc f93f e83d
00000370: b25c 20bc 3051 4dbd 073a b3bc ca77 26bc
00000380: e5e9 32bb 6a46 4dbc c145 6ebc 34ff f7bc
00000390: 79f4 6e3d d2c8 32bd f80c 253d c09c ccbd
000003a0: a384 b1bb c8af b5bb 3b9f 1bbd 0443 0f3d
000003b0: d082 5dbd 7536 09bd 56ad 273d 7292 0b3d
000003c0: b814 7dbc c057 bb3c 508c 393c 9317 a73c
000003d0: 925f 10be 5a22 623d 08ba 02bc 8acb 49bd
000003e0: c7d1 9b3d 28bf 86bd b479 233d 210d 503d
000003f0: 98c3 c53b ad1c 403d 0e40 19bd 074f 52bd

bias f4 [128]
-0.040389087 -0.019313226 0.036527485 0.03703099 -0.0075495727 -0.0023255602 0.027987566 -0.03830975
0.06292428 -0.044440944 -0.039613362 -0.038705047 0.10002506 -0.09249309 -0.05041155 0.010949123
-0.05880583 0.05044006 -0.07639622 0.03055642 -0.06117408 0.0073095807 0.04005861 -0.009294454
-0.030285874 -0.01273803 0.009786732 -0.08057975 0.05451467 -0.055710714 0.020312743 0.04907273
-0.019522795 -0.04211636 -0.028197931 0.068551175 -0.016057886 -0.02737457 -0.031688683 0.016901774
0.057665385 0.039770402 0.07075993 0.05964719 0.04159702 0.031260744 -0.0023251763 -0.015906943
0.031703644 0.00637052 0.029900225 -0.0010604038 -0.038633186 0.040230863 -0.059744608 -0.00015532857
0.04677607 -0.03303691 -0.05908665 0.0004037946 -0.0309769 -0.053300496 0.041758306 -0.03978713
0.05393968 -0.018236741 -0.03920762 0.009896949 0.0005412529 0.05128832 0.018783864 -0.045270585
-0.022613924 0.033092566 -0.025260618 -0.026052246 -0.02510425 -0.032364197 0.060846236 -0.005374524
0.0170003 0.064949535 -0.035847023 -0.026843293 -0.04812176 0.006459432 -0.03784839 -0.029574784
-0.02814928 0.06377673 0.05348912 0.06523013 0.025817847 0.01567791 -0.062367294 0.02311361
-0.017405793 0.0042439587 -0.0046352353 -0.0729544 0.015150273 -0.04874764 0.05069546 -0.047651175
-0.046816483 0.073262505 0.026488975 -0.043172825 0.038777765 -0.022127755 0.01800896 0.04907498
0.042139348 -0.03405084 0.0051888213 0.058806602 -0.039841134 -0.01360883 0.045076873 -0.055609807
0.010920633 -0.05851337 0.045681644 0.014971977 0.025273027 0.033254378 -0.0072903284 0.030257273
00000000: 076f 25bd c536 9ebc d89d 153d cfad 173d
00000010: 6862 f7bb 6d68 18bb 2e46 e53c afea 1cbd
00000020: 72de 803d b507 36bd 9f41 22bd 2f89 1ebd
00000030: f0d9 cc3d 046d bdbd 577c 4ebd f363 333c
00000040: 62de 70bd 3d9a 4e3d 9f75 9cbd 7551 fa3c
00000050: ac91 7abd 3585 ef3b 7f14 243d c447 18bc
00000060: 151a f8bc 2cb3 50bc 8758 203c ff06 a5bd
00000070: c64a 5f3d eb30 64bd e966 a63c 7d00 493d
00000080: 45ee 9fbc 3482 2cbd 59ff e6bc 8f64 8c3d
00000090: d48b 83bc a240 e0bc fecb 01bd 9775 8a3c
000000a0: 8a32 6c3d 4ae6 223d 95ea 903d 9d50 743d
000000b0: a361 2a3d 440b 003d fc61 18bb 474f 82bc
000000c0: aedb 013d ccbf d03b 51f1 f43c 3ffd 8aba
000000d0: d53d 1ebd 1ec9 243d c3b6 74bd b2df 22b9
000000e0: 4498 3f3d b651 07bd d804 72bd 65b4 d339
000000f0: 45c3 fdbc 9f51 5abd c20a 2b3d d4f7 22bd
00000100: dbef 5c3d 3865 95bc 2b98 20bd d026 223c
00000110: dee2 0d3a b413 523d 9ee0 993c a66d 39bd
00000120: d640 b9bc 128c 073d 5bef cebc 856b d5bc
00000130: 6ea7 cdbc 5290 04bd e739 793d c61c b0bb
00000140: 3744 8b3c 4304 853d 54d4 12bd 77e6 dbbc
00000150: 531b 45bd a5a9 d33b ea06 1bbd d146 f2bc
00000160: 5299 e6bc 609d 823d 6817 5b3d 6097 853d
00000170: f37f d33c f66e 803c d974 7fbd c158 bd3c
00000180: 9896 8ebc e810 8b3b 2ce3 97bb 1e69 95bd
00000190: da38 783c 9bab 47bd 0ba6 4f3d e12d 43bd
000001a0: a4c2 3fbd a70a 963d 68ff d83c fdd5 30bd
000001b0: 6fd5 1e3d 4445 b5bc 8787 933c d902 493d
000001c0: 4f9a 2c3d e578 0bbd fd06 aa3b 31df 703d
000001d0: 7530 23bd 92f7 5ebc 87a2 383d 1cc7 63bd
000001e0: 74ec 323c b7ab 6fbd ad1c 3b3d 064d 753c
000001f0: 6109 cf3c be35 083d b5e3 eebb 1ade f73c

weight f4 [64, 128]
0.014026835 -0.015577514 -0.132334 0.08777125 0.12669633 0.08097805 -0.066508666 -0.0767666
0.040740233 -0.016755903 0.053690862 0.07696346 0.025920851 0.10609895 0.02188379 -0.019879505
0.090079926 -0.005983283 -0.06664631 0.1080291 0.02806369 0.050410084 0.065685846 0.045209758
-0.039303083 0.11986449 0.016613211 -0.0449466 0.06413478 -0.028321197 0.048757914 0.066501975
-0.02811045 -0.09000798 0.069209285 -0.29004684 0.19823097 -0.047260195 0.15427685 -0.0027634832
-0.05310073 0.032084703 0.008902703 0.22052775 0.08632178 -0.043070085 0.048996396 -0.036817078
0.02857578 0.071626075 -0.18410705 -0.097772725 -0.039594073 -0.053789616 0.03014917 -0.04551206
0.13813113 -0.045441613 0.04226289 0.087929614 -0.059617516 0.032572087 0.05671977 -0.048409875
-0.0017253475 -0.09364449 0.016213192 -0.07504174 0.13335969 -0.12124492 0.12969145 -0.06730201
-0.06422928 0.068109274 -0.0010344421 -0.05517038 0.043812208 0.0030703752 -0.055561733 0.010086641
-0.08741942 -0.03672481 -0.024944993 0.05281038 0.01773684 -0.047116403 0.07755638 -0.085776284
0.11715245 -0.02318717 0.04289654 0.095951386 0.024666715 -0.34544307 0.08489834 0.054183926
-0.06595662 0.0019740828 -0.11716813 -0.046946645 -0.12976284 0.06579252 0.053048905 0.111090474
0.012324217 -0.07757618 0.19930936 -0.05389353 -0.018979207 0.0790077 0.070177615 -0.027602362
-0.015684284 0.09416238 -0.004774967 0.050374188 0.070282005 0.080759965 0.10500018 0.06089422
0.0024356018 -0.012367168 -0.121129565 0.11440826 0.11957175 0.05010636 -0.09379287 0.16052993
-0.04219684 0.07342019 -0.08025429 0.005571108 0.079866715 -0.035662778 -0.04380766 -0.022363937
0.124945015 0.08757868 0.06814453 0.074038185 0.085679956 0.047591012 0.09445514 -0.09255882
-0.0022325048 0.033758238 0.005192563 0.07064876 0.07168342 0.071890496 0.09924373 0.0712679
-0.006827835 0.06521047 0.06121028 0.03461822 -0.019115778 0.021996798 0.01380715 -0.011269975
0.08100902 -0.06623853 0.0485096 -0.35605723 0.28138044 0.04756066 0.13367844 0.1180502
-0.035351966 0.027428975 -0.021173041 0.07474415 -0.01373945 0.001309455 0.0872166 -0.022676863
0.059166133 0.048754543 -0.16160579 -0.018754162 0.025795331 -0.03446045 0.01120685 -0.04285804
0.14410472 0.033769142 0.0165255 0.12145013 -0.02824143 -0.065968946 0.005281584 -0.037223425
0.015505363 -0.012893986 -0.11771042 -0.014454319 0.010841238 0.041223936 -0.0043206075 -0.111381255
-0.011231409 -0.01723078 -0.015057421 0.011690782 -0.054452144 0.02421241 0.02237676 -0.08442519
0.03140001 -0.008280148 -0.14107177 -0.09019282 -0.040391177 -0.012136565 -0.0106634 -0.06354145
0.05978615 0.06194222 0.08728833 0.18589152 0.018977914 -0.2893145 -0.050245497 0.05567491
-0.027916148 -0.026892446 -0.14138883 0.12569086 -0.111272484 0.13098817 -0.03706608 0.11147049
0.16824512 0.033933178 0.18093234 -0.053490996 0.0362313 0.084005475 0.02016191 -0.03385625
0.018255008 0.0807993 -0.050371807 0.033495422 0.094921544 0.11504308 0.22631761 -0.04380275
-0.074795246 0.08206645 -0.034820274 0.13457021 0.12879851 -0.08750073 -0.08498627 0.20578207
00000000: cfd0 653c d438 7fbc 9082 07be 6ac1 b33d
00000010: afbc 013e d2d7 a53d b235 88bd cf37 9dbd
00000020: 3bdf 263d ad43 89bc f3ea 5b3d 059f 9d3d
00000030: f757 d43c 684a d93d a245 b33c 58da a2bc
00000040: d37b b83d 6a0f c4bb dc7d 88bd 5c3e dd3d
00000050: d3e5 e53c ce7a 4e3d 4d86 863d de2d 393d
00000060: 45fc 20bd 847b f53d 6e18 883c ed19 38bd
00000070: 1859 833d db01 e8bc 61b6 473d 3032 883d
00000080: e347 e6bc 1b56 b8bd 99bd 8d3d 0581 94be
00000090: 0ffd 4a3e e893 41bd c0fa 1d3e 8e1b 35bb
000000a0: 2780 59bd 406b 033d a5dc 113c 07d2 613e
000000b0: 79c9 b03d 426a 30bd 72b0 483d 81cd 16bd
000000c0: c117 ea3c b1b0 923d 8f86 3cbe 113d c8bd
000000d0: 652d 22bd 8052 5cbd 64fb f63c db6a 3abd
000000e0: 3f72 0d3e fc20 3abd da1b 2d3d 7114 b43d
000000f0: 7f31 74bd 4f6a 053d fd52 683d 6f49 46bd
00000100: 0e25 e2ba afc8 bfbd 87d1 843c 7caf 99bd
00000110: 718f 083e 424f f8bd d6cd 043e a3d5 89bd
00000120: a48a 83bd e07c 8b3d 1e96 87ba 56fa 61bd
00000130: 6e74 333d 5938 493b b394 63bd 7042 253c
00000140: f408 b3bd c16c 16bd 7159 ccbc b24f 583d
00000150: d94c 913c 21fd 40bd e1d5 9e3d 7aab afbd
00000160: a0ed ef3d 05f3 bdbc 48b4 2f3d 2982 c43d
00000170: da11 ca3c eadd b0be 2edf ad3d f7ef 5d3d
00000180: 4414 87bd 9d5f 013b d8f5 efbd 204b 40bd
00000190: 8de0 04be 3bbe 863d cf49 593d 6783 e33d
000001a0: 83eb 493c 43e0 9ebd c117 4c3e 76bf 5cbd
000001b0: 487a 9bbc cace a13d 48b9 8f3d 591e e2bc
000001c0: 547c 80bc 35d8 c03d 5477 9cbb 2a55 4e3d
000001d0: 03f0 8f3d 7b65 a53d 560a d73d 386c 793d
000001e0: 9e9e 1f3b aa9f 4abc c712 f8bd e14e ea3d
000001f0: 09e2 f43d 543c 4d3d 7a16 c0bd f561 243e
00000200: 98d6 2cbd 535d 963d 5c5c a4bd d78d b63b
00000210: 2991 a33d 2213 12bd a96f 33bd 9334 b7bc
00000220: 2ce3 ff3d 735c b33d 5c8f 8b3d 55a1 973d
00000230: f978 af3d cbee 423d b271 c13d 7b8f bdbd
00000240: 374f 12bb 1446 0a3d 6026 aa3b 4cb0 903d
00000250: c2ce 923d 533b 933d 4c40 cb3d e8f4 913d
00000260: 08bc dfbb 118d 853d a1b7 7a3d d6cb 0d3d
00000270: b198 9cbc a132 b43c 6237 623c b4a5 38bc
00000280: 0fe8 a53d 11a8 87bd 01b2 463d 224d b6be
00000290: 1911 903e f7ce 423d 00e3 083e 4ec4 f13d
000002a0: 39cd 10bd bbb2 e03c 1673 adbc 7613 993d
000002b0: 6e1b 61bc 05a2 ab3a 9e9e b23d d4c4 b9bc
000002c0: 3058 723d d8b2 473d fd7b 25be 54a2 99bc
000002d0: bb50 d33c 6726 0dbd f09c 373c ea8b 2fbd
000002e0: 3090 133e 8351 0a3d 7c60 873c d9ba f83d
000002f0: 925a e7bc ba1a 87bd 2311 ad3b 9777 18bd
00000300: 350a 7e3c 4c41 53bc 2912 f1bd cfd1 6cbc
00000310: 739f 313c 6eda 283d e293 8dbb db1b e4bd
00000320: f203 38bc 9127 8dbc 67b3 76bc b28a 3f3c
00000330: 3609 5fbd 1b59 c63c 784f b73c 1de7 acbd
00000340: 4c9d 003d 75a9 07bc 1e75 10be 03b7 b8bd
00000350: 3871 25bd 71d8 46bc 8bb5 2ebc 0522 82bd
00000360: 52e2 743d 20b7 7d3d 39c4 b23d 595a 3e3e
00000370: 9277 9b3c 0821 94be 39ce 4dbd 600b 643d
00000380: 68b0 e4bc 8c4d dcbc 3cc8 10be 1bb5 003e
00000390: d4e2 e3bd c321 063e 9ad2 17bd a44a e43d
000003a0: 7348 2c3e 84fd 0a3d 5446 393e 6019 5bbd
000003b0: 4667 143d 100b ac3d 972a a53c daac 0abd
000003c0: 878b 953c 1a7a a53d ab52 4ebd 7f32 093d
000003d0: 3a66 c23d b59b eb3d cebf 673e 836a 33bd
000003e0: 402e 99bd 7412 a83d b49f 0ebd c6cc 093e
000003f0: c2e3 033e 9533 b3bd 480d aebd 89b8 523e

bias f4 [64]
0.0083934255 -0.04116811 0.08282021 -0.032229375 0.10030552 0.043542057 0.076985426 -0.03044551
-0.023616677 0.016635679 -0.011418091 -0.003202357 0.048900805 -0.085693695 -0.0044573746 0.037259035
-0.005851772 -0.029246544 0.08465375 0.044269066 -0.023977507 -0.046905916 0.09253402 0.07737424
0.075947806 -0.050107062 0.03153965 0.041034125 -0.00084313296 0.025929838 -0.028613616 0.051163733
-0.054450948 0.015132557 -0.053333614 0.04720995 -0.091385655 0.032997925 0.06425693 0.0049371864
0.06965965 0.09850007 -0.009160554 -0.046465542 -0.053339597 0.09379472 0.050449457 0.01641103
-0.033194084 -0.03881173 0.027593257 0.10300512 0.11275403 0.1104023 0.022965869 0.09932155
0.006292216 0.015856743 -0.07343637 -0.018432014 0.025636198 0.0011724253 0.06308788 -0.08992421
00000000: 9484 093c e49f 28bd a49d a93d f302 04bd
00000010: fb6c cd3d 2859 323d 89aa 9d3d dd68 f9bc
00000020: c377 c1bc 8c47 883c f212 3bbc a3de 51bb
00000030: 364c 483d 2d80 afbd 2b0f 92bb ee9c 183d
00000040: 39c0 bfbb 7396 efbc f25e ad3d 7b53 353d
00000050: 7a6c c4bc 6b20 40bd 7a82 bd3d 6376 9e3d
00000060: 868a 9b3d 103d 4dbd b82f 013d 6613 283d
00000070: b205 5dba d06a d43c 1a67 eabc 1091 513d
00000080: f507 5fbd 8bee 773c 5974 5abd 385f 413d
00000090: 6728 bbbd d528 073d 2399 833d 1fc8 a13b
000000a0: b8a9 8e3d 68ba c93d 2616 16bc a752 3ebd
000000b0: 9f7a 5abd 7217 c03d 17a4 4e3d 6d70 863c
000000c0: 85f6 07bd 0cf9 1ebd 410b e23c 59f4 d23d
000000d0: 96eb e63d 9a1a e23d eb22 bc3c 1969 cb3d
000000e0: ef2e ce3b 00e6 813c cf65 96bd bcfe 96bc
000000f0: 0103 d23c 11ac 993a 3834 813d 2f2a b8bd

weight f4 [1, 64]
0.1629409 0.1565327 0.1257653 0.15371424 0.15635844 0.15700777 0.109975636 0.16543111
0.11445679 -0.1185545 0.12519722 -0.11686112 -0.17102437 0.079805866 0.115200214 0.13200296
0.17580083 0.15507157 0.16863176 0.09473081 0.1738328 -0.15222792 -0.1494452 -0.14858022
0.19585326 0.15613595 -0.17722113 -0.13845488 -0.1671554 0.20283046 -0.13404515 -0.117354624
-0.13746026 -0.101728246 0.075987875 -0.15090837 0.0485097 -0.13840884 0.15308541 0.07605295
-0.18375592 -0.17841654 0.0789934 -0.1523875 -0.166367 -0.1961533 -0.18315938 -0.065061145
-0.17485422 0.12480328 0.16100936 0.16051978 0.15281014 -0.12923771 -0.2137957 -0.17123857
-0.143431 -0.08399482 -0.18226548 0.17260595 -0.1604614 0.08386938 0.09378987 -0.07696336
00000000: fbd9 263e 1c4a 203e 9ec8 003e 4467 1d3e
00000010: 6d1c 203e a5c6 203e e83a e13d c666 293e
00000020: 5268 ea3d b4cc f2bd b333 003e e254 efbd
00000030: 0321 2fbe 4271 a33d 17ee eb3d c92b 073e
00000040: 2205 343e 15cb 1e3e cead 2c3e 3a02 c23d
00000050: 3a01 323e a3e1 1bbe 2a08 19be 6a25 18be
00000060: c28d 483e 1ae2 1f3e 7579 35be 1ec7 0dbe
00000070: c92a 2bbe cab2 4f3e 2243 09be 9f57 f0bd
00000080: 62c2 0cbe e656 d0bd 889f 9b3d b987 1abe
00000090: 1bb2 463d 0cbb 0dbe 6cc2 1c3e a6c1 9b3d
000000a0: 832a 3cbe d3b2 36be 4bc7 a13d 780b 1cbe
000000b0: 1c5c 2abe 69dc 48be 228e 3bbe c73e 85bd
000000c0: fc0c 33be dd98 ff3d a3df 243e 4c5f 243e
000000d0: 437a 1c3e e456 04be 43ed 5abe 2a59 2fbe
000000e0: 93df 12be 7a05 acbd cda3 3abe 9dbf 303e
000000f0: fe4f 24be b6c3 ab3d e714 c03d f79e 9dbd
