models/model.pth (torch, 856683 bytes, 5 tensors)

weight f4 [256, 768]
00000000: 10b6 263b 9026 d7bb 1884 0f3d d6c4 c63c
00000010: d2c8 993c 68b0 07bc 4e16 05bd 18bb 0e3d
00000020: a8a1 d3bc 9bc1 0fbd 4027 64ba 587e 033d
00000030: e881 d03b 7867 253c 40bc fd3c 7635 bfbc
00000040: 2858 003d 6884 4a3c e069 7e3c b841 0abc
00000050: c385 edbc b0f8 48bb c042 8fbc 6623 e4bc
00000060: eb05 0cbd c07a bbbc a791 f8bc a00c 3b3c
00000070: 8260 e2bc 70eb 3a3b 84f7 983c 868b d13c
00000080: 903d 8cbb ee5d c3bc a591 87bc b854 133c
00000090: 13a0 06bd 685d 2b3c 7e73 07bd 2e5c 64bc
000000a0: 88c9 b93c c075 323b 1806 133d cc92 ad3c
000000b0: 9649 efbc 3aa2 3ebc 1881 093d e485 e6bc
000000c0: d42b dcbc 5065 ff3c 80f0 49bb 710e c9bc
000000d0: a257 c1bc 10c6 03bd 6225 5ebc edc1 0bbd
000000e0: 8ec5 0a3d f098 f93c 3069 de3c b8a7 b3bb
000000f0: 2043 fc3a 6591 80bc 0f79 b6bc fea5 083d
00000100: 7c97 033d d218 59bc b8e2 03bd 607e d83b
00000110: d8c1 e9bb 0f84 afbc 5c59 f43c e870 d9bb
00000120: b052 8b3b 92ff 9f3c 10b1 8cbb 10dc 3d3b
00000130: d0a4 9fbc a4ca c6bc 807a f0b9 00ff 03bb
00000140: 0adb aebc bebf 25bc 6e9d 72bc 38bc e23c
00000150: 467a a73c 3803 86bc 1032 43bc 6cd6 8e3c
00000160: e1f0 d4bc a047 5d3c e2aa 03bc 006b e03c
00000170: 0cee bebc 4038 163c e002 92bb fad0 933c
00000180: 752c 08bd 62a6 ab3c c4e8 c0bc 8046 b03a
00000190: b442 1c3c b29e d4bc e4b7 e0bc 00de 0bba
000001a0: dc11 c43c 9cd6 cb3c 5089 3dbb 669e bcbc
000001b0: 13bf fcbc 2ca5 0c3c 548f fcbc 36b3 bf3c
000001c0: 5ab9 0abd a84b d63c cca2 533c 2210 043d
000001d0: f8b2 e4bc 59bc acbc 8087 9dbc f7ac b7bc
000001e0: a4a7 bfbc 9d02 09bd 9390 f3bc aaa3 053d
000001f0: 6854 d53c 30a3 9f3c a3c1 02bd 9e18 0ebd
00000200: 2802 cd3b 94ce c63c e676 66bc 00f2 86bb
00000210: a8b8 0d3d e6bd 36bc c0fa fa3c c004 19ba
00000220: 6004 b23a 7c72 abbb b8c9 993b 6606 00bd
00000230: acc1 0b3d d0d7 073d 0cdb 373c fadf b2bc
00000240: 74c9 d8bc c841 bc3b ca1a 76bc c4f7 08bd
00000250: 70d0 26bb 7ce8 433c a877 91bb f5a9 05bd
00000260: 7258 91bc 4c52 503c 9ccf 113d 3c70 0b3d
00000270: bcec 99bc a032 e93c 67ff 89bc f208 a9bc
00000280: d444 0f3d 3890 b73b 38a1 cc3b e017 393b
00000290: ceab c43c 64f6 833c 6749 12bd 2561 95bc
000002a0: f05f 11bb 1394 e8bc 24ec 3cbc b8c9 a0bb
000002b0: ec6c 30bc 706d 063c 847f 02bd 6616 0fbc
000002c0: b82f 903b c84e e6bc 7817 b53b ae85 b8bc
000002d0: 72d0 c03c 18c5 003c 4c6b 113d 2218 c2bc
000002e0: b69d 09bd 7f34 8fbc 9747 f9bc 1279 04bd
000002f0: 53be 0cbd 382e ea3b f8e0 cb3b 001f dcb9
00000300: 3b93 01bd 78a0 683c 5cff 6e3c 8a2e 093d
00000310: ce6b be3c b0b6 8e3c 96f8 ad3c f800 5b3c
00000320: d035 573c 58f1 e53c 5876 10bd 1209 75bc
00000330: 94c9 ed3c 9a9a d7bc 602c 043c fc9c c7bb
00000340: 1ec6 46bc 207a 05bd 0085 933b 181b f83c
00000350: 0264 063d 56b9 0b3d 08d9 b63c f2db 12bd
00000360: 0851 8cbb 0c29 d5bb ae42 cc3c 40fc a73b
00000370: 2cf0 0dbd b880 f5bb 46e2 dcbc d04e b5bc
00000380: 699f d4bc 096f f4bc a8f6 fdbb e8a0 ec3c
00000390: e057 19bb 2960 0bbd 1687 7ebc 002d 1aba
000003a0: 6852 d6bc c8b4 aebc 6f51 05bd 9608 afbc
000003b0: 6432 d83c 009d 2639 8062 f8bb 27b8 abbc
000003c0: 1b48 8cbc 0efa 123d 70ec 92bc e33e f3bc
000003d0: 3634 7abc 31b0 bfbc 20e2 de3c d40f f53c
000003e0: f893 bc3b f1de b5bc ac35 10bd c0c1 37ba
000003f0: 500d 44bc 0044 7bb9 3293 93bc 20a3 193b
0.0025438108 -0.0065658763 0.035038084 0.02426378 0.018772516 -0.008281805 -0.032491975 0.034846395
-0.02583392 -0.035096746 -0.00087033585 0.032102913 0.0063631423 0.01009547 0.030973554 -0.023340922
0.031334072 0.01236067 0.015528172 -0.00843852 -0.028994447 -0.0030665807 -0.017487884 -0.02784891
-0.03418533 -0.02288568 -0.03034289 0.011416584 -0.02763391 0.002852168 0.018672712 0.025579225
-0.0042797998 -0.0238485 -0.01654894 0.0089923665 -0.032867502 0.0104592815 -0.033069126 -0.013937993
0.022679105 0.002723083 0.035894483 0.021188162 -0.029209893 -0.0116353575 0.03357038 -0.028140016
-0.026876368 0.03117624 -0.0030813515 -0.024543019 -0.023601357 -0.03217131 -0.013558717 -0.03412049
0.03387981 0.030468434 0.027149767 -0.00548264 0.0019246079 -0.01569433 -0.022274522 0.033361427
0.03212689 -0.0132505465 -0.032198638 0.006606862 -0.0071337037 -0.021425275 0.029827766 -0.006635774
0.0042518005 0.019531045 -0.0042935684 0.0028970279 -0.019487768 -0.024266548 -0.00045867637 -0.0020141006
-0.02134468 -0.010116516 -0.014808042 0.02767764 0.020444047 -0.016358957 -0.011913791 0.017436229
-0.025993766 0.013505846 -0.008036347 0.027394772 -0.023306869 0.0091686845 -0.004455909 0.018043984
-0.033245523 0.020953361 -0.023548491 0.0013448745 0.009537388 -0.025954578 -0.027431436 -0.000533551
0.023934297 0.024882607 -0.0028920956 -0.023024749 -0.03085283 0.008584302 -0.030830063 0.023400884
-0.03386817 0.026159123 0.012917232 0.032241948 -0.02791737 -0.021085905 -0.01922965 -0.022421343
-0.023395367 -0.033449758 -0.029732024 0.032626785 0.026041225 0.019486994 -0.031922948 -0.034691446
0.0062563606 0.024268426 -0.0140664335 -0.004118204 0.03459993 -0.011153674 0.030637145 -0.00058371946
0.0013581626 -0.0052321535 0.004693236 -0.031256102 0.034120247 0.0331648 0.011221658 -0.021835316
-0.026463248 0.0057451464 -0.015021035 -0.033439413 -0.0025453828 0.011957284 -0.004439313 -0.032632787
-0.01774237 0.012714934 0.035598382 0.034042582 -0.018789642 0.028466523 -0.016845418 -0.020634148
0.03497775 0.005601909 0.0062448047 0.002824299 0.024007704 0.0161087 -0.035714533 -0.018234799
-0.0022182427 -0.02839092 -0.01153091 -0.0049068592 -0.0107681565 0.008204803 -0.03185989 -0.008733368
0.00440022 -0.028113738 0.0055264793 -0.022524681 0.023536894 0.007859491 0.035502717 -0.023693148
-0.03359767 -0.017481087 -0.030429645 -0.032342024 -0.034361195 0.007146623 0.0062218867 -0.00041984767
-0.03163455 0.014198415 0.01458725 0.03349165 0.023244765 0.017421097 0.0212367 0.01336693
0.0131353885 0.028069183 -0.03526911 -0.014955776 0.029026784 -0.026318837 0.00806722 -0.006091712
-0.012132196 -0.03258717 0.004501939 0.030286357 0.03281022 0.034112297 0.022320285 -0.035854287
-0.0042821206 -0.0065051373 0.02493414 0.005126506 -0.034652874 -0.007492151 -0.026963364 -0.022132307
-0.025954919 -0.029838102 -0.007750351 0.02888532 -0.0023398325 -0.034027252 -0.015535137 -0.00058813393
-0.026162341 -0.021326438 -0.032548364 -0.021366399 0.026391216 0.0001588948 -0.0075801015 -0.020961834
-0.017124226 0.035883002 -0.017935008 -0.029693073 -0.015271237 -0.023399444 0.027207434 0.029914774
0.005754944 -0.022201033 -0.035207435 -0.0007009767 -0.011966065 -0.00023962557 -0.018014524 0.0023443177

bias f4 [256]
00000000: 10ea 0d3d 7b1c 363c 30af f93c d520 51bd
00000010: d68a c0bc f2ed b4bc 30f2 82bc f968 ce3b
00000020: 8949 153a f2a9 fdbc 35d8 5ebc b340 983c
00000030: d460 793b eded a7bb 32c1 03bd 88bc efbb
00000040: e5ee b2bc 2ebd 16bd 6784 283a 4bd0 33bd
00000050: 38ac 93bc f61a 063a 7528 4cbc eef2 363d
00000060: 5e8d 2d3a cfd1 b7bc 5c53 2d3c fdac 79bc
00000070: 90d9 43bc b0f2 2fbc c263 8f3c 641b c5bb
00000080: 704c 23bb eaa3 283d 7829 923c 17ca 4d3c
00000090: 3407 7a3c 5126 04bd b75c 08bd 2451 8fbc
000000a0: 0775 a93c f045 ccbc b1e4 223c 33e3 a4bc
000000b0: bc03 0f3c eaf2 f4bc 3bcb 0bbc e41b f3bc
000000c0: 852c 4bbd 4895 493c ddef 9c3c cc87 d9bc
000000d0: bdf7 e13b 439f c93a af6a 65bc 04f8 933a
000000e0: 9d47 9cbc 4099 f63a b700 413c b917 6c3c
000000f0: cae8 29bc 544c d43c feaa 4bbd d6cc 55bc
00000100: 3c9f 5abd c95f 193c 1f2d e23c 4c4f 363c
00000110: 7e59 893c e79a 153c 96a4 55bc 0d09 d83c
00000120: d50d 863c 5af6 33bd f6ef 693b af4e 443c
00000130: ffbb 1cbb eeca c43c eeee 833c 0022 5339
00000140: 2f9c f6bc da43 b2bb 741b 98bc 4552 30bd
00000150: a3e1 813c c58f 033b 6054 11bd 1af0 97bc
00000160: 2586 dbbc 477c 48bd 873e 843c aa3a cebc
00000170: bb3b 81bc 9fff 15bd 4146 82ba 0e33 46bd
00000180: 45ea 1a3c a2d2 1abc c686 583a 6e9e f03c
00000190: 63c8 45bc 1d5c c8bb 4772 85bb 3485 1ebd
000001a0: 8676 7d3c 5b9b 503d c074 0e3b 9cef 043a
000001b0: 5f87 09bc c462 9e3c b076 4e3b fb6d d9bc
000001c0: b906 c4bc bbc5 c83b 626b 273c e943 83bc
000001d0: 5143 e13b 8709 b03c 50e4 9b3a 56b2 32bd
000001e0: 8bcf 7b3c 2970 743c d6bf c3bc 6c46 0ebb
000001f0: b7a5 93bc 9808 a23c 918e 2abd 1167 24bd
00000200: a46d bebc 5b9f 85bc 3185 91bc 4eb2 c1ba
00000210: baf8 083d ce53 fb3b f478 84bc d330 47bd
00000220: 782d 52bd d97c 87bb 47c0 09bd 759d 1cbd
00000230: ea2a da3c 06b1 cbbc 2f52 763c ed80 263d
00000240: 1010 18bb a496 9abc 0bdc 883c dea6 28bc
00000250: 2e6c a5bc b03b 1abc 905f c4bc 17d0 50bd
00000260: 3b30 603c a634 be3b a7bd 4fbc 1b44 b3b9
00000270: f4fa b7bc 2081 763b 15bd ebbc 31a0 41bd
00000280: b578 c73b 2dfb 39bc 1022 38bd 9c98 0fbd
00000290: 72f9 42bd bb02 f83b a66a 9a3c d194 4abd
000002a0: 6794 99ba 0fcb 393d 49fc 08bc 332a b9bc
000002b0: 884e 15bc b029 9bbc d7c1 6abb 68df b5bc
000002c0: 32ae f0bc 9d78 293d c1cb 48bc 894f 5a3d
000002d0: 97e4 07bd f672 37bd 2802 9b3b bb03 283c
000002e0: dc0b 163c faa0 b9bc fc7b dfbb fd9d 25bd
000002f0: 4e4a 05bd 9d08 7c3c 9deb 8abb 1e43 66bc
00000300: 4164 3fbd db17 033c 34ff 4dbd 0d0e fbba
00000310: 4926 00bc 533a e43a 8dca 01bd ab82 8a3c
00000320: 2efe 233c 1b7d 9abb 833c c33b c057 0d3c
00000330: 804e 513c 8024 0bba 14a3 1ebd 44f5 adbb
00000340: 6fdd 3a3d 7b8b 2bbd 825c 22bd 80d2 1ebd
00000350: aa87 e33c 0ad8 063b 745e 0fbd 7cc0 293c
00000360: b621 2c3d 117f 513b 767c 08bd 94d3 e03b
00000370: 43c9 833c db66 f0bc aa0e 783b f8e8 283d
00000380: 0b10 13bd b85f aabc 49df 22bc dca2 4339
00000390: b3b3 163c cc03 f13b 68c1 99bc 4189 52bd
000003a0: 2d56 19bd 2cbe e7bb 7766 7e3c 2f8e ab38
000003b0: 5239 a13c 600a f9bc 8d42 17bd 406e 8d3a
000003c0: 27de 173b 49fe 6fbc 246a 193c a493 8b3c
000003d0: 1cd6 03bd d0ff 23bc 3f8d 3cbd e7c0 46bd
000003e0: 07e6 513c 3a54 dcbc c9a0 c7bc 906f 8c3b
000003f0: 609b 9bbc 290c b5bc 8778 84b9 f9e8 6dbc
0.034647048 0.011115189 0.030479044 -0.0510567 -0.023503702 -0.022086117 -0.015984625 0.006299135
0.00056948565 -0.030964825 -0.013601352 0.018585538 0.0038052099 -0.0051247985 -0.032166667 -0.007316176
-0.02184243 -0.03680151 0.0006428421 -0.043899816 -0.018026456 0.0005115712 -0.012460818 0.04466527
0.00066204916 -0.022438912 0.010578956 -0.0152389975 -0.011953726 -0.010739014 0.017503623 -0.006015228
-0.0024917386 0.041171946 0.01784204 0.012560389 0.015260506 -0.032263104 -0.033291545 -0.017494746
0.020685686 -0.024935693 0.00994222 -0.020127868 0.008728918 -0.029900987 -0.008532341 -0.029676385
-0.049603004 0.012303658 0.019157344 -0.02655401 0.006895988 0.0015382547 -0.014002486 0.0011289124
-0.019077117 0.0018813983 0.011779956 0.014409953 -0.010370443 0.025915302 -0.049723618 -0.013049325
-0.053374514 0.009361216 0.027609406 0.011127304 0.016766306 0.00913117 -0.013039729 0.026371503
0.016364018 -0.04393611 0.0035696006 0.01198165 -0.0023915765 0.024022546 0.016105141 0.00020135194
-0.030103771 -0.0054402174 -0.018567778 -0.04304721 0.015854662 0.0020074707 -0.035480857 -0.018547107
-0.026797364 -0.048946645 0.016143097 -0.025174458 -0.015775552 -0.036620732 -0.000993915 -0.048388533
0.009455268 -0.009449633 0.0008259829 0.02937242 -0.012071702 -0.0061144964 -0.004072461 -0.03870125
0.015470153 0.05092941 0.002173707 0.0005071105 -0.008394091 0.019334204 0.0031503849 -0.0265417
-0.023928987 0.006127087 0.010218473 -0.016023593 0.00687448 0.021488918 0.0011893604 -0.043627106
0.015369306 0.014919319 -0.023895185 -0.0021709455 -0.018023355 0.019779488 -0.04163987 -0.040137354
-0.02324564 -0.016311338 -0.017763706 -0.001477787 0.03344033 0.0076699024 -0.016170956 -0.048630547
-0.051312894 -0.004134756 -0.033630636 -0.0382361 0.026631791 -0.024864685 0.0150342425 0.040650297
-0.0023202933 -0.01887066 0.016706487 -0.0102936905 -0.020193186 -0.009413645 -0.023971349 -0.0509797
0.013683374 0.005804616 -0.012679494 -0.00034192283 -0.022458531 0.0037613586 -0.028776685 -0.04727191
0.0060873874 -0.011351389 -0.04495436 -0.03505765 -0.04760117 0.007568685 0.018849682 -0.04945833
-0.0011717201 0.045359667 -0.008360931 -0.02260313 -0.009112962 -0.018940777 -0.0035821104 -0.022201255
-0.029379938 0.04137479 -0.01225561 0.053298507 -0.033176985 -0.04478737 0.0047304817 0.010254796
0.009158101 -0.022659767 -0.0068202 -0.040433872 -0.032541566 0.015382913 -0.004239513 -0.014054088
-0.04672647 0.008001293 -0.05029221 -0.0019153968 -0.007821628 0.0017412402 -0.031687308 0.01690801
0.010009332 -0.0047146208 0.0059581413 0.008626878 0.0127750635 -0.0005307868 -0.038729742 -0.005308779
0.04562133 -0.041881066 -0.039639004 -0.038774967 0.02777465 0.0020575547 -0.035002187 0.010360833
0.042024337 0.0031966607 -0.03332182 0.0068611596 0.01608718 -0.02934592 0.0037850537 0.0412378
-0.03590397 -0.020797595 -0.009940931 0.00018657319 0.009198117 0.007355189 -0.018768981 -0.051400427
-0.0374357 -0.007072231 0.015527359 8.180399e-05 0.019680653 -0.030400455 -0.036928702 0.0010790303
0.0023173185 -0.014648029 0.009363685 0.017038174 -0.032186612 -0.010009721 -0.04603314 -0.04852381
0.01281119 -0.026895631 -0.02436866 0.00428576 -0.018994987 -0.022100525 -0.00025266802 -0.014520877

weight f4 [64, 256]
00000000: 2ea3 3e3d 681f 58bd 1414 d83c 6b22 a4ba
00000010: 237e 3abd 5906 8fbc 0f10 2bbd 72a6 eebb
00000020: 2bab 993d b80e 553d b814 9ebd 1427 0ebd
00000030: 761a de3c 7f04 82bc fe4f 97bd a9d4 973d
00000040: 5069 423d 6351 5f3d 09ec 3abd 3fe4 d33c
00000050: 0012 363c b709 fc3c a339 14bd 7232 583b
00000060: f9cb 5e3c a26e 3f3d 60b7 f13c 93aa 85bd
00000070: edee 02bc 57c7 cb3c a1d3 d03c 7126 193d
00000080: 5df0 6fbd 99be 89bd b1fe 91bd 8c31 b3bc
00000090: 5862 b1bc 6259 333d 4947 21bc 2f52 70bc
000000a0: 412a 923c 877b 65bc 184a 8fbc 1558 07bc
000000b0: 106f a23c f699 f53c 4c5a 35bd 29c9 433d
000000c0: 23a0 9a3d e0b5 6d3b ade2 1dbd f037 fcbb
000000d0: a693 1b3d bc2b 2bbc e0df 2dbc ee84 6c3d
000000e0: b7af 39bd 901b f33c 48a3 9b3c c3d8 443c
000000f0: a0ec 803c 8908 603c 976f 6bbd a8a2 8c3d
00000100: 6aab 863d 802e 41bd ec7d 4b3d 87ff 7a3c
00000110: 6203 13bd 41c1 023c 6697 8eb9 15a4 f3bb
00000120: 18d4 a63c e06e 8f3c d74f d7bc 01c9 06bd
00000130: 1004 693d 5bd1 0f3d f002 ddbc b481 e03c
00000140: d2f6 a2bc 89c9 443c 1009 a6bc 9556 57bd
00000150: cf3f a13c 32e3 a3bc 0b7a 943c 95ce 513d
00000160: aea0 2b3d 8464 8bbb 92d0 06bd dfc0 84bc
00000170: 8d4b 7dba d8b3 46bc 8010 d2bb 8649 453d
00000180: d719 713d 29ef 233c 112e 2a3d 2cf9 82bc
00000190: ce7c 33bd 0c12 ae3b fdee 443d 08f3 b43b
000001a0: e809 823d f88a 9b3c 9c23 f9bc 06f8 373d
000001b0: 88eb a0bc b7f3 d5bc f584 683d 03c9 04bd
000001c0: 52d2 0a3d 58fa 83bb 6035 f13c 1796 2f3d
000001d0: 9485 bd3b fb3b 063d 7039 c13b 8238 f13c
000001e0: be03 813c df12 acbc a0ab 493d 2e4d 35bd
000001f0: a441 1b3d 735d a3bb cce9 853d 54f9 afbc
00000200: 8053 833c c20d d43c 8021 37bc d9ff f9bc
00000210: f876 e8bc f25e 0bbd d8f4 9e3c 3eb3 91bc
00000220: e8f8 08bc 4fcf a0bb 0267 a63c 3901 813d
00000230: f02a eabc fb62 173d 21a9 c9bc f6cd 0abd
00000240: cc8e 81bc 954b 32bd 0fb7 fa3c 00a5 4ebc
00000250: 641a 003d 8bd8 c63b b714 883d e87b 16bd
00000260: 5b1a 32bd 5407 323d 20d9 913b 488b 873c
00000270: 5ce5 cf3c d251 293d 6f5c 84bd 5f6a 4e3d
00000280: e40b 963c b51f 0dbd 1fdb a7bc a35e 7d3d
00000290: 642c 5abd 4f4d 533d 2a3a ea3c bd9f b73a
000002a0: 5972 7a3c 87f3 8abd ca81 883d d7d0 9bbb
000002b0: 0ecc 1abd cc8b 053c 9b13 97bd 04f5 93bc
000002c0: 1289 b73b bc0e 5d3d 2e33 63ba cfda a8bd
000002d0: 0761 8a3c 5640 ac3c 46f5 26bd 63d4 493d
000002e0: a0aa 8c3d 1071 353d 446f 493d 9acc 21bd
000002f0: 0a5b f2bc 0ea2 f0bc 52be bdbc 81a1 f6bc
00000300: 796b 3dbb 0f45 3f3d a043 d63c 0e3a cabc
00000310: 4163 71bc 96a2 253d 7a72 2abd 323b 85bd
00000320: 1ca5 4dbd 126e 333d 15eb 40bd b3a9 993d
00000330: d6e4 703d 20ce 063c 55b3 8bbc 58fd 29bc
00000340: 79a6 10bd b8d4 14bd 5521 c43b a568 cebc
00000350: 7dac 033d 1030 2b3b 5721 8b3d 6385 f8bc
00000360: 9ffc 0b3b 6240 49bd d4cc fcbc a969 85bc
00000370: 4859 3d3c 3495 edbb 9476 c03c a994 c23c
00000380: 7265 0c3d eedf 983d 7785 cc3c 7da4 5d3d
00000390: 5fe8 64bd 3d67 06bc 5f4c a23c 9c05 eabb
000003a0: 44b5 e23b 74b7 e1bc 422e 44bd bf79 103d
000003b0: 06ea 40bd 5120 bdbb b666 1c3d 2c3b f13c
000003c0: bac8 393d 06fe 59bd 5a96 b03c 2f67 cdbb
000003d0: 58f2 5c3c c9d4 1c3d 4a65 97bd 1cb7 1d3d
000003e0: c216 18bd 701b 1e3c 7195 853d 74b0 863d
000003f0: fa46 47bd a44d 27bd 3dc9 9b3d 297f 193c
0.04654234 -0.052764326 0.026376761 -0.0012522464 -0.04553045 -0.017459081 -0.04176336 -0.0072830254
0.07503351 0.05201599 -0.077187955 -0.034705237 0.027112227 -0.015871285 -0.07388304 0.074136086
0.047463715 0.054520976 -0.045635257 0.025865672 0.01111269 0.030766351 -0.03618778 0.0032989052
0.013598436 0.046736367 0.029506385 -0.06526675 -0.007991535 0.024875326 0.025491538 0.037390176
-0.058578838 -0.06725807 -0.07128657 -0.021874212 -0.02165334 0.043786414 -0.009843656 -0.014668032
0.017842414 -0.014006502 -0.017491385 -0.0082607465 0.01982835 0.02998064 -0.044275567 0.047799263
0.07550075 0.0036271736 -0.038546253 -0.007697098 0.037982605 -0.010447439 -0.010612458 0.05774396
-0.04533359 0.029676229 0.018998757 0.012014571 0.015737832 0.01367391 -0.057479467 0.06866962
0.065756634 -0.047163486 0.049680635 0.0153197115 -0.035891898 0.007980646 -0.0002719715 -0.0074353316
0.020364806 0.017508924 -0.026283188 -0.032906536 0.05688864 0.035111766 -0.02697894 0.027405597
-0.019893084 0.01201094 -0.020267993 -0.052572805 0.019683747 -0.020005796 0.0181246 0.051222403
0.041901283 -0.0042539258 -0.032913752 -0.01620525 -0.0009662442 -0.012127839 -0.0064106584 0.04816582
0.058862533 0.010005751 0.04154784 -0.015987955 -0.043820195 0.00531221 0.04807948 0.0055221356
0.06349546 0.018987164 -0.030412488 0.044914268 -0.01964356 -0.026117189 0.056767423 -0.032418262
0.033891983 -0.004027646 0.029444396 0.042867746 0.005783746 0.032772046 0.0058967397 0.02944589
0.015748855 -0.021005092 0.04923594 -0.044263057 0.037904397 -0.0049855052 0.06538734 -0.021481194
0.016031027 0.025885466 -0.011177421 -0.030517505 -0.028377041 -0.034026094 0.01940386 -0.017785665
-0.008360125 -0.0049075256 0.02031279 0.06299061 -0.028584927 0.03695963 -0.02461678 -0.033887826
-0.015815161 -0.043529112 0.030604867 -0.012612581 0.031275168 0.0060682944 0.06644576 -0.03673926
-0.043482166 0.04346402 0.004450932 0.016545907 0.025377922 0.041337796 -0.06462943 0.050394412
0.018316217 -0.034454066 -0.020490227 0.06185783 -0.05326499 0.0515874 0.028592188 0.0014009398
0.015286052 -0.067847304 0.0666538 -0.0047551203 -0.037792258 0.008151006 -0.07376786 -0.018061168
0.005601057 0.05396913 -0.0008666989 -0.082448594 0.01689197 0.021026772 -0.040761255 0.049274813
0.06868482 0.044297278 0.049178377 -0.039501764 -0.029584426 -0.029374149 -0.02316204 -0.030106308
-0.002890317 0.04669672 0.026155293 -0.024685886 -0.014733137 0.040438257 -0.04161308 -0.06505431
-0.05020629 0.043806143 -0.04709919 0.07503071 0.058811985 0.008227855 -0.017053286 -0.010375343
-0.03531501 -0.036335677 0.005985419 -0.025196383 0.03214692 0.0026121177 0.067934684 -0.030337041
0.002136029 -0.049133666 -0.030859388 -0.016285734 0.011556931 -0.0072504524 0.023494042 0.023752527
0.034276433 0.07464586 0.024965985 0.054111946 -0.05588567 -0.008203325 0.019811807 -0.007141782
0.006918581 -0.027553298 -0.047895677 0.035272356 -0.047098182 -0.0057716747 0.03818389 0.02944716
0.045357443 -0.05322077 0.021556068 -0.006268404 0.013485514 0.038288865 -0.07392366 0.038504705
-0.03713108 0.009650096 0.06522644 0.065766245 -0.048651673 -0.04084553 0.076067425 0.009368696

bias f4 [64]
00000000: ca8b 1dbd 5598 9b3d 2882 ab3d b15e 033c
00000010: 9e4e 8fbd a1fe 61bc 5406 4b3d 27e3 2f3d
00000020: aac8 69bc 143d 8abd 1660 5dbd 465e 6b3d
00000030: 6136 c83c efc7 72bd ba1b 283d 7cf7 b53d
00000040: 9974 983b 03c3 893d a05a 0ebd a9ff 703d
00000050: 2e26 803c f3d9 7c3d 7312 2ebd f94b 4d3d
00000060: 6f68 7d3d f0f6 91bd 64f5 c13c 2c00 13bd
00000070: 1b7b 153d 5fb8 053d cc71 d83c aac6 3cbd
00000080: 06f7 9bbd 19f1 43bb 3d48 8bbb 7bae ff3c
00000090: 3a36 e3ba 299c 6f3b 8712 5ebc 5d88 423d
000000a0: 23c4 303c f818 253d aa2a 0ebd ae18 0f3d
000000b0: f726 963c 37a2 a83d 40bf 693d 869a 123d
000000c0: 1d52 82bd bb49 023d 4f23 613c a1f7 a33d
000000d0: 309a 2f3c 94f3 86bc 8e34 9bbd c4d5 9f3c
000000e0: 7fca 553b 2361 dfbc 3118 093d 3c3b 373d
000000f0: ae1e c53d 67ea a83d 9c72 243d e88f 6ebd
-0.03846339 0.075974144 0.08374435 0.008018182 -0.06997417 -0.013793618 0.04956658 0.04294124
-0.014269033 -0.06749931 -0.054046713 0.057462953 0.024439992 -0.059272703 0.041042067 0.088850945
0.0046525714 0.06726649 -0.034754395 0.058837567 0.015643205 0.06173129 -0.042498063 0.05012128
0.061867174 -0.07127178 0.023676582 -0.035888836 0.036494356 0.032646533 0.02642145 -0.0460879
-0.07615475 -0.0029898344 -0.004250555 0.031211128 -0.0017334886 0.0036561585 -0.013554222 0.047493327
0.01078895 0.040307015 -0.034708656 0.034935646 0.018329127 0.08234065 0.057067156 0.035791896
-0.06363318 0.031808596 0.013741328 0.08006216 0.0107179135 -0.016473569 -0.075783834 0.019511111
0.0032621918 -0.027267998 0.033470336 0.044734225 0.09624992 0.08247834 0.040148363 -0.05824271

weight f4 [1, 64]
00000000: 509b 483c 61b7 dabd de0a c3bd 040c b73d
00000010: 3e67 493d 88e9 7f3d f4b2 643e 23b0 c1bc
00000020: 38cd b63e 9785 773c 519f 703e 8f06 893e
00000030: 4667 353c 9b7c b6bd 650e 69be fb08 00be
00000040: 9078 503e c862 6c3e 76a2 bebd 8577 c9bd
00000050: e6e5 beba a3bf 05be fb0d 753e aed4 303e
00000060: ec26 20be 8a3a c63d 81c2 7b3e 5ce8 313d
00000070: f713 33be f754 653e 1dd5 f1bd bd97 4cbc
00000080: 79ca 95bb 486a 623d aaba 54be 25b8 8a3e
00000090: 887c 51be ee01 e9bd 98a5 be3d ecbd 1fbe
000000a0: 0398 02be bf4d b43d 5f08 15be f4d5 0bbe
000000b0: e0f6 11be 3aab 0bbe 9830 36be 7085 ca3d
000000c0: a08c 993d 40ad 793e d0ab 923e 699a 42be
000000d0: 20c4 783e 7f0b ebbd 9239 8e3d 68a7 643e
000000e0: 52e2 3c3e f4fb eebd 14bc 9e3b 9fdf 2ebe
000000f0: 9f24 b53e 2717 2fbe a3b0 ca3d 49ce 7c3d
0.012244061 -0.10679508 -0.09523557 0.08937839 0.049170725 0.062478572 0.2233389 -0.023643559
0.35703444 0.015107534 0.23498274 0.26762816 0.011071986 -0.08910485 -0.22759397 -0.12503426
0.20358491 0.23084557 -0.09308331 -0.0983725 -0.0014564365 -0.13061385 0.23931114 0.17268631
-0.15639848 0.09679134 0.24585916 0.043434486 -0.17488085 0.22395693 -0.11808226 -0.012487349
-0.0045712558 0.05527714 -0.20774332 0.27093616 -0.20457661 -0.11377321 0.09308928 -0.15599793
-0.127533 0.088038914 -0.14553975 -0.13655835 -0.14254332 -0.13639536 -0.17791975 0.098887324
0.07497525 0.24382496 0.28646708 -0.19004215 0.24293566 -0.11476802 0.069445744 0.22329485
0.1844571 -0.1166915 0.004844198 -0.17077492 0.35379502 -0.17098676 0.09896972 0.061720166
