models/model.pth (torch, 956351 bytes, 7 tensors)

weight f4 [256, 768]
000000 c9 de c0 3c 9e 17 2e bc 89 e9 28 3c 78 4b 37 3d
       0.023543732 -0.010625748 0.010309585 0.044749707
000010 c9 28 55 bc 15 bb da 3b 4e 91 7b bc 18 a3 fe bc
       -0.013010212 0.006675134 -0.015354468 -0.031083629
000020 4f ae 22 3c 79 d2 0f 3d ac 50 09 3a 1a 66 5a 3c
       0.009929254 0.03511283 0.00052381563 0.013330007
000030 16 e0 0a 3d 01 f4 89 bc f0 90 48 3b f9 f1 ad bc
       0.03390511 -0.016839983 0.0030603968 -0.021233546
000040 88 d8 48 3d bd e6 d6 bc 8c e7 08 bd fc f7 54 3d
       0.049034625 -0.026233071 -0.033423945 0.05199431
000050 8d 52 a4 3c 42 60 f2 bb 40 bf f5 bc a1 be d6 bc
       0.020058895 -0.0073967287 -0.029998422 -0.026213946
000060 f9 09 1f bc a8 ee 35 bd 7b 1b a0 bc b7 6f 44 3c
       -0.0097069675 -0.044417053 -0.019544354 0.0119895255
000070 3d 41 15 bd a2 eb 68 bc d6 c4 b7 bc 18 6e 82 bc
       -0.03643917 -0.0142163355 -0.022432726 -0.015921637
000080 71 07 2b 3c 50 69 2a bc ac c8 e6 3c 2e 1e 43 bc
       0.010438786 -0.010401085 0.02817186 -0.011909051
000090 2d 5b 09 bd b3 45 35 3d b0 7b 5f bb 93 bd 56 3c
       -0.033534218 0.044255923 -0.0034100823 0.013106721
0000a0 bd 32 9e bb a7 7f 42 3d d5 eb 10 3d 49 24 04 3c
       -0.004827826 0.04748502 0.035381157 0.008065292
0000b0 17 7c 92 bc cc 29 16 3d 93 04 e5 3c 05 e1 cf bc
       -0.017881436 0.036660954 0.027956283 -0.025375852
0000c0 cf 78 bd 3c a5 d8 46 3c 22 ec c8 bb 15 b5 a9 3c
       0.023128895 0.012136613 -0.006131665 0.02071623
0000d0 2c a9 a8 bc 49 23 d6 bc 2b 43 a5 ba b5 a2 00 bd
       -0.02058848 -0.026139872 -0.0012608519 -0.03140517
0000e0 8d 16 4d 3d 9d 87 d1 3b 09 b4 6c 3a 0d 3b da 3c
       0.050070334 0.00639434 0.0009029513 0.026639486
0000f0 0b 34 de bc 94 fb a5 3b a9 66 47 bd fb d6 8a 3b
       -0.027124425 0.005065391 -0.04868189 0.0042370535
000100 16 c8 13 bc 21 40 f6 bb d8 33 90 bb 25 93 3c bd
       -0.009019872 -0.007514969 -0.0044007115 -0.046038765
000110 1b 5a 15 bc 20 77 00 3b 55 7b df bb 91 32 3a 3d
       -0.009115721 0.0019602254 -0.0068201222 0.04545838
000120 e8 d8 18 3c 4e d5 80 bc 30 d7 e0 bc 7d e7 4c 3d
       0.009329058 -0.015726712 -0.02744636 0.050025452
000130 75 a5 17 bc 1b 19 81 bc d5 68 1a 3c 86 a4 ea 3a
       -0.009255757 -0.015759042 0.009424408 0.0017901815
000140 43 65 2e bd 7d 35 5c bc ee c5 3d bd 65 89 55 bc
       -0.04257704 -0.013440487 -0.04633134 -0.013033246
000150 e8 a8 20 bc f4 54 48 bd 06 53 5a 3c ea 27 bc 3c
       -0.009805895 -0.048909143 0.013325458 0.022968251
000160 43 1f 0a bd 92 30 34 bd 3d 7c a4 bc 55 b0 b2 bb
       -0.03372122 -0.043991633 -0.020078773 -0.0054531493
000170 57 b7 1c bd 07 30 53 bc 92 49 3e bd 53 ba 93 3c
       -0.038260784 -0.012889869 -0.04645688 0.018033182
000180 7c c2 0d bd 50 dc 11 bd 0f af 49 3a 56 57 44 bb
       -0.034609303 -0.035610497 0.0007693627 -0.0029959283
000190 3e b1 a9 bc f1 e0 48 3d 73 d7 1b bd 9a 15 05 3d
       -0.020714398 0.049042646 -0.038047265 0.032491304
0001a0 4d 3f 60 3c 01 a5 36 3c 09 ab 5c 3c ba 99 44 3d
       0.013686967 0.011147738 0.013468512 0.047998168
0001b0 49 b7 ae ba 9a 58 9d bc 52 b5 85 bc 75 39 2f bd
       -0.001332977 -0.019207288 -0.016321812 -0.042779405
0001c0 8c db 30 3d df dd 3b 3c d6 0f 48 3d cb 70 35 bd
       0.043178126 0.011466472 0.048843227 -0.04429702
0001d0 c3 1a e9 bc 45 3c 09 bd 1b b7 9e 3c 82 f8 1f bc
       -0.028455144 -0.033504743 0.01937442 -0.009763839
0001e0 06 11 0a 3d c9 b3 d4 bc fb 35 fd bc e8 dd b6 3c
       0.03370764 -0.025964634 -0.030909529 0.02232261
0001f0 c3 10 b8 3b f5 8e 2d 3c 7f 80 3f bc 16 2d a6 bc
       0.0056172325 0.010593166 -0.011688351 -0.02028517
000200 7b 32 b1 3c 43 c2 cb bb 7c d1 a9 3b 7c 6f b7 bc
       0.021630516 -0.006218226 0.005182443 -0.022392027
000210 80 2c 0a bc c2 7f a0 3c 85 36 78 3c 5e c1 23 bd
       -0.008433461 0.01959217 0.015149717 -0.03997933
000220 d4 bc 33 bc 23 2d 10 bc 2e fd bc 3c 0f 09 73 bc
       -0.010970313 -0.008799824 0.023069944 -0.014833703
000230 85 e9 f4 3c 1b 1b 80 bb 2b 47 b1 3c 5b d3 85 3a
       0.029896507 -0.003909481 0.02164038 0.0010210084
000240 50 87 44 bc ed 22 25 3d 70 b3 34 3d 4f ac 4d bc
       -0.011995152 0.04031651 0.044116437 -0.012553289
000250 6e a9 c6 bc 4b 82 42 bc 80 2f 4a 3b 09 2a 18 bd
       -0.024250712 -0.011871885 0.0030851066 -0.037149463
000260 89 dd c3 3b c9 22 28 bc 89 bb 92 bc 31 7c 10 bc
       0.005977337 -0.0102622 -0.01791169 -0.008818672
000270 0a 27 0c 3c ce d8 80 3c 86 76 89 bc bc a7 81 bc
       0.0085542295 0.01572838 -0.01678015 -0.015827052
000280 1e 9c 2d bc fb 69 4a 3d f8 31 3b bc a2 c2 2d bc
       -0.010596303 0.049417477 -0.011425488 -0.010605486
000290 a9 62 11 3d f1 0e 09 3d 5f 33 d8 bc 00 a9 3f 3c
       0.03549448 0.033461515 -0.026391683 0.011698008
0002a0 aa 3c 07 bc 91 8a ff 3b 53 ad d5 bb b7 a1 ee 3a
       -0.0082542095 0.007798501 -0.006520906 0.0018206154
0002b0 c1 05 0c bb 7a d9 2c bd d7 34 0b bc a9 af 8e 3b
       -0.0021365734 -0.04219959 -0.008496485 0.0043544364
0002c0 1f 0e d5 bc f8 a2 84 bc a7 75 45 3d f6 24 b1 3b
       -0.02600771 -0.01619099 0.048207905 0.0054060174
0002d0 98 f2 56 bc 49 a1 4c 3b 1d 1d a2 bb d4 6b 4d bc
       -0.013119362 0.0031224063 -0.004947318 -0.012537915
0002e0 b3 d0 af bc f8 1e 8d bb 2e 90 ad bb eb 42 6f bc
       -0.02146182 -0.0043066703 -0.0052967286 -0.014603357
0002f0 56 dd 17 bd c6 bd e7 bc 50 55 86 bc 38 b8 11 bc
       -0.037076317 -0.028288733 -0.016398102 -0.008894019
000300 e8 73 0b 3c d6 ee 8b 3c f8 a8 c3 bb 13 3d d0 3c
       0.008511521 0.01708166 -0.0059710704 0.025419747
000310 39 b9 89 3c 10 a2 04 3c 37 c1 de bc b4 05 50 bc
       0.016811954 0.008095279 -0.027191741 -0.012696672
000320 ba cd 81 bc 07 85 41 3d c3 59 df bc 8d 26 2f bd
       -0.015845168 0.047246005 -0.027264481 -0.042761374
000330 07 bc 46 3d 1e a6 29 bd e9 27 3f 3d 76 8d 2b bc
       0.04851916 -0.041418187 0.04666892 -0.010470739
000340 4b 5b bf bc 17 c7 3f bd dd 57 54 3d 99 cc 51 ba
       -0.023358962 -0.046820726 0.051841605 -0.0008003205
000350 98 bc 06 3b cf f1 12 3c 7a 38 ff bc 0f f2 75 3c
       0.0020559188 0.0089687845 -0.03115486 0.015011325
000360 c3 35 2b bc 75 ee e2 3b c8 9f c5 bc 6c da 42 bd
       -0.0104498295 0.006925399 -0.024124041 -0.047571585
000370 8d 0a 0d bc 1f 86 6a 3c ab 61 21 bc 47 ea 2a bd
       -0.0086084725 0.0143142035 -0.009849946 -0.04172733
000380 6f a0 02 3d 17 ce d3 bc 3a cb 9e 3c aa f8 8d 3b
       0.031891283 -0.025855107 0.019384015 0.0043326216
000390 e9 b9 d5 bc 3a 06 29 3d 39 b2 38 bc e0 b3 5f bc
       -0.026089625 0.041265704 -0.01127296 -0.013653725
0003a0 d4 ad 36 bc 79 07 a2 3b 4a af bb 3b b9 46 68 bc
       -0.011149842 0.0049447385 0.005727683 -0.014177018
0003b0 bc 5f 92 3c 03 52 f6 3c 6c 97 99 bc 8f 50 a6 bc
       0.017867915 0.030068403 -0.018748961 -0.020302085
0003c0 b2 38 f1 3b 08 13 16 bc 47 33 01 bd 60 cb 62 3c
       0.007361495 -0.009159811 -0.031543043 0.013842434
0003d0 51 53 fe 3c 64 2f ef 3b 0f a8 24 bd b8 13 2e 3d
       0.031045588 0.0072993506 -0.040199336 0.042499274
0003e0 14 b0 f1 3c 3b aa d6 3c 80 f8 a9 3b 5b 72 a7 3c
       0.029502906 0.02620422 0.005187094 0.020440271
0003f0 cc 03 27 3d b3 4b f1 3c 3a 92 26 3d 2c b8 a3 ba
       0.040775105 0.029455042 0.040666796 -0.00124908

bias f4 [256]
000000 b5 20 45 bd 7e a8 a0 bc 04 35 bf bc ac dc 8b bc
       -0.048126895 -0.019611593 -0.02334071 -0.017072998
000010 c2 ef 8b 3b 0b 3d 7f 3c d7 09 72 3c 4b 6f fc 3b
       0.0042705247 0.015578519 0.014772854 0.007703697
000020 e0 5d a0 bd b3 f0 ed ba 78 58 cf bb 44 ad ad 3b
       -0.07830405 -0.0018153399 -0.006327685 0.005300196
000030 78 0a 1f 3d ef 0a 05 3d 82 62 85 3c 31 be b5 bb
       0.038828343 0.03248113 0.016282324 -0.005546354
000040 80 d0 09 3d 9f d2 7a bc 3d 1b d0 3b cc 03 c2 bb
       0.033646107 -0.015309005 0.0063509033 -0.005920863
000050 92 47 f7 bb 66 29 80 bd 33 1a 26 bd 5e d6 9d bc
       -0.0075463736 -0.06257896 -0.04055233 -0.019267257
000060 74 4b e5 3b da 61 ac bb 4b 6c 06 3c e8 1f 26 3d
       0.00699752 -0.0052606883 0.00820453 0.040557772
000070 43 6e 1b bd 5e 42 17 3c 34 67 31 bd 1b a7 82 3c
       -0.03794695 0.009232132 -0.043311313 0.015948823
000080 74 8b 21 bd 22 74 15 bc 07 0d c0 3b 82 e2 f5 bc
       -0.039439633 -0.0091219265 0.005860928 -0.030015234
000090 76 7b 03 bd 17 0f 97 3c 29 56 99 bc a8 1e 04 bb
       -0.032100163 0.018439813 -0.018717842 -0.0020159874
0000a0 e9 19 b2 bc bf dd 1d bd 2a e8 50 3c 68 eb 19 bd
       -0.02174087 -0.03854155 0.012750665 -0.037578017
0000b0 43 45 fa b9 b3 86 56 bd 80 7e 0f ba e6 da 83 3c
       -0.0004773532 -0.052374553 -0.0005473867 0.01609559
0000c0 77 7f 58 bd 89 4d c7 bc 76 87 c5 bc b0 ad 67 bc
       -0.052855935 -0.024328964 -0.024112444 -0.014140531
0000d0 e3 13 54 bb 00 86 c3 bb 99 26 97 3c 51 18 23 3c
       -0.0032360486 -0.005966902 0.018451022 0.009954528
0000e0 e3 3e e5 bc a7 5e 29 bd a4 a0 e0 bb a1 91 7a 3c
       -0.027984088 -0.041350033 -0.0068550874 0.01529351
0000f0 41 ba 04 bd 82 31 0f bd 5b b3 aa bc 00 54 0b ba
       -0.032404188 -0.034959324 -0.020837476 -0.0005314946
000100 42 51 b9 bc 58 db f6 3c a0 92 79 bb b0 93 9f bc
       -0.022621755 0.030133888 -0.003808178 -0.019479603
000110 2c 16 3c bd 8e 56 9c bc 99 5d 72 bb bb 69 14 bd
       -0.045919582 -0.019084241 -0.0036982058 -0.036233645
000120 0c 05 f6 bc e7 6b a1 bb ab cb 46 3a 68 8c a6 3a
       -0.030031703 -0.004926193 0.00075834495 0.0012706639
000130 95 74 2a 3c 4c 22 a1 bc c2 10 4f bd bc 0a 31 bc
       0.010403772 -0.019669674 -0.05055309 -0.010805782
000140 3d 8f 2c bc 13 ba ab bc 7b ea dd bc f2 57 93 3c
       -0.010532198 -0.02096275 -0.027089348 0.017986272
000150 f0 a7 06 3c 27 9d 51 bc ea 9e 07 3d ba 0e 88 bc
       0.00821875 -0.012793816 0.033110537 -0.016608585
000160 38 b4 0e bd 90 46 e7 bb bd 33 8a 3c 33 c8 ac bb
       -0.03483984 -0.0070579723 0.016870374 -0.005272889
000170 b1 74 08 bd 7a bf 15 3d 7d 72 01 bd 26 17 37 bd
       -0.03331441 0.03655956 -0.031603325 -0.04469981
000180 94 29 0b bd 08 b8 37 bd ad b6 be bc ce 07 17 bc
       -0.0339752 -0.04485324 -0.023280466 -0.009218169
000190 c9 1e 09 bd 23 29 1d bd c6 df 15 bc 47 ee da bb
       -0.033476625 -0.03836931 -0.00914759 -0.006681237
0001a0 d2 65 81 3b bb da 8d bc 4a cc e2 bb 16 0a 38 3c
       0.0039489055 -0.017316213 -0.006921326 0.011232873
0001b0 42 12 2d bd ad e7 fb bb 72 57 51 bd de 62 2f 3d
       -0.04225374 -0.00768753 -0.051108785 0.042818896
0001c0 79 46 e7 3b b3 f6 b1 bc c7 7d 0b bc 9c eb cb bc
       0.0070579615 -0.02172408 -0.008513874 -0.02489262
0001d0 ca 8b a8 3c 75 a9 2b 3c 16 3b 19 3c bf 21 2b bd
       0.02057447 0.010477413 0.009352466 -0.04178023
0001e0 d4 05 da bc 2c ba ca 3b 88 71 6f bc d7 50 d4 bc
       -0.026614107 0.006186744 -0.01461447 -0.025917454
0001f0 30 f8 16 bd 92 a5 f3 bc 58 85 20 3c 91 be 2c bd
       -0.036857784 -0.029742036 0.009797417 -0.042173926
000200 db e1 92 bc 00 01 bc bb 48 f7 92 bc 9d 44 48 bc
       -0.017929962 -0.005737424 -0.017940179 -0.01222339
000210 9c 35 1e bd 92 32 32 bd d8 66 08 bd 65 13 2b bd
       -0.038625345 -0.04350526 -0.033301204 -0.041766543
000220 d0 ce 77 bc 57 74 56 bc 53 6e cb bc bc 56 fb bc
       -0.015124992 -0.013089261 -0.02483288 -0.030681007
000230 73 15 24 bd cf 58 2f bd b0 65 58 bd 55 69 0a bb
       -0.040059518 -0.042809304 -0.05283135 -0.0021119912
000240 00 de 45 3b fd 6f 07 bc b2 d5 c8 bc 0c 9c 41 3c
       0.0030192137 -0.008266446 -0.02451596 0.01181699
000250 74 68 21 bd 60 5c 4f bc fd cc 93 bb b8 15 de bb
       -0.039406255 -0.012656301 -0.0045105205 -0.0067774914
000260 08 31 1e bc 97 75 55 3c 18 94 cc 3b 48 cf 94 bc
       -0.009655245 0.013028524 0.00624324 -0.018165246
000270 8d 85 ed bc 7a 7d 23 bc cc a6 a9 bc b3 48 54 bd
       -0.028994346 -0.009978646 -0.020709418 -0.051827144
000280 a7 72 46 3b 85 aa 8b bc 60 2f 10 3c 25 c8 2a bd
       0.003028074 -0.017049083 0.008800358 -0.04169478
000290 45 b6 87 3b 17 b4 59 3c e8 46 f1 3b 0c 31 89 bd
       0.0041416013 0.013287566 0.007363189 -0.06698808
0002a0 6b c0 29 bc 64 2e e4 bc 29 da 02 3d 00 3d 38 bd
       -0.010360817 -0.027854152 0.031946335 -0.04498005
0002b0 eb 0a 4c 3c 9e b8 ba bc e4 d4 0a bd 88 8b 45 bc
       0.012453775 -0.02279311 -0.033894435 -0.012057193
0002c0 d2 03 be 3a 72 8e 67 bc 80 2e 40 3c 76 99 8e bc
       0.0014496988 -0.014133083 0.011729836 -0.01740716
0002d0 f5 62 27 bd 4a b0 94 3c 7d 2e 04 bd d0 50 a6 bb
       -0.040865857 0.018150467 -0.032270897 -0.0050755516
0002e0 de af f0 b9 99 5c 96 bb 9c 51 27 bd 17 f3 30 bb
       -0.00045907398 -0.004588675 -0.040849313 -0.0027000362
0002f0 d1 c4 52 bd da 97 3c bc 04 43 bc 3b b2 a4 b2 ba
       -0.05145723 -0.011510814 0.0057452936 -0.0013629405
000300 1b d1 00 bd c2 5c 08 bd 3e e3 2d bd 12 f4 ca bc
       -0.03144942 -0.033291586 -0.042453043 -0.024774585
000310 00 30 48 37 13 6d fd bc aa 2a 9b bd 9c 88 0c bd
       1.1932105e-05 -0.0309358 -0.07576497 -0.03430997
000320 1d 96 40 bb aa 10 38 bd 2e 81 20 3c a9 a1 bf bc
       -0.002938635 -0.044937767 0.009796424 -0.023392515
000330 87 1d 11 bc 4b e2 c6 bc 7b 34 3f 3c ac 7a e4 bc
       -0.0088571375 -0.024277827 0.011670227 -0.027890526
000340 66 fc 93 bc d6 99 94 3b e2 2a 05 bd 0a 29 2f bd
       -0.018064689 0.0045349402 -0.0325116 -0.042763747
000350 26 6e 18 bd da c8 9f bc 5e fc 09 3d d8 17 44 bc
       -0.03721442 -0.019504953 0.03368794 -0.011968575
000360 8d d1 93 bc 8f 13 52 bd 50 7a 54 bc 64 05 88 3c
       -0.018044258 -0.051288184 -0.012968615 0.016604133
000370 d0 11 02 bd e1 78 18 bd 69 4b 6f 39 6b 80 31 3c
       -0.03175527 -0.037224654 0.00022820909 0.01083384
000380 e2 de 30 bd 19 4c b4 3b 35 dc 72 bd 78 7a c5 3c
       -0.043181308 0.0055022356 -0.059292037 0.02410625
000390 e9 07 c8 bb 5b 59 bd 3a 12 7b 5a bc 29 49 9e 3c
       -0.0061044586 0.0014446186 -0.013335006 0.019321995
0003a0 50 0e ab bc 3a 55 0c bd eb cb 8d 3c f2 de 8a bc
       -0.020880848 -0.034260966 0.01730915 -0.016952012
0003b0 73 51 0b bd 80 dc b2 ba 2a 43 8f bc f1 ee e9 3b
       -0.034013223 -0.0013646036 -0.017488081 0.0071390797
0003c0 de 98 a0 3c de 81 89 bc 25 71 98 bc d8 f7 bc bc
       0.019604143 -0.016785558 -0.018608639 -0.0230674
0003d0 d1 42 8a bc 7f e2 f2 3b 16 28 50 bd 37 a5 6a bc
       -0.016877564 0.0074122543 -0.05081948 -0.014321617
0003e0 b0 3b b1 bc 24 0a f3 ba 6d 8a c2 3c a6 3d 15 bd
       -0.021634907 -0.0018542451 0.023747647 -0.036435746
0003f0 e0 4e d4 bb a9 a9 14 bc e4 16 15 3d ea 48 a8 ba
       -0.006479129 -0.009073653 0.036398783 -0.0012839113

weight f4 [128, 256]
000000 98 2e f4 3c 44 cf 6a bd dc 98 68 bc 74 0e 4d bd
       0.029807374 -0.05732657 -0.014196601 -0.05006261
000010 f9 02 d3 bc 69 ca 98 bc ea 9f 0a bd 13 71 b5 bd
       -0.025758253 -0.018651204 -0.033843912 -0.08859458
000020 09 1a 8a bd 23 be eb 3c 00 97 85 3c 93 a0 e4 3b
       -0.06743247 0.028777188 0.016307354 0.0069771498
000030 2a 69 3b 3d 28 1c 05 bd 0c 51 14 bd cf 4e 03 bd
       0.04575459 -0.032497555 -0.036210105 -0.03205758
000040 e6 d1 23 bd 10 bf 4b bd 24 86 4e 3c 80 4d d5 3a
       -0.039995097 -0.04974276 0.012605224 0.0016273707
000050 7b c7 18 3d 26 db 77 bc 4b 7b 6f 3d a8 5c 03 3c
       0.037299614 -0.015127933 0.05846719 0.008017696
000060 79 1a d9 3c f6 f9 98 bd d7 9a d1 bc 9b e9 75 bd
       0.026501881 -0.07469551 -0.025586529 -0.060037237
000070 a0 76 b0 bc b7 0d e8 bb 54 ce 84 bc a4 1e 2c bc
       -0.02154094 -0.007081713 -0.016211666 -0.010505352
000080 98 82 34 bd c6 eb 11 3d 88 46 a1 3c 06 b2 76 3d
       -0.044069856 0.03562524 0.019686952 0.06022837
000090 3a af a8 bb 60 de 4b 3d 50 8a d0 3c c8 ab 9a bd
       -0.0051478418 0.04977262 0.025456578 -0.07552296
0000a0 14 b6 60 bd 45 25 39 bd d4 ab 3b bd 9d 50 63 bd
       -0.054861143 -0.04520156 -0.045818165 -0.0554968
0000b0 d2 21 fb bc a0 1d 86 3c 38 56 93 bc dc 10 27 bc
       -0.030655775 0.016371548 -0.017985448 -0.010196891
0000c0 83 bf a4 bd e7 20 07 bd ca 56 c7 bc 5a 63 db bc
       -0.080443405 -0.032990362 -0.024333376 -0.026780773
0000d0 0a 42 f5 bd 34 b7 c8 bc 0f 6c 12 3d 80 a6 e7 bc
       -0.119754866 -0.02450142 0.035747584 -0.028277636
0000e0 31 1c 63 3d 0e b2 37 bd ef ea a0 bd 6a 56 05 3d
       0.055446807 -0.04484754 -0.0785731 0.032553114
0000f0 a9 80 d1 3c 09 06 a9 3c 54 36 8d bd bc 6a 65 bd
       0.025574045 0.02063276 -0.06895128 -0.056009993
000100 e5 27 f0 3c e4 d0 9b 3c eb 17 a6 3b b9 ab f4 bc
       0.029315898 0.019020505 0.005068769 -0.02986704
000110 75 a7 30 3d 9a 79 12 3d 5c a6 b1 bd bc ac b2 bc
       0.04312845 0.0357605 -0.08674309 -0.021810882
000120 73 bd 04 3b 42 e0 44 bd 53 22 96 bd c3 eb 21 3d
       0.0020254522 -0.04806543 -0.073307656 0.03953148
000130 ab 57 d7 bd c0 e2 20 3c a8 6b 9c bd 0c 1e 76 bd
       -0.10514768 0.009819686 -0.07637721 -0.06008725
000140 4a a8 6a bd 71 28 b8 3b f8 73 c1 bc 10 71 40 bd
       -0.0572894 0.0056200554 -0.023614869 -0.046982825
000150 ce bb 7b bc 09 07 c7 bb 2e 65 1c 3d 2a a0 9d bd
       -0.0153646 -0.0060738367 0.03818243 -0.076965645
000160 c4 5c ef 3c ad 24 cd bc 88 0e 9c bd 22 a4 99 3c
       0.029219039 -0.025041902 -0.07619959 0.018755022
000170 3e cc 74 3d 6c 49 a9 bc 88 76 59 3c 49 56 10 3d
       0.059765093 -0.020664893 0.013272889 0.035238538
000180 d1 ee aa bd 75 ca dc b9 ee 04 21 bd 5d c3 5d 3c
       -0.08346332 -0.00042112512 -0.039311342 0.013535348
000190 b8 f1 91 bd af e1 31 bd f6 6e 66 bd 13 eb c3 bd
       -0.07126182 -0.04342812 -0.056258164 -0.09566321
0001a0 5d 79 4c bd 2d 4b 44 3d f6 9d 55 3d 5d cd ca 3c
       -0.04992043 0.047923256 0.052152596 0.024756128
0001b0 39 06 0d 3b 44 40 3f 3c d4 37 21 3d 87 36 66 bd
       0.0021518602 0.011673037 0.039359882 -0.056204345
0001c0 dc 70 8a bd 1e 31 05 bc 98 97 69 3c c0 7b 6b bd
       -0.067598075 -0.008129386 0.014257334 -0.057491064
0001d0 ce 79 8e bd e6 12 37 bd 41 fb 84 bd f3 d3 c2 3a
       -0.06956826 -0.044695757 -0.064932354 0.0014864191
0001e0 2b 40 15 bc 88 b9 e3 3b a0 cd e5 3c a0 5a 7c 3d
       -0.009109537 0.0069496073 0.028052151 0.061609864
0001f0 28 0e 22 3c 53 df 0e bd e2 05 31 bd 78 ec ec 3c
       0.00989107 -0.034880947 -0.0432185 0.02892135
000200 e2 5d 65 3d b0 10 3d bc ba fc 30 bd 5c d7 7d bc
       0.055997737 -0.011539623 -0.04320977 -0.01549324
000210 14 dd f5 bc 4e 80 8f bd 75 67 3a bc 09 60 ae bd
       -0.030012645 -0.07006894 -0.011377205 -0.08514411
000220 bc 7c 00 3d 2e ef c5 bc 98 61 32 3d 62 4f 3a 3d
       0.031368956 -0.024161901 0.043550104 0.04548586
000230 74 11 08 bd 48 db 5f bc e8 20 89 3c 49 64 4e bd
       -0.03321977 -0.013663121 0.016739324 -0.050388608
000240 df bb 24 bd 10 55 4b 3d f4 17 d2 bd da 28 6e bd
       -0.04021823 0.04964167 -0.10258475 -0.058144428
000250 f0 6d 41 bd d0 db a6 3c 84 4f 07 3d 15 f2 17 bc
       -0.047223985 0.020368487 0.033034816 -0.009274025
000260 76 9b ca ba 8b eb 8d bd 8c d0 41 bd 10 fe 5c bc
       -0.0015457708 -0.06929692 -0.047318026 -0.013488308
000270 82 0e 42 bd ec 2a 59 3d 80 c4 6f ba 1a 7f 6e bd
       -0.047377117 0.05301945 -0.0009146407 -0.058226682
000280 00 2f 12 bb b0 71 c1 bb cc 46 ae bc 94 45 9f bd
       -0.0022305846 -0.005903445 -0.021273993 -0.07776943
000290 23 54 d8 bd cf 43 6b bd e4 bd b4 bb fe 3c 84 bd
       -0.10562923 -0.057437714 -0.005515801 -0.06456946
0002a0 76 38 48 bd 2e de e1 3b d5 f5 07 bc 89 1a b4 3b
       -0.04888197 0.006892941 -0.008298357 0.0054963273
0002b0 11 b5 ce 3c d6 81 f7 bc 80 3a 20 bc d0 4f 31 bc
       0.025232824 -0.030213278 -0.0097795725 -0.010822251
0002c0 26 28 be bb 68 a6 23 bd cf e5 83 bc 18 75 10 bc
       -0.005803126 -0.03995362 -0.016100792 -0.00881698
0002d0 8f 91 f4 3c 81 33 c0 bd a0 0a 1a 3b e8 84 2d bc
       0.029854564 -0.093848236 0.0023504868 -0.010590769
0002e0 7c 92 87 3c 8b e0 a9 bd 39 3e 59 bc 4e 7a 59 3c
       0.016549341 -0.08294781 -0.013259464 0.013273789
0002f0 86 9c b8 bc c1 ce ed bb a6 11 05 3d 12 91 85 bd
       -0.022535574 -0.007257313 0.032487534 -0.065218106
000300 a0 de bf bb 7d 3a 56 bc c2 d2 9f bd 64 92 5d bd
       -0.0058553964 -0.013075468 -0.07803871 -0.054094687
000310 08 3c 33 bc 50 95 1a bd e2 1b 85 bc 14 06 c1 bd
       -0.0109396055 -0.03774005 -0.016248647 -0.094249874
000320 52 8d ef bc a4 96 1d bd 20 58 5a 3d 2a 68 b0 bc
       -0.029242191 -0.03847374 0.0533067 -0.021534044
000330 94 c7 ef bc 0a 95 1f bd 07 93 bf 3c ee ca 80 bd
       -0.029269971 -0.038960494 0.023385538 -0.06288706
000340 d3 af f1 bd 05 a2 3c 3d 3e 05 20 3d a7 0a 0f bd
       -0.11801114 0.04605295 0.0390675 -0.03492227
000350 52 f6 ab bc 51 e4 ae bb 2a f1 9e bd 32 c1 8f 3c
       -0.020991478 -0.005337276 -0.07760842 0.017548177
000360 6e 93 e4 3a a5 c1 84 bd 89 50 87 bd 6a 12 11 3d
       0.0017438957 -0.06482247 -0.06607158 0.03541795
000370 b0 56 31 3c da 2b 06 3c 7b 91 aa bd f5 fd 54 bd
       0.010823891 0.008189166 -0.083285294 -0.052000005
000380 20 ad fe 3b cc 9b 97 3d 87 c2 9a bd 20 68 17 bd
       0.007772103 0.07402763 -0.075566344 -0.036964536
000390 ec 7d e7 bc be 42 99 bd 48 8c 64 bc 4f 28 6a bc
       -0.028258286 -0.07483433 -0.013949461 -0.014291837
0003a0 90 2a 3e bd 00 90 3f 3d d1 5f d6 bc ab ba cb 3c
       -0.04642731 0.04676819 -0.026168736 0.024869284
0003b0 24 a5 7d 3d 4c 1b 64 3d 0a 56 48 bd ac ef 30 3d
       0.06192507 0.055690095 -0.04891018 0.04319732
0003c0 c2 60 a4 bd 88 62 a5 3c b0 4c 96 bd b5 3d 00 bd
       -0.080262676 0.020188585 -0.07338846 -0.03130885
0003d0 20 b7 c3 3b ac 45 3d bd d2 e4 34 bd 22 ef 2a bd
       0.005972758 -0.046209022 -0.044163533 -0.04173196
0003e0 c3 da ca bd ba c4 4c bd d6 26 29 3d 47 96 8d bd
       -0.09905007 -0.0499923 0.041296802 -0.06913429
0003f0 b4 d2 69 bd 6b 8c 00 3c a1 83 6a 3c c9 c9 bd bc
       -0.057085708 0.007845978 0.014313609 -0.023167508

bias f4 [128]
000000 b6 e2 a7 bd 20 8a 5f 3b 3f 5a 19 3d 4b af e6 3d
       -0.081975386 0.0034109429 0.03743958 0.11263903
000010 da 34 a6 39 4e c5 db bd ae 5d c8 3d 26 34 ed 3d
       0.00031701365 -0.10730992 0.09783493 0.11582212
000020 5f 14 c9 3c f7 73 1e 3d 9f 3c 49 bd 2d 22 7d bd
       0.024545847 0.03868481 -0.04913008 -0.06180017
000030 29 2a c1 bd 8c 9e 12 3d 04 a7 bf bd 93 e8 88 bd
       -0.094318695 0.035795733 -0.093580276 -0.06684985
000040 a4 1d b2 bb e2 e0 c3 3b 03 17 68 bd 73 dc a5 bd
       -0.0054356623 0.005977736 -0.05666257 -0.08098688
000050 4c df e4 bd 7e a4 70 bb 1d cd 01 bd a2 76 5b bd
       -0.11175403 -0.0036719139 -0.031689752 -0.053579934
000060 f7 c7 8c bd 9a ff 8c bb b0 08 d7 bd 6e f1 7e 3c
       -0.06874078 -0.004302931 -0.10499704 0.015560491
000070 ab 85 4a bd bb 6e 54 bd f6 92 2e bd 51 66 99 3c
       -0.049443882 -0.051863413 -0.04262062 0.018725546
000080 cb 7b 33 3c 05 88 f9 3d e3 93 6f bd 94 98 1a bd
       0.0109548075 0.12184147 -0.058490645 -0.037743166
000090 96 4f df 3b 9f cd a7 bd 08 6b 66 3d 24 d9 dc bb
       0.0068149073 -0.08193516 0.056254417 -0.0067397524
0000a0 5c f4 2d bd ec f3 bb 3b 7d 4e 87 3d cd 75 aa bd
       -0.042469367 0.005735865 0.06606767 -0.0832325
0000b0 40 9e 90 bd 32 ce f9 bc 3b c6 9e 3d ad 0b 20 bd
       -0.07061434 -0.03049383 0.07752653 -0.039073635
0000c0 2c 5b 47 bd 76 b9 07 bd e7 fb 04 bd b7 0a 96 3d
       -0.048670933 -0.033135854 -0.032466795 0.073262624
0000d0 a9 90 5f bb 32 6c aa bd dd e1 b9 ba c0 ee c6 bd
       -0.0034113324 -0.08321418 -0.0014181692 -0.09713507
0000e0 91 fe a4 bd 8a c2 59 bc 6d 58 f9 bc f7 59 03 bc
       -0.08056367 -0.013291011 -0.030437673 -0.008017055
0000f0 02 34 0b 3d 02 fe d7 3d b3 ce 0d bd 9f 75 80 3d
       0.033985145 0.10546495 -0.03462095 0.062724344
000100 fb 27 22 bd 33 dc 1d 3d 77 76 0e bd 89 52 bc 3b
       -0.03958891 0.038540076 -0.034780946 0.0057471436
000110 26 69 1f bd 5d d3 4f bd 16 e8 15 3c 0f 3e 0a 3d
       -0.038918637 -0.05073868 0.009149572 0.03375059
000120 3d fb 91 bd 1d dc 92 bd fa 72 d0 bc 9e c3 93 bd
       -0.07127998 -0.071708895 -0.02544545 -0.072150454
000130 ec 3d 9a bd c7 7a a9 3b b2 6a b5 3c 2f e5 b8 3c
       -0.07531342 0.005172107 0.022145603 0.02257022
000140 92 ae e0 bd 3b e1 92 bd 47 46 e6 bc 45 11 f4 bb
       -0.10970797 -0.071718656 -0.028109683 -0.0074483478
000150 24 63 6f bd 09 b4 4e bd 1c 68 46 bd f1 fc 8d bd
       -0.058444157 -0.050464664 -0.04843913 -0.0693301
000160 9f 10 5e bd 4a 92 af 3d ef e4 93 3d 65 a5 a1 3d
       -0.05421507 0.08572824 0.072214 0.07892875
000170 de 42 c6 3c 56 3e e8 bd 30 40 bf 3c f9 e8 fc bb
       0.024201807 -0.11340015 0.023346037 -0.007718202
000180 a1 cd 29 bd 93 87 64 3d a7 5e 1c 3e 3d ab e3 3d
       -0.04145587 0.055793356 0.15270482 0.111166455
000190 d7 00 35 bd 1a cb 6a bd b8 36 8b bc f5 2a 2f bb
       -0.044190254 -0.0573226 -0.016993865 -0.0026728485
0001a0 4a b4 34 3c a9 30 9c bc ef 8c 2e bd b8 8d 06 bc
       0.011029312 -0.019066172 -0.042614873 -0.008212499
0001b0 cd cc 8d bc 3d 59 e1 3c 83 8a f2 bb b9 5b 84 3d
       -0.01730957 0.027508372 -0.007401766 0.06462807
0001c0 24 2f 16 bc af bd 55 3c 92 79 17 bb 75 e9 ea 3d
       -0.009166513 0.013045712 -0.0023113233 0.1147031
0001d0 93 66 9c bd 47 97 86 bd 5a e2 04 bc fa d8 10 bc
       -0.07636752 -0.065718226 -0.008110607 -0.008840794
0001e0 6e 6f f9 bd 24 0e b1 3c c9 e3 97 bd 8d b2 ec bc
       -0.12179457 0.021613188 -0.074164934 -0.028893733
0001f0 ee 65 aa bd 71 19 31 bc 8a bc ec 3c 29 49 96 bd
       -0.08320223 -0.010809288 0.028898496 -0.07338173

weight f4 [64, 128]
000000 ec 63 08 3c fc f3 fc bc 4e 99 03 3e 76 9c 3d bd
       0.0083246045 -0.03087806 0.1285145 -0.04629179
000010 e8 dd ac bc 00 e1 64 3b 96 d3 ae bd 0a 16 2e 3c
       -0.021101907 0.003492415 -0.085364506 0.010625372
000020 9a 1d 02 3e 5c 6b 07 bd 90 fa e6 bd 43 eb 7a 3d
       0.12706605 -0.03306137 -0.1127826 0.06125952
000030 c9 83 8c 3b 41 65 64 3d 78 54 54 bc 6b 71 a0 3d
       0.004288171 0.055760626 -0.012959592 0.07834133
000040 ff cc b4 bd 5d 4d 0f 3e 4a 1c 16 3d 21 b1 10 3d
       -0.088281624 0.13994355 0.036648072 0.035325173
000050 f0 65 5f bd 92 3f a1 3d 85 0b 98 3d e7 6d 8d bc
       -0.054540575 0.07873453 0.07424072 -0.01726432
000060 0d a0 88 3d cc a6 9f 3d 20 39 f9 3d d7 19 2e bd
       0.06671152 0.07795486 0.12169099 -0.04250511
000070 8a 36 ba bd 2a 19 80 be e8 44 5b bd a5 1f 97 3d
       -0.09092434 -0.250192 -0.05353251 0.073790826
000080 98 c0 8e 3d fe 9a 31 bc 81 2a 08 3d 6d 2a a5 bd
       0.06970328 -0.010840176 0.03324366 -0.08064733
000090 e4 9b 82 3d 21 14 73 bd d1 cc 51 bd 6d 77 ef 3b
       0.0637739 -0.05934537 -0.05122072 0.007307938
0000a0 ba 7f 67 bd c9 3a 02 bd 8b d3 cf 3d 84 13 9a 3d
       -0.056518294 -0.031794343 0.101477705 0.075232536
0000b0 d4 03 19 3b fa 79 e1 3c fc 36 bf 3d c5 25 bb bc
       0.002334823 0.027523983 0.09336659 -0.022845158
0000c0 c3 31 3e 3e 02 4f f6 bc 90 d9 ab 3d 50 24 2c 3d
       0.1857367 -0.03006697 0.08391106 0.042026818
0000d0 42 ab 2c 3d c7 e0 ea 3d 27 e2 1e 3d 14 cb 0d 3e
       0.04215551 0.11468654 0.038789894 0.13847
0000e0 97 79 fb bb 5a 13 0c bd 47 0a 64 bd 69 e5 a5 3d
       -0.0076744067 -0.034198143 -0.055673864 0.08100397
0000f0 25 b4 8c 3d a5 6b a3 bc 2b 7f c1 3d e5 b4 a5 bc
       0.06870297 -0.01994879 0.094480835 -0.020227859
000100 90 f1 cc 3d 58 c5 a7 3d 4d bb bb bc cf d2 85 bd
       0.10007012 0.08191937 -0.02291646 -0.06534349
000110 2d 5f 44 bd f4 5c 83 bd 6f 43 a1 bd 7f 7f 8a bd
       -0.04794233 -0.06414214 -0.0787419 -0.06762599
000120 ff 93 cf 3d fc 2e 4f bb 5e dd c8 3d 16 bd 4f bd
       0.1013565 -0.0031613698 0.098078474 -0.050717436
000130 5f 8b 90 3d f9 9a 73 3c 84 8c e2 3b fb 1b c6 3d
       0.07057833 0.014868491 0.0069137234 0.096733056
000140 54 7b 05 3d 7a 90 9a bb ed f4 c0 3c 19 32 4d 3c
       0.032588318 -0.00471693 0.02355429 0.012524151
000150 a8 f7 09 3d ef ea bd 3d bd c6 28 bd b4 83 d2 3d
       0.03368345 0.09273326 -0.041205157 0.10279027
000160 d1 ce 8a bd 5c fc 6a bc 46 29 ab bc 86 42 f4 bd
       -0.06777728 -0.014342394 -0.020893704 -0.11926751
000170 32 74 8b 3d 02 0c 1b 3d e0 2a 4d bc 81 aa 3e bc
       0.06809272 0.03785325 -0.012522429 -0.011637331
000180 9c bc 4b 3d e3 0a 56 bc cc 13 13 be 36 6a 39 3d
       0.04974042 -0.013064119 -0.1436302 0.045267306
000190 b4 e3 11 bd 6a 52 82 3d 70 e7 91 bd 6c b4 cb bd
       -0.035617545 0.063633755 -0.07124221 -0.09946522
0001a0 9e 87 85 3d 4b 95 13 3d 10 e2 ab bb 46 8b ff 3d
       0.065200076 0.03603105 -0.0052454546 0.12477736
0001b0 6b a3 61 3d b2 ff 5b bd f3 99 c3 3c 40 09 9b bd
       0.05508749 -0.053710647 0.02387712 -0.07570124
0001c0 dc 3e 9d 3d 66 a0 a1 3c 0a 7d 8f bb 6f e2 25 bc
       0.07678005 0.019729804 -0.0043789195 -0.010124787
0001d0 98 79 95 3d 88 21 7e 3c f1 79 95 3d 11 2d b4 bc
       0.07298583 0.015510924 0.07298649 -0.021994146
0001e0 fc 4d 4f 3d 91 40 a0 bc b9 74 b8 bd 14 95 3c bd
       0.05061148 -0.019562038 -0.09006638 -0.04604061
0001f0 12 d9 b6 39 5b 98 02 bd bb 65 76 bd 08 02 a1 3d
       0.00034875475 -0.03188358 -0.06015561 0.078617156
000200 1f 52 80 3d 08 8f 9e bc f5 25 cd 3c 8b 5e b2 bd
       0.06265663 -0.019355312 0.025042513 -0.08709439
000210 d0 94 43 bc 5f 84 c5 bb 38 cb 15 3c f8 36 4f 3d
       -0.011937335 -0.0060277428 0.009142689 0.05058953
000220 12 0d c7 bd ff 9e c2 bd 98 8e 58 3c 05 c6 77 bd
       -0.0971929 -0.09502982 0.013217591 -0.06049158
000230 44 16 b6 3c 4e 5c 0e 3d 2a 11 c0 3c db 77 a4 bd
       0.022227414 0.034755997 0.023445684 -0.08030673
000240 cb a4 65 3d a5 31 e9 bb 50 72 09 3c 38 6e 82 bd
       0.056065362 -0.007116514 0.008389071 -0.06368679
000250 bf c4 b1 bb 29 44 74 bd 30 54 96 bc 04 e9 26 bd
       -0.0054250653 -0.059635315 -0.01835069 -0.040749565
000260 b8 f5 80 3d d5 dc d0 bd fb f6 e9 3c a7 c7 61 bd
       0.06296867 -0.1019837 0.028560152 -0.055122044
000270 28 c4 8c bd 9a a4 76 bd 1b 28 19 bc ff 14 e6 3c
       -0.06873351 -0.06021557 -0.009347941 0.028086184
000280 b3 a1 ef b8 21 5e 06 be 2b 6b c0 bc 12 0c 85 3d
       -0.00011426527 -0.13121845 -0.023488602 0.06496443
000290 dd a8 dc bd 5e 71 29 3d 63 7b 79 bd c4 c2 bc bd
       -0.107743956 0.04136788 -0.060908686 -0.09216836
0002a0 70 f2 af bc ea de 7f bd ae b3 ba bd 60 a2 bb bb
       -0.021477908 -0.062468447 -0.091163024 -0.0057261437
0002b0 a5 16 08 bd 43 74 8e bd 55 40 b5 bc 92 c2 1a 3d
       -0.03322472 -0.06955769 -0.022125402 0.037783213
0002c0 f4 26 ce 3c 79 8c 79 3d 22 25 5c 3d 05 d6 09 3c
       0.025165059 0.06092498 0.05374635 0.008412843
0002d0 c3 e1 8a bd a1 ec 6b bd 86 0e a3 bd 05 2d ca bb
       -0.06781342 -0.057598714 -0.079617545 -0.0061699175
0002e0 65 8a 4b bd 9f 9e 3a bd 70 59 91 bd d2 4b 0e bd
       -0.04969253 -0.04556143 -0.07097137 -0.034740277
0002f0 87 7c 61 3d 0f 54 04 3d 11 67 c3 bd 10 c3 8f 3b
       0.0550504 0.032306727 -0.09541143 0.004387267
000300 59 9e b3 bd cd f6 70 3d 8a 56 3d bd 51 63 93 3b
       -0.08770437 0.058829118 -0.04622511 0.0044979234
000310 70 42 da bd 39 47 b0 3b 73 52 71 3d d1 da c3 3c
       -0.10657203 0.005379584 0.05891652 0.02390805
000320 75 fb 21 bd 33 8c 3b 3d 8d 14 0a bd 08 be 20 bc
       -0.03954645 0.045788 -0.033711005 -0.009810932
000330 40 1a 5c bb 47 48 bd 3c d7 22 07 bc e5 bd 09 3d
       -0.0033584982 0.023105754 -0.008248053 0.033628363
000340 5c 33 3b 3d b3 fd ab 3c 5c e3 03 3d f9 44 f5 ba
       0.045703277 0.020994997 0.03219925 -0.0018712572
000350 63 5c 25 3c 36 8a e5 bd 43 3a 52 3d bd 63 10 bd
       0.0100928275 -0.11208002 0.051325094 -0.035251368
000360 4e f1 34 bd 45 14 47 bd c9 21 bf bd 66 9a b3 bd
       -0.04417544 -0.048603315 -0.09332616 -0.087696835
000370 f0 73 26 3d 1c 23 01 ba b0 19 9f bd fd ca e7 3c
       0.04063791 -0.0004926191 -0.077685714 0.028295035
000380 5b 1a 81 bd 4f 6c 8b bb b8 36 c5 bd d4 f9 c0 bd
       -0.06303855 -0.0042548547 -0.096295774 -0.09422651
000390 f2 bd 75 3d ed 0b a7 bc 8b 74 04 bd 54 82 04 3d
       0.0599956 -0.020391429 -0.032337707 0.032350853
0003a0 a1 e3 2d bd 9e 7a 96 bd 53 d6 6b bd ec 96 98 bd
       -0.042453412 -0.07347606 -0.057577442 -0.07450661
0003b0 57 97 1f 3d 03 17 8b 3d fc 89 67 bb 41 e6 1e bd
       0.03896269 0.067914985 -0.0035330048 -0.038793806
0003c0 e2 a1 70 3d 02 c0 40 3d ab f8 d7 bb 14 d6 19 3d
       0.058748133 0.047058113 -0.006590923 0.037557676
0003d0 6d 1e 89 bd 91 51 c9 bd 62 b4 42 bd f7 1a 6a bc
       -0.066952564 -0.09830011 -0.047535308 -0.0142886555
0003e0 55 b2 25 bc 7e 6b 87 bc 1e af 0e 3b c7 a3 5e bd
       -0.010113318 -0.016530748 0.0021771858 -0.05435541
0003f0 ca 4c 0e 3d 2f a5 a7 bd 04 92 7e bd af 91 84 3c
       0.0347412 -0.08185803 -0.06215097 0.016182749

bias f4 [64]
000000 1c dd 4a bd fd 8c 2d 3c e1 44 0c 3c a6 8d 0f 3d
       -0.049527273 0.010592696 0.008561344 0.035047196
000010 a6 d4 d7 3c 97 d1 12 3c af 52 1f 3e d8 ca 94 3b
       0.026346516 0.008961103 0.15558885 0.0045407824
000020 80 4c f4 3d 05 95 d0 bd 67 b3 da bd 45 a1 6b bd
       0.11928654 -0.10184673 -0.106787495 -0.057526845
000030 ea 43 07 3e d2 65 75 bc ba 87 91 3d 84 bb 2a 3b
       0.13209501 -0.014977889 0.07105966 0.002605171
000040 f9 df be bb 88 7b e7 3d ad 2b 0c bd 14 56 a1 bb
       -0.0058250395 0.113028586 -0.03422134 -0.0049235914
000050 ca f9 b1 3d 19 7d 27 3e 1e e3 d8 bd 67 0c 03 bc
       0.086902216 0.16356315 -0.10590194 -0.007998562
000060 8f 59 73 bd 7b 28 a7 3d 07 ea cc bd 5f 16 c0 3d
       -0.05941158 0.08162018 -0.10005575 0.09379267
000070 b8 2b 44 3d ae 0b 14 bd d9 27 43 bd f7 78 d1 bd
       0.047893256 -0.03614395 -0.047645424 -0.1022815
000080 70 38 79 bd f0 0d e1 3d 03 b1 99 bb c3 c4 9c 3d
       -0.06084484 0.109889865 -0.004690291 0.07654717
000090 24 e7 81 3d a1 f9 b9 bc 3d bf 10 bc ce 30 0f 3e
       0.06342915 -0.02270204 -0.008834657 0.13983461
0000a0 ea c4 c0 ba b1 fc a2 ba 19 f7 1a 3e a8 9e 41 3d
       -0.0014707122 -0.0012434927 0.15133323 0.047270447
0000b0 42 6e 18 bd d9 d3 be 3c 3f 81 44 3b b1 4a aa 38
       -0.037214525 0.023294376 0.0029984263 8.120144e-05
0000c0 4a 32 fe 3c 8b c0 f0 3c 80 79 55 3d 18 30 0d bd
       0.031029839 0.029388687 0.052117825 -0.034469694
0000d0 16 8f 86 3c bd ab 3d 3d c8 12 d0 bc ca 62 f1 3b
       0.01642565 0.04630636 -0.02539958 0.007366513
0000e0 33 31 20 3d 19 85 d4 3d cc 03 8b bd 93 0e f6 3d
       0.03910942 0.10376949 -0.067878336 0.120144986
0000f0 ad 21 c4 3c 42 97 9e bd f4 8c 2f 3d 1c 1f 61 3e
       0.02394184 -0.07743694 0.042859033 0.21984524

weight f4 [1, 64]
000000 32 c6 24 be 48 30 71 bc 2b ff f5 bd b8 75 71 39
       -0.1609123 -0.014720984 -0.1201156 0.00023027405
000010 19 89 1b be 3c cc 18 be 46 b1 20 3e 69 e6 60 bb
       -0.15189017 -0.14921659 0.15692624 -0.0034317023
000020 8c 13 f9 3d dd 25 e1 bb 9c 76 88 bc 26 f3 00 3d
       0.121619314 -0.0068709687 -0.01665812 0.031481884
000030 0e b4 09 3e 79 b4 d8 bd 58 73 91 bd d7 77 e6 3d
       0.13447592 -0.105812974 -0.07102078 0.112533264
000040 04 4d 24 3e 7e 3c 36 3e 4d 78 6e bd 0d 15 1a be
       0.16045004 0.17796513 -0.058220197 -0.15047093
000050 b6 ab ff 3d 04 38 4e 3e 9e 92 aa 3c b8 05 1e 3d
       0.12483923 0.20138556 0.020821866 0.038579673
000060 97 4e a3 bb ec c2 a5 bd 38 95 e5 bc f4 15 11 3e
       -0.004983734 -0.08093819 -0.028025255 0.1416853
000070 86 65 1e be 1f 94 c5 bd cc 12 17 be ff ff 02 3c
       -0.15468416 -0.096473925 -0.14753264 0.007995605
000080 e3 1b b0 bd 1c 5c 25 3e 9c 0e d5 bd c9 b2 1b be
       -0.08599069 0.16148418 -0.10403177 -0.1520492
000090 d4 c6 1e be 90 9d f2 bd 97 1e 3f ba c6 30 70 3e
       -0.15505534 -0.11846459 -0.000729063 0.23456106
0000a0 a2 1c ee 3d be da fc bd d9 cf 31 3e 19 81 11 bd
       0.11626555 -0.12346409 0.17364444 -0.035523508
0000b0 a3 87 e5 3d aa 62 3d bb 17 37 97 3d bb a7 00 3e
       0.11207511 -0.002889792 0.073835544 0.12563984
0000c0 7b c4 02 be 8a 2e f8 bd 30 6f 11 bd 10 ec 9d bd
       -0.12770264 -0.121182516 -0.035506427 -0.07711041
0000d0 0e fb 96 bd a6 cb 95 bb 13 b6 70 bc b7 e6 61 3d
       -0.07372104 -0.004571396 -0.014691847 0.055151667
0000e0 4e c4 d7 bd b8 5b 33 3e 52 36 07 3d 48 db 51 3e
       -0.10535489 0.17515457 0.03301079 0.20493805
0000f0 db bd ec bd a3 1d 83 3d a7 1f 1e 3e 1b 31 35 3e
       -0.115596496 0.06402137 0.15441762 0.17694513
