models/model.pth (torch, 956223 bytes, 7 tensors)

weight f4 [256, 768]
00000000: 1242 e53c 988d 803c f349 37bd 3d06 87bc
00000010: 2563 3a3d 9e00 b03c a253 3bbc 21bf 533c
00000020: dfad 5f3c 8120 103d 5b2c af3b 281b 3c3c
00000030: b6ed ab3c 58be 24bd aa3b 8a3b e2de e3bc
00000040: 17a3 933a 1228 10bb b0ee 12bd aea0 ae3c
00000050: f452 19bd fb19 c43c 9ea8 31bc 5808 16bb
00000060: f298 493d 4f94 e5bc 3999 16bd 5924 89b8
00000070: 8c19 96bc 34f4 423d 0789 893c ddac 673c
00000080: b390 de3c 1be0 a0b7 45b8 5d3c 4f57 21bc
00000090: 26fc 6cbc 53e3 59bb 8158 1d3c 4eb5 febc
000000a0: c76e 6cbc 17bc 893c 6733 5a3c d80f 23bc
000000b0: 6798 063d 7c14 0f3d da89 fc3c 661d cfbc
000000c0: f572 daba fac5 3e3d d783 49bd c3b6 1b3d
000000d0: cfdd 3ebc e15d a1bc 5317 48bc 5c24 7fbc
000000e0: f68c bfbc 8dce 28bd 6dff e3bc 62fa 2abd
000000f0: 8d11 e0bc 6a2b 2fbc 0437 19bb 2aa9 57bc
00000100: 335e 973b b964 f73b f3cb d63c 431c 13bd
00000110: 05cd 02bb b20e 95bc 224e 523c 1368 c83c
00000120: dd61 eebc 8f86 9abc 5f97 0bbd c5ed 4c3d
00000130: bf7d 26b9 a330 54bd 563e 033d fe6b 7ebc
00000140: c703 59bc 7b07 4fbd 9813 0bbd 41c4 42bd
00000150: 8de0 0d3c fa47 e0bc 1cb2 ebbb 8c35 c13c
00000160: a05c 8a3c 7984 28bd 8b0a 933c 26cb 88ba
00000170: b67e 1bba 0a23 063c c0e0 0abd 6847 a03c
00000180: ae7e 71bc 7b3d b8bc aecd 8bbc 2a60 1fbd
00000190: 745b babc 1e9a 963c eb51 7f3c bdf1 723c
000001a0: 6a88 393b 1d61 213d 5306 1dbc 2b20 33bc
000001b0: 5348 803c 5991 b7bb cb25 1fbd e48b dbbb
000001c0: a2ba 8d3c edb9 c4bb f3fb b1bb ef43 503c
000001d0: 5dde 91b9 7538 d1bb 6ec3 193c 2c5c 95bb
000001e0: 24e2 d53c fcad f4bc 60ec 34bd ecbc 62bb
000001f0: 83b3 49bc e094 cbbc e334 b63c bb44 0d3d
00000200: 59e3 b6bb 31eb 3ebd b736 e3bc 13e4 b0bc
00000210: d092 40bd 8307 413d a77e 1abc a69c 87bc
00000220: 056b 50bc 15c5 2ebc 6d6e 593d 0ddd 903a
00000230: 069d a73c ec08 773c 951d 4d3d 39b0 29bd
00000240: 9b3d 373c d22a a33b 2b5c 523d f01c 85bc
00000250: a864 0d3d 9e33 1abd ea96 94ba 5247 b6bb
00000260: 70d7 4f3c 7f13 833c 7a8c 253d acce 2abd
00000270: be59 913c 6ec0 bbbc 5dfc a2bc b0c0 d23b
00000280: 68e6 06bd 7809 ca3c c0e0 babc 9bf2 fe3c
00000290: 24b1 843b 9581 afbc 1444 893c ae09 2d3d
000002a0: 0f20 d5bc 2487 7ebb d463 393c 9a49 3d3d
000002b0: 60e1 abbc 27d1 343d a636 dabc 2e10 303c
000002c0: db2e 1bbd d433 54bd 07aa 99bb 9091 273c
000002d0: c482 403a 27cb 843a 55f6 55bd 5ccb acbc
000002e0: 166c bfbc 44cd 1abd 493e 23bd 6980 24bc
000002f0: e34a a3bc 5765 14bc 2c53 b23c d212 c9bb
00000300: 39c4 16bd 998e 2fbd 205a 1cbc 71dd 3b3b
00000310: 238a 51bd 2faa 1e3c 38b5 52bd 5eb5 25bc
00000320: 98ca f63c 378d 4a3d 4334 b33b 7d37 5bbd
00000330: 5836 1f3c 8916 873c 3d50 40bb 7d1c b03b
00000340: 78fc 5bbd 2d7d 11bd 5f4a 4a3d 565a 153d
00000350: e500 ab3b 7016 8bbc ee00 56bd 7617 eb3b
00000360: a6d5 7e3c 0fff a93c 58d4 133d 42c1 c0bb
00000370: 6b03 2a3c 3f31 8c3c e4b3 23bc 259d e1bb
00000380: c244 1a3d f04f 2abd b471 09bc 7d0f 58bc
00000390: 19a4 c2bb ea49 f8ba e1e3 6a3c f551 7db8
000003a0: 432b 07bd 35ff 17bd 0839 333d c200 b03b
000003b0: efd5 c5bb 8f68 ae3c 1b75 ddbc 60e7 e4bc
000003c0: a67e 833c 9ba8 89bc b6ad 89bc ee33 d7bb
000003d0: 61f9 423c 16e6 14bb 2e2d edbc 39af f93c
000003e0: e44c 813b 90af 74bc f9dd b33a 7ab3 1f3d
000003f0: 375e 2bbd 8639 1a3d 5f28 30bc 38a5 443d
0.027985606 0.015692517 -0.044748258 -0.016482467 0.045504708 0.02148467 -0.011433514 0.012923987
0.013652294 0.03518725 0.0053458638 0.011481084 0.020987373 -0.04022059 0.0042185383 -0.02781624
0.0011263815 -0.002199654 -0.03587216 0.021316852 -0.037432626 0.02393817 -0.010843424 -0.0022893157
0.049218126 -0.02802482 -0.03676722 -6.539439e-05 -0.018322729 0.04759617 0.016788973 0.014140335
0.027168607 -1.9177844e-05 0.013532703 -0.009847476 -0.014464414 -0.0033247068 0.0096036205 -0.031092312
-0.014430708 0.016813321 0.013317919 -0.009952508 0.032860186 0.034931645 0.030827451 -0.025282573
-0.001666634 0.046575524 -0.049197998 0.038016092 -0.011649563 -0.019698085 -0.012212592 -0.015572634
-0.023382645 -0.041212607 -0.027831757 -0.04174269 -0.027352119 -0.010691503 -0.002337874 -0.01316289
0.0046193837 0.007549849 0.026220297 -0.035915624 -0.0019958627 -0.018195484 0.012836011 0.024463689
-0.0290994 -0.01886299 -0.034079906 0.050031442 -0.00015877838 -0.051804196 0.03204187 -0.015528677
-0.0132455295 -0.050544243 -0.033954233 -0.047550444 0.008659494 -0.027378071 -0.007192863 0.023585103
0.01688987 -0.04114196 0.017949363 -0.001043652 -0.0005931662 0.008187065 -0.033905745 0.0195653
-0.014739675 -0.022490254 -0.01706585 -0.03891007 -0.022748686 0.018384036 0.015583496 0.014828143
0.002831007 0.039399255 -0.009584027 -0.010932962 0.015659487 -0.0056020436 -0.0388544 -0.006700026
0.017300908 -0.0060036094 -0.005431646 0.012711509 -0.0002782223 -0.006384904 0.009384973 -0.004558107
0.026108809 -0.029868118 -0.044170737 -0.003459747 -0.012310865 -0.024851263 0.022242015 0.034489375
-0.005581301 -0.046611015 -0.027736051 -0.02159313 -0.04701501 0.047126304 -0.00942961 -0.016554188
-0.012720828 -0.010667105 0.053083826 0.0011052206 0.020460617 0.015077811 0.05007704 -0.041427825
0.0111841215 0.00497947 0.05135743 -0.01624915 0.03451982 -0.037646882 -0.001133648 -0.0055627013
0.012685642 0.016000507 0.040417172 -0.041701004 0.017742988 -0.022918906 -0.019895727 0.0064316615
-0.032934576 0.024662718 -0.022812247 0.031121543 0.004049437 -0.021424094 0.016756095 0.04224556
-0.026016263 -0.0038837874 0.011315305 0.04621277 -0.02098149 0.044144776 -0.026637387 0.010746045
-0.03788648 -0.05180724 -0.0046894583 0.010227576 0.00073437043 0.0010131345 -0.052236874 -0.021093063
-0.02336697 -0.037793413 -0.03985432 -0.010040381 -0.01993317 -0.009057364 0.021768175 -0.0061362768
-0.036808226 -0.0428606 -0.009542972 0.0028665925 -0.051157128 0.00968413 -0.051442355 -0.010114042
0.030125901 0.04945108 0.0054688766 -0.053519715 0.009717546 0.016490238 -0.00293447 0.00537449
-0.05370757 -0.035519768 0.049387332 0.036463104 0.0052186125 -0.016978472 -0.05224698 0.0071744276
0.015553867 0.020751504 0.03609118 -0.005882413 0.0103767915 0.017113326 -0.00999162 -0.006885188
0.03766323 -0.04158014 -0.008388925 -0.013187286 -0.005939972 -0.0018942927 0.014336557 -6.039623e-05
-0.033000242 -0.03710862 0.04375556 0.005371184 -0.0060374658 0.021290092 -0.02703338 -0.02794236
0.016051602 -0.01680403 -0.016806465 -0.00656747 0.011900277 -0.002272015 -0.028952207 0.03047906
0.0039459337 -0.0149344355 0.0013722769 0.03898952 -0.041837897 0.037652515 -0.010751813 0.048009127

bias f4 [256]
00000000: 55c3 13bd 7f3f 1bbb acea b8bc b739 53bd
00000010: e098 8e3b 3558 aebb 7513 203d d12e 32bd
00000020: 9868 2c3c 04c2 573d ab5f 4f3d e36f 20bd
00000030: a84b d3bc e8c8 113d e52e cb3c 6d7d 613c
00000040: 0b75 6b3d 4015 cdba b2b0 2fbd 0754 313d
00000050: c164 e23c 5506 0f3d 1044 e53b ddb4 20bd
00000060: 5323 e1bc 3bc9 3e3c d74b 47bb 7723 8b3b
00000070: a70c 903c 7fbb 6f3c 6c65 b4bb db11 49bd
00000080: bfcb 123c 0b72 93bc cfbd 1cbd 0a30 07bd
00000090: 1df7 fabc ac34 0a3c 958a 6aba c8ae 003d
000000a0: 6667 04bd f4be 833c fbc8 8c3d cc7d 103d
000000b0: 1fc4 8cbc d472 7d3c f7f8 7f3d 31ac 92bc
000000c0: aeb9 3e3d 061c 44bd 0dee 873d b9bd afbc
000000d0: 10d0 403b c146 7dbb 3abb 003c 3a51 883c
000000e0: 5dd9 07bd a753 25bd 768c 6f3d 5ebf 1bbd
000000f0: e440 dc3c 0b16 59bd 83b3 12bd 5e1a 903d
00000100: 4a5a 63bc 0a5e e83c 7e52 113d 74a3 42bc
00000110: 8f41 e3bc 5c21 94bc 6c23 83bc 2cd1 703d
00000120: b827 9d3b b337 813c 7027 6c3d 6e84 d2bc
00000130: c07c 6d3a 6832 723c 386c a73c c37d 873c
00000140: 3e78 a7bb d6ea ac3c 0bb4 803c dbea 6b3d
00000150: 1c3d 113d ea00 86bb dd8f e63c 2b88 24bd
00000160: 108f 1fbd 44ce 033d 047b 933d c511 833c
00000170: 6111 753c ac8f 453d c8c9 9fbc 62d9 08bc
00000180: f5c2 1b3d 511f 603c 8c19 32bc 1174 8ebc
00000190: 8313 90bc 2d5f 7e3c 4c74 1abd 0fdb 073d
000001a0: 3c0d d5bc e8cb 91bc b6d4 c7bc 54a1 5c3d
000001b0: 34b5 67bc 1ebd 09bd 4808 e73c 9dab b4bb
000001c0: a71e b1bc 7966 ffbc 8cd3 ee3c dea3 423c
000001d0: a519 18bd 6c93 82bc 7e78 493d 656f c63c
000001e0: a08a 003d 6842 e03c 59f9 57bd ff2b 443d
000001f0: 4752 013d ee5a 3a3d f441 853c 891e 0bbd
00000200: fbbd 17bd 62c1 68bd 84dc 133c 4473 b03b
00000210: 58ea 38bc 36e9 f3bc 3654 15bd 2ad8 7b3d
00000220: c353 293d 18a3 30bd c6be 0b3d 7bfa f73a
00000230: 4460 98bc bda6 dabc 5e84 e13b e90a 623d
00000240: f88b 1e3c af48 713d 248a 793d 572c 4d3d
00000250: 35aa 583d f70d 80bc b0bc 053d 8614 153c
00000260: 15aa e0bc 71b3 933d 7728 2c3c c91f 423c
00000270: 6dac 0bbd 1bfa 5cbd 6124 753b df4f 67bc
00000280: fe2c 8a3d 1887 863d 2f59 0bbd 5974 44bd
00000290: ea18 713c 3160 ee3c 4d72 8d3c c1ff 39bc
000002a0: 8001 613d 039e 22bd ee7e ac3c 4918 4fbd
000002b0: 4ea2 05bd cefa 61bc f3ac b4bc 979b b1bc
000002c0: 4e30 c03c 72f5 b83c 862e 55bc 547c f93c
000002d0: ac30 f8bc 5d38 7d3d de15 743c 7d65 09bd
000002e0: 8515 59bd 06ae 10bb 484b 133d 802f 83bb
000002f0: b60c 033d 99b2 fbbc 1306 c3bc c95b 453c
00000300: bf63 243d 0dff d1bc 75b1 063d e4b3 f43c
00000310: 5252 9d3c 044c 733c ec4e a73a ede3 323d
00000320: 481a 5e3c cd94 e0bc 300c 09bd 119b 893d
00000330: 6f62 73bc 648f 18bb 779d 43bd 1065 58bb
00000340: 512b 953d 2bf9 86bc e6d1 973c 881a 803d
00000350: e039 9d3b ca27 ad3c 4282 1dbd 43b0 103d
00000360: 7956 fc3c d996 36bd 3c87 6bbc ea96 693b
00000370: abb8 f1bc 1a0d adbc 9f67 44bc 665c 50bd
00000380: ed0b 743b 652d 253c f276 d13c 9897 e43b
00000390: b727 b9bc 2007 7cbc ad91 433d b622 393c
000003a0: 69ca 4f3d e091 043c a493 debb ac65 3ebc
000003b0: b8bd 803d 75a9 823c 757f 03bb fa6e 993b
000003c0: c9db febc 0184 c9bc 80ab 43bc d480 f1bb
000003d0: 2ac9 3fbd fa0b d9bb ce00 343d 40df 58ba
000003e0: 08b0 0c3c e684 753d 3cbb 863b 6a8e 943b
000003f0: 7d08 11bc 6b44 f4bc f04b 45bd bb1e 933b
-0.036074955 -0.002368897 -0.022572838 -0.051568713 0.00435172 -0.0053205737 0.039081056 -0.04350168
0.010522984 0.052675262 0.050628345 -0.039169203 -0.025792912 0.03559199 0.024802634 0.013762814
0.057484668 -0.0015646592 -0.04289312 0.043293025 0.027635934 0.034918148 0.006996639 -0.039234985
-0.027482664 0.011644657 -0.0030410194 0.004246171 0.017584158 0.014632105 -0.0055052545 -0.049089294
0.00895971 -0.017998716 -0.038266953 -0.033004798 -0.03063541 0.0084354095 -0.0008947042 0.031416684
-0.03232517 0.016082264 0.068742715 0.03527622 -0.017183362 0.015469272 0.06249329 -0.017904373
0.046563797 -0.047878288 0.066372015 -0.021452771 0.002942089 -0.003864691 0.007857138 0.016640294
-0.03316628 -0.04036298 0.058483563 -0.0380243 0.026886411 -0.052999537 -0.035815727 0.07036279
-0.013876507 0.028365154 0.03547906 -0.011879791 -0.027741222 -0.018082313 -0.016008101 0.05879323
0.0047959946 0.01577363 0.057654798 -0.025697913 0.0009059422 0.014782526 0.020437345 0.01653946
-0.0051107695 0.021108072 0.015710851 0.057597023 0.03545867 -0.0040894644 0.028144771 -0.040168922
-0.038954794 0.032179132 0.07201198 0.015999684 0.014957757 0.04823272 -0.019505396 -0.008352609
0.038027722 0.013679341 -0.010870349 -0.01738933 -0.017587429 0.015525621 -0.037708566 0.033167895
-0.026007287 -0.017797425 -0.02439342 0.053864792 -0.014142323 -0.03362762 0.028202191 -0.005513622
-0.021621061 -0.031176792 0.029153608 0.011879889 -0.03713383 -0.015939437 0.049187176 0.024223039
0.031382203 0.027375415 -0.05272803 0.04789352 0.031572606 0.045496874 0.0162668 -0.033964667
-0.037046414 -0.05682505 0.009024743 0.0053848345 -0.011286341 -0.02977429 -0.036457263 0.061485447
0.041339647 -0.04312429 0.034117483 0.0018919253 -0.01860059 -0.026690835 0.0068822345 0.055186186
0.009676926 0.058907207 0.060922757 0.050091114 0.052896697 -0.015631659 0.03265065 0.009099131
-0.027424851 0.0721196 0.010507694 0.0118483985 -0.034099985 -0.053949457 0.0037405717 -0.014118164
0.06746863 0.06568736 -0.0340206 -0.04796252 0.014715413 0.029098602 0.017266417 -0.01135248
0.05493307 -0.039701473 0.021056619 -0.05056027 -0.03262549 -0.013792707 -0.022055125 -0.021680636
0.023460533 0.022577975 -0.01301158 0.030454792 -0.030296646 0.06182133 0.014897792 -0.033544052
-0.05299904 -0.0022076382 0.035960466 -0.004003465 0.031994544 -0.03072481 -0.023806607 0.012045809
0.040134188 -0.025634313 0.03288408 0.029870935 0.019204292 0.0148496665 0.001276461 0.0436744
0.013556071 -0.027414704 -0.03345889 0.0671903 -0.014855011 -0.0023278827 -0.047757592 -0.0033019222
0.072836526 -0.016476234 0.018532705 0.062550604 0.004798159 0.021137137 -0.0384543 0.035324346
0.030802952 -0.044577453 -0.014375504 0.003564293 -0.029507002 -0.021124411 -0.011987596 -0.050869368
0.0037238554 0.010081624 0.025569413 0.006976079 -0.022601945 -0.015382558 0.04774635 0.01129978
0.050730143 0.00809142 -0.0067925025 -0.01162092 0.06286186 0.015949944 -0.0020064984 0.004682419
-0.031110661 -0.024599077 -0.011942744 -0.007370094 -0.046822704 -0.006623742 0.04394608 -0.0008273013
0.008586891 0.059941195 0.0041116755 0.0045335786 -0.008852121 -0.02981778 -0.048168123 0.0044897473

weight f4 [128, 256]
00000000: a1ff 8a3b 086e c03c 30a2 bb3c d7b5 ce3a
00000010: ada2 7b3c 6ca2 b439 4c13 7ebc 7f5c 053d
00000020: 0cce 673d b067 a73d a942 38bc b1e9 6abd
00000030: 96f7 e8bc 71e6 8f3d bf66 bebc b2e7 9abc
00000040: 2c61 10bd 4056 e23c 03a5 11bd 0664 7f3d
00000050: f227 953d 17f1 78bc 6a2c 6c3d 9629 f33c
00000060: 0dbb 97bd 8862 503c d95b afbc 12a6 7cbd
00000070: 5d30 22bd fafa 0fbd ca33 83bd c045 1c3b
00000080: 6a27 9a3d cb70 08bc d754 a23c c8cc 413d
00000090: c876 38bc f655 623d 917f 51bd 705e 1fbd
000000a0: b483 2f3d c71f 983d d54c 92bb 4400 a73d
000000b0: 6801 173c 49dc bebc 7b6f 0f3d fa1b 783d
000000c0: 97e1 373d fcb5 953c 5b11 133d caf9 f53c
000000d0: 9030 0abd aaf3 57bd 807d 513c 979c 993d
000000e0: 3cb1 89bd ba74 273d 74c3 273c e608 283d
000000f0: 5cbb ba3c 5194 9dbc 0223 00bd 631b a83b
00000100: 289a b9bc b677 3c3d 6871 6d3d 1286 553d
00000110: 3ad1 58bd dd9a 98bd e08e 91bd d5a8 74b9
00000120: 0ee2 62bd 8aae e7bc fd22 133d 20d6 55bc
00000130: 9075 61bd 78fa f63c 6602 b33d 6f0e 27bd
00000140: 460a 833c 9ced 943c 03bb 743d e38f 183d
00000150: 2060 833c c79e 88bd 727d 983c 5bc4 173c
00000160: fc00 febc 4f0e 90bc 7974 7a3d 697e 29bc
00000170: 665c 2a3d 88e4 043d 7e4e fabc c8f1 df3c
00000180: a3b9 f0b8 a00b 0fbd 58e9 be3c 226d 353d
00000190: 8062 7dbd ed23 45bd 88bc 183c 68c1 e83c
000001a0: 4837 6dbc 6008 603d 1060 f9bb 8979 903c
000001b0: 2017 bebb eea2 0b3d fd44 8b3d c10f 37bd
000001c0: ec8f f1bb 2f40 1ebd 2ac3 683d 5cf6 f8bc
000001d0: b622 5dbd c0ee 6d3d 9f5c 523d a5bf a23d
000001e0: 0771 983d 0f9c 8437 55f8 db3c 70b1 913d
000001f0: f8f7 243c 1e00 8e3d 26bd 8b3c 6038 d63b
00000200: 41f9 4cbb 5ea1 223d 5937 b6bc 3f4d d93c
00000210: 5ca0 41bc e220 8abd a738 75bc 8171 1f3d
00000220: 413e e33c 6937 edba 7ce4 a63c 4b2b 9c3c
00000230: 0c24 54bd 32c1 453d ab25 34bd a15a 0d3d
00000240: 001a 73bc f9ee 07bd 8e9f d9bc 637a 783d
00000250: f54d 87bc 461e e5bc f873 933d d457 2b3d
00000260: 025a 21bc 29be 3aba 8029 823d 82c9 b93c
00000270: a0dd 76bb 7f15 a3bb 9bc9 8e3b 79ed 4abd
00000280: a973 5ebb 16e3 1d3d 62d5 643d 60ca 19bd
00000290: 39ec 513c c07c 223d 6a93 5b3c 67cb 9dbc
000002a0: 128b d7bc 2674 c33c 0450 b2bb b223 96bd
000002b0: ec89 0dbd 6e90 29bd e23d 5f3d 9a97 00bd
000002c0: cb87 2a3b a2d8 ef3c 4a3e 18bd aaa9 313d
000002d0: 71a9 2d3d a3c5 03bd 09b5 1f3d e5ab 163d
000002e0: 7508 98bd 3ff2 84ba 0fe9 cf3a 8cbf 143d
000002f0: 195e e33b 1cc3 5abc 2090 c43c a77f 82bc
00000300: 0139 7a3d 22ac 9a3c fa2a 0d3d b883 02bd
00000310: c500 88bd 9620 333c 08d6 6c3d 13bb 093d
00000320: 38a5 7e3c 729b 5abd 8018 073c 707f 323d
00000330: ec3b bd3c 9c16 a7bc 1c92 70bd 44cf 06bd
00000340: 5c51 923d 4af2 8a3b 1c2e 3a3d 2550 6e3d
00000350: 05ff d2bb 9086 58bc 5995 74bd 8ec8 5b3d
00000360: dfaf 223c a842 8c3a 9818 493c 0271 08bd
00000370: e2a4 803c d114 21bd f2ea 58bd 1eef 0fbd
00000380: 12b3 a23d feab 8f3c b00d b4bb fef7 5fbd
00000390: 45f4 bf3c ea8d 3fbd 4ddc 1a3c 7ece 87bd
000003a0: feb0 5d3d 444b c0bc 1406 c43c 246a e1bb
000003b0: ad3e c1bb 5e77 7bbc 98f1 da3c 2510 f13c
000003c0: 714b 63bd 6c14 c2bc c020 7f3d 69e1 0ebd
000003d0: 607c 1a3d 0cea 9ebd baea e5bb 976a 193c
000003e0: 305a e93b 106b 10bd c7be e53c beb6 fd3c
000003f0: 4087 843b 8c72 453d 3de8 7c3c 22ac 333d
0.004241899 0.023489967 0.022904485 0.0015770745 0.015358609 0.0003445329 -0.01550753 0.032558914
0.056592986 0.08174074 -0.011246362 -0.05735177 -0.02843837 0.07026375 -0.023242353 -0.018909309
-0.03524892 0.027629018 -0.035557758 0.06235125 0.072830096 -0.015194199 0.057659544 0.029682916
-0.07408724 0.012718804 -0.021406101 -0.061681814 -0.039596904 -0.03515146 -0.06406362 0.0023845285
0.07527049 -0.008327673 0.019815845 0.047314435 -0.011258788 0.05525776 -0.051147047 -0.038908422
0.04285021 0.07427936 -0.0044647255 0.081543475 0.009216644 -0.0232984 0.035018425 0.060573556
0.044892874 0.018275253 0.035905223 0.030026335 -0.03373772 -0.05272261 0.012786269 0.0750057
-0.06723258 0.040882803 0.010239471 0.04102411 0.022794418 -0.019235762 -0.031283386 0.005130218
-0.022656515 0.046012603 0.05796948 0.052129813 -0.05293391 -0.07451413 -0.07107329 -0.00023332548
-0.055391364 -0.028281469 0.03592204 -0.01305154 -0.055043757 0.03014873 0.08740692 -0.04078525
0.01599611 0.018179707 0.05974866 0.037246596 0.016037047 -0.066709094 0.018614504 0.009263123
-0.031006329 -0.017584948 0.061146233 -0.01034508 0.041592024 0.032444507 -0.030555006 0.02733697
-0.00011478669 -0.034923196 0.023304626 0.04429353 -0.061861515 -0.048129965 0.009322293 0.028412536
-0.014478512 0.054695487 -0.0076103285 0.017636077 -0.0058010966 0.03409093 0.06800268 -0.04469276
-0.007371893 -0.03863543 0.056826748 -0.03039091 -0.05398818 0.058089018 0.05135786 0.079467095
0.07443433 1.5808297e-05 0.026851812 0.07113922 0.010068886 0.06933616 0.017057966 0.006537482
-0.0031276497 0.039704673 -0.022243189 0.026526092 -0.011818018 -0.06744553 -0.01496712 0.038926605
0.027739646 -0.0018098179 0.020372622 0.019063612 -0.05179219 0.04827995 -0.043981235 0.03451026
-0.014837742 -0.033186886 -0.02656534 0.060663592 -0.016516665 -0.027968537 0.07199854 0.041831806
-0.00984812 -0.0007123673 0.06355572 0.022679094 -0.003766872 -0.004976928 0.0043575293 -0.049542878
-0.003394345 0.038546644 0.05586756 -0.037546515 0.0128126675 0.039669752 0.0134018455 -0.019262029
-0.026311431 0.023859095 -0.0054416675 -0.07331027 -0.03455536 -0.041397505 0.054502375 -0.03139458
0.002602088 0.029278103 -0.03716878 0.043374695 0.04239792 -0.032170903 0.038991008 0.036785025
-0.07423488 -0.0010142996 0.0015862304 0.036315486 0.0069387075 -0.013352182 0.023994505 -0.01593001
0.06108952 0.018880907 0.034464814 -0.031863898 -0.06640772 0.010933062 0.057821304 0.033625674
0.015542321 -0.0533709 0.008245587 0.043578565 0.023099862 -0.020396523 -0.05873309 -0.032912508
0.07144424 0.004240309 0.04545413 0.0581819 -0.006439092 -0.013215676 -0.05971274 0.05365806
0.009929626 0.0010701017 0.01227393 -0.033310898 0.015703622 -0.039326493 -0.052958436 -0.03514015
0.07944311 0.017538067 -0.0054947957 -0.054679863 0.023431906 -0.0467662 0.009451938 -0.06631182
0.05412387 -0.02347339 0.02392868 -0.006879108 -0.005897364 -0.015348284 0.026726529 0.029426644
-0.05549187 -0.023691379 0.062287092 -0.034882937 0.03771627 -0.07759485 -0.007016507 0.009363792
0.007121347 -0.035258353 0.028045071 0.030970927 0.0040444434 0.048204944 0.015436229 0.04386533

bias f4 [128]
00000000: f600 38bd 0916 983d e113 97bb 2dd6 953c
00000010: 890e af3c 7122 94bd 8f30 7abc f3d9 2cbd
00000020: 9bdc 5a3c 2c7c c6bc a89a 03bc 6e12 6b3b
00000030: 256c 1ebc 296d 67bd 21fc 9abd 3456 b73d
00000040: ac46 8fbd f4ad 813d 4176 d93c ab01 0cbb
00000050: 9d6d 94bd 7133 15bd eb84 323c ae81 263c
00000060: 7983 f9bc 83c1 983d a8c2 8cbb dd75 753d
00000070: 3cf8 b93c fb35 bebc 2642 53bc ac79 f93c
00000080: a6ec 0abd 4f06 d1bc 2a90 b33d 6e36 c2bc
00000090: bb77 023c 6540 5abc 6a6a 883d f166 ff3c
000000a0: f57a ab3c 3337 703c fbe9 923c ffc5 2c3d
000000b0: 4f8f 19bb f6ad bf3d 8d9e ec3c 9536 41bd
000000c0: 98a9 86bd cec0 a43a cfd4 51bc 4e25 3c3c
000000d0: f422 bbbc 59ad c03d f44b 483c 5b9d ed3c
000000e0: 95d1 43bc b450 44bd 80d6 03bd 89aa 48bd
000000f0: 83bd 103d 31cd 79bd ba92 0abd 9255 a4bc
00000100: b9e5 25bc 06ff 51bc 7261 9f3d c7d5 26bc
00000110: 19e3 8cbd d3be b03d 0f74 85bc eca1 b9bc
00000120: 3e9b b63d 088e 00bb 5654 3fbd cece d43b
00000130: c60c a23d 1431 aabd 6885 6dbd 7db9 47bd
00000140: edb0 bcbc 16e0 a9bd 7eb9 2c3b aecd 0a3d
00000150: 484d b5bb fa00 723d 6b79 8f3c a81c 883d
00000160: 7eb7 ab3c 67cb 813d 9b7d cfbb 334a 1bbd
00000170: cb0b cbbb 5357 2b3d f79f cebc b70c ea3b
00000180: 3f0e 393b 5861 c13b ee62 fd3a 2fb7 e93b
00000190: d88b c23c f62c db3c db46 6ebb a512 79bc
000001a0: 9abc 563d ef56 d13c 9948 fa3c 261e 373d
000001b0: 7f09 193d 46b7 0abd 3e6e 243d 7ef5 ba3d
000001c0: 47c5 b63a 3d02 ffbc d05b 4c3d 74e1 ce3c
000001d0: 2c9b 053c f8e6 ca3d d193 633d ea03 383c
000001e0: 3dae af3d 24e5 2a3d 3e70 253d 7869 ccbc
000001f0: afb0 2e3c a4c9 963d 2862 213c ec71 31bd
-0.04492279 0.07426078 -0.004610524 0.018290604 0.021369236 -0.07233132 -0.015270366 -0.04220004
0.0133582605 -0.024229132 -0.008032478 0.003586914 -0.009669338 -0.056500588 -0.07567621 0.08951989
-0.069959015 0.06332007 0.026545646 -0.00213633 -0.072474696 -0.03642601 0.010895948 0.010162754
-0.030458199 0.074587844 -0.004295666 0.059926856 0.022701375 -0.0232191 -0.012894189 0.030453525
-0.03391709 -0.025515703 0.087677315 -0.023707595 0.007963116 -0.013321017 0.06660922 0.031177016
0.020932654 0.014661598 0.017933836 0.04218101 -0.0023431366 0.09359352 0.028884197 -0.047171194
-0.06575316 0.0012569667 -0.012807085 0.0114835035 -0.022843815 0.094080634 0.01222514 0.029005697
-0.011951824 -0.047928527 -0.032186985 -0.04899076 0.035336982 -0.0609867 -0.033831336 -0.020060334
-0.010125571 -0.01281715 0.07782258 -0.010182804 -0.06879253 0.08630147 -0.016290693 -0.022660218
0.08916329 -0.0019615907 -0.04671129 0.0064943796 0.079125926 -0.08310142 -0.057988554 -0.04876088
-0.023033584 -0.08294694 0.002635568 0.033887558 -0.0055328943 0.059082963 0.017513951 0.06646091
0.02096152 0.06337624 -0.006332112 -0.03791256 -0.006196474 0.041831326 -0.025222762 0.007142629
0.002823725 0.005901497 0.0019331852 0.007132433 0.023748323 0.026754837 -0.003635815 -0.015202199
0.05242596 0.025554148 0.030552195 0.044706486 0.03736257 -0.03386619 0.040144198 0.09128855
0.0013944291 -0.031128997 0.049892247 0.025253989 0.008154672 0.09907335 0.05556089 0.011231402
0.08578155 0.04172243 0.040390246 -0.024952635 0.010662242 0.07362679 0.009850062 -0.043321535

weight f4 [64, 128]
00000000: f93a 8e3d ebf1 f43d 2ce4 4d3d ac28 be3d
00000010: 36d8 1abd 8c65 0fbd 1b82 55bb af65 95bd
00000020: 4b12 a13d de7b 4c3d 9d23 803d 66be 3cbc
00000030: f4ee 9a3d 571d 073d a475 bc3d 11c5 66bc
00000040: 876d 2d3a 8481 f73d 3c6b 863d 5103 283b
00000050: 9ef1 23bd 3962 11bd f7c5 323d 56bf bfbc
00000060: 666b 8d3c a1f9 e63d f3f2 b1bc 70c0 90b9
00000070: 00e2 633b d327 cb3c a1f5 ee3d 72be 6dbc
00000080: 0cd0 e53b 27e7 c73d 075c 973d c2a1 f63d
00000090: 34e9 493d d4c6 593c 4eff 7d3d e2d2 4c3d
000000a0: c834 493d 6998 9a3d 007f bb3d 6c2d 52bd
000000b0: 6614 ea3d 396c da3d 0931 1d3d f09a dc3c
000000c0: c91d 07bd bc9d 4cbd f1fc dd3c 3ffb 8b3d
000000d0: e318 163d 9498 f5bb 293c bcbc 0b1c 2d3d
000000e0: 5e61 a73d dbdc 013d b12d fe3c a0ef 023d
000000f0: 387d d9bb fb61 3a3d e05e dabb 0a80 ea3c
00000100: 9267 a1bc ec2c 9bbc 0fde 723d 82f4 993c
00000110: 99d9 89bd fc45 ec3d 5e17 d9bc 1097 8e3d
00000120: c1f6 083b 5faa b43d 2566 17bd d05b 9f3d
00000130: f5af 403d cf8e dbbc b036 a2bb 4df2 ba3d
00000140: 15ef 633d 3635 4f3c b0a8 64bd 459a a73d
00000150: eee0 3abd 5b77 453c b2a8 bb3c 39d8 f53d
00000160: a5a5 0bbd 2e73 adbc 2990 a33c 562e 293c
00000170: a6cd ecbc fd69 d3ba f394 593d 4af9 2f3c
00000180: 4324 973d 5842 60bc 629f cabc f12b 9b3c
00000190: bb83 bc3c 4c7d 53bd 40d0 54bc f6d3 8d3d
000001a0: af02 933d f141 80bd b293 86bc 9f28 973d
000001b0: e346 e13d c043 123d b2fb b1bc f31a a23d
000001c0: dec2 6c3d eefb f13c 11b8 93bc 7c3d 72bc
000001d0: fae5 dfbc 4c98 373d 925c 523c 508c b03d
000001e0: 3115 99bc e4ed d83c b317 fc3c ead3 7b3d
000001f0: 886b 1abd 7917 753d cf10 283d fcec adbd
00000200: 0eb6 d73d 6639 333c ee05 52bc f4c9 9d38
00000210: 531d 913d 6465 cc3d 88c3 393c 4dcd abbd
00000220: b4eb 993d c0c9 213b b596 653d 38df 143c
00000230: 8357 ce3d ff8f c93c 277b 343d 4757 d53c
00000240: ef9b 23bd 502a 8a3c ca0d e5bc 2c94 14bd
00000250: af73 9b3d 0fc3 6cbd 481f 33b9 dbd9 443c
00000260: 26e1 12bd 1135 e63d ea13 db3c 3168 9ebc
00000270: adf6 203c 8eb3 e33d 73b0 cf3d 200d e63d
00000280: 4066 2e3d 30aa dabb eed2 3abd adfe 0f3d
00000290: a4c6 a9bc fce5 ca3d 70fa 053d a5ff d53c
000002a0: 7656 793b 17f2 b23d c291 473d 3a29 8d3b
000002b0: 07b7 773d 23cc 933d cadb d2bc a8e5 bfbc
000002c0: a4a7 6d3d 057a 56bc 4b3f c53d 9e91 1fbd
000002d0: af07 a03c aa02 0d3d 2981 bb3c 4c2f 1c3d
000002e0: 97e5 d53d 1b8c a23d 45ec cf3d ce17 d1bc
000002f0: 5627 8bbd 9876 833d 85e2 aa3b 163a 673d
00000300: 04eb bd3c 242c 05bc f075 583d 19a7 e93d
00000310: c3c3 be3d 8e46 473c c4c6 b63d 8eb7 f63d
00000320: 565c 053d eea6 833d cb0c 3b3d 2b3b c93c
00000330: f946 d23d e14d aa3c 76fd 763d edde aabc
00000340: 67fc e23d e095 d2ba 64be 743a 8ead 28bd
00000350: 0ed1 203d 8538 27bc 83c5 0bbc 1bd7 803d
00000360: 1025 093d a9f3 f1bc 7d24 913c c8b1 bc3b
00000370: 45f9 c8bc ceef d83c 3979 353d f0b9 fe3c
00000380: 58a0 6c3d 1be2 30bd 284f 663d 012a ba3d
00000390: de9f e43d 97cd 2f3c a194 26bd f87b dcbc
000003a0: 19e6 e03d a0e8 7abd 227c 41bd 39d4 cc3d
000003b0: 4987 8b3c f4c3 963d dfeb a53d 4306 ad3d
000003c0: d71e 763d c60b ea3d 2af5 49bb f63a 223d
000003d0: a9fc 693d 0521 953d b9a0 573c 99a0 683d
000003e0: 5269 7abb 9c11 07bc 9298 6b3c 9796 81bd
000003f0: 847a f93d 1b6b 2d3d 9eb2 fa3d 2110 f53c
0.06944842 0.11960205 0.05026643 0.09285101 -0.03780385 -0.035008952 -0.003257877 -0.07294785
0.07864817 0.049922816 0.06256793 -0.011520004 0.07565108 0.032986965 0.09202126 -0.01408507
0.0006615747 0.1208525 0.06563422 0.0025636742 -0.040025346 -0.035494063 0.043645825 -0.023406666
0.017263126 0.11278082 -0.021722293 -0.00027609197 0.0034772158 0.024799263 0.11667944 -0.014510738
0.0070133265 0.09760886 0.073906 0.120425716 0.049294665 0.013292033 0.062011056 0.0500058
0.0491226 0.07548601 0.09155083 -0.05131285 0.11429672 0.10665173 0.03837684 0.026929349
-0.03298739 -0.049955115 0.02709815 0.06835031 0.036644828 -0.0074949954 -0.022977905 0.042263072
0.08172868 0.031704765 0.031027647 0.031966805 -0.0066372417 0.045503598 -0.006664142 0.028625507
-0.019702706 -0.018942319 0.059293803 0.018793348 -0.067309566 0.11536786 -0.0265004 0.06962407
0.002089903 0.08821558 -0.036962647 0.07781184 0.047042806 -0.026801495 -0.004950367 0.091282465
0.05564793 0.012646964 -0.055824935 0.081837215 -0.045624666 0.012052382 0.022907589 0.12004132
-0.034093518 -0.021173086 0.019966202 0.010325989 -0.028906655 -0.001612961 0.053120565 0.0107405875
0.07379963 -0.013687693 -0.024734203 0.018941851 0.023012033 -0.051633164 -0.012989104 0.06925194
0.07178246 -0.06262577 -0.016427848 0.07380795 0.10999849 0.035709143 -0.021726463 0.079152964
0.057803027 0.029539075 -0.018032106 -0.014785167 -0.027331341 0.044822976 0.012839453 0.086205125
-0.018686863 0.026480623 0.03077302 0.061481394 -0.037700206 0.05983684 0.041031655 -0.08492467
0.10532771 0.010938978 -0.012818797 7.52396e-05 0.07085671 0.09980276 0.011338122 -0.083887674
0.0751566 0.0024686903 0.05605193 0.009086423 0.10075285 0.024604796 0.04406276 0.026042594
-0.03994363 0.01686588 -0.027960677 -0.03627412 0.07590424 -0.05780321 -0.00017082423 0.012014831
-0.03585925 0.1124059 0.026742894 -0.019336792 0.009824437 0.11118232 0.10141077 0.11232972
0.042577982 -0.00667312 -0.045611314 0.035154987 -0.020724602 0.09907147 0.03270954 0.026122877
0.003804592 0.08737581 0.04872299 0.004307893 0.060477283 0.0721667 -0.02573957 -0.023424938
0.058021203 -0.013090615 0.09631213 -0.03895723 0.019534914 0.03442637 0.022888737 0.038131043
0.104441814 0.07936879 0.10152487 -0.025524046 -0.06794612 0.06419104 0.0052149915 0.05645188
0.023183353 -0.0081282 0.05284685 0.114088245 0.09314682 0.012162818 0.0892463 0.12046729
0.03255876 0.06428324 0.045666497 0.024564346 0.10267443 0.020789089 0.060300313 -0.020858252
0.11083298 -0.0016066395 0.0009336232 -0.04118114 0.03926187 -0.010206346 -0.008530977 0.06291028
0.03348261 -0.029535132 0.017717594 0.005758498 -0.024532923 0.026481535 0.04430506 0.031094521
0.057770103 -0.04318438 0.056227833 0.09090043 0.11163305 0.010730169 -0.040669087 -0.026914582
0.10981388 -0.061257005 -0.047237523 0.10001416 0.017032282 0.07361594 0.081016295 0.0844846
0.060088005 0.11428027 -0.0030816295 0.03960701 0.05712572 0.072816886 0.013160878 0.056793783
-0.0038209748 -0.0082439445 0.014379637 -0.06327551 0.12181571 0.04233847 0.122411 0.029914917

bias f4 [64]
00000000: d7de 0abd 8bef b93d ae32 3bbd 6e60 d63d
00000010: 879c cebd e687 833b dcb1 6dbd 9154 65bd
00000020: 56a0 f0bc f3f8 293d d1f1 e83d 3383 a8bd
00000030: 016a 723d 517a 9d3b 8751 ad3d 88eb 7c3c
00000040: 2d3f b3bd eb4a 5e3d a7b3 8a3d 8014 073a
00000050: be39 d93c 5c88 c4bd 569b edbc d0d1 12bd
00000060: dcf2 abba 9240 8fbc c731 d83c 635b 1c3d
00000070: ac3e f23c e89c ea3b 57c0 bf3c 7e0c 13bd
00000080: 81e6 e039 1f0c b2bd 135b c5bd fcad 45bb
00000090: e0cc 38bd e0eb f8bc 6042 6dbd 6cf1 9f3c
000000a0: 298b 1f3d 9054 283d c564 c3bc 1878 fe3c
000000b0: 80ba a73d 2f22 12bd b078 f83c 5570 403d
000000c0: e4bc a3bc 6926 943d 8d30 d23d 9a9a cdbd
000000d0: bd81 1f3c 40c3 babd afc5 6a3d 57a1 f3bd
000000e0: cd66 03bd 67b6 703c 769b 343d 66bd aebd
000000f0: 413b ad3d e7c9 9dbd 123d 8b3d 26b8 f23d
-0.033903923 0.09078892 -0.04570263 0.10467611 -0.10088449 0.004014003 -0.058030948 -0.055988852
-0.02937333 0.041497182 0.11374248 -0.08228149 0.059183124 0.004805841 0.08462816 0.015437014
-0.08752284 0.054270666 0.06772547 0.0005152896 0.026516791 -0.09596321 -0.029004734 -0.035844624
-0.0013118642 -0.017486844 0.026390923 0.03817309 0.0295709 0.007159818 0.023407144 -0.035900585
0.00042896348 -0.08693718 -0.09636512 -0.0030163517 -0.04511726 -0.030385911 -0.05792463 0.019524299
0.038951073 0.04109627 -0.023851762 0.031063125 0.08189869 -0.03567713 0.030330986 0.04698213
-0.019987531 0.07233889 0.102631666 -0.100392535 0.009735522 -0.09119272 0.057317432 -0.118960075
-0.03208046 0.014691926 0.04409357 -0.08532219 0.084585674 -0.077045254 0.067987576 0.1185153

weight f4 [1, 64]
00000000: 6a7b 0dbe e3d8 98bd 4007 8fbd 6fc4 1dbd
00000010: 5142 813d 986b 1bbe 16e4 44bc 48e2 81bd
00000020: c00a d03c dc56 d2bd 6405 35bd a5ca 1b3d
00000030: 9edb 96bd 703b 84bc 5c2a 55bd 2595 20bd
00000040: 5d5e d33d f85c 983d f785 21be 41b9 8abd
00000050: b72b 613d f018 c83d 864c e03d 3764 e7bd
00000060: 3773 9dbd dc97 913d db25 febb bf40 c6bd
00000070: 3aa8 583d dad4 00be 5511 573d 7b6b abbb
00000080: a6a1 9dbb 0a7f b23d f7bb 543d 4f91 1ebc
00000090: d3a6 8fbd ec34 103c f1ae e7bd e814 b23d
000000a0: 9356 e4bd 4356 1bbe 448b 583d 0fed 2e3d
000000b0: bd62 76bd 94a3 f43c 0fc5 10be 8f81 9abd
000000c0: 3054 993d 9823 11be c430 06be 3d1b 693d
000000d0: c4ca 9bbd 6dbd d43d fded e7bd e6ee 313d
000000e0: a8c9 67bd 0135 d4bd a475 c2bd 9670 cfbb
000000f0: 5503 22bd aaf7 ab3d 00f7 a3bd 1375 79bd
-0.1381661 -0.07463243 -0.06983805 -0.03851741 0.06311477 -0.15177763 -0.012017271 -0.06341988
0.025395751 -0.10270473 -0.044194594 0.038035054 -0.073661074 -0.016141623 -0.05204235 -0.039204735
0.10320733 0.074396074 -0.1577376 -0.06773616 0.05497333 0.097703815 0.10952096 -0.11298411
-0.07687991 0.07109043 -0.0077559776 -0.09680318 0.05289481 -0.12581196 0.052506763 -0.0052313185
-0.0048105298 0.08715637 0.05193707 -0.009678199 -0.07014241 0.00880168 -0.11312664 0.08695394
-0.11149325 -0.15169625 0.05286719 0.042706545 -0.060152758 0.029863156 -0.14137672 -0.075442426
0.074867606 -0.14173734 -0.1310454 0.056910742 -0.07607034 0.103876926 -0.113246895 0.043440722
-0.0565888 -0.10361672 -0.094950944 -0.00633056 -0.03955396 0.083968475 -0.08006096 -0.060902666
