models/model.pth (torch, 956223 bytes, 7 tensors)

weight f4 [256, 768]
000000 27 da a6 3b df 39 3e bd db 36 9c bc 1b ee ed 3b
       0.0050919238 -0.04644191 -0.019069126 0.0072610504
000010 a0 2f f8 3c 48 2a 21 bd 07 5c b1 3c 58 c7 db 3c
       0.030296147 -0.039346963 0.021650327 0.026828453
000020 3b 74 d4 3b cd d8 e8 3c 04 67 eb bc 87 1e 0e 3c
       0.0064835823 0.028423691 -0.028735645 0.0086742705
000030 a2 53 4f bc b3 67 60 ba 25 14 3b bd 76 d7 44 bc
       -0.012654217 -0.0008560374 -0.04567351 -0.0120142605
000040 1f 09 cd 3c 1b 21 c2 3c a9 b6 b1 bc f0 0f 02 3d
       0.025028763 0.023697427 -0.021693544 0.03175348
000050 1e 88 c0 bc 35 fb 90 3c 10 72 8a bc cc 85 e6 3b
       -0.023502406 0.01769791 -0.016900092 0.007034993
000060 3b c6 33 3d 8f c3 6e bd 91 0a 3b 3d 5b e7 ac 3c
       0.04389022 -0.058291968 0.045664374 0.021106413
000070 44 a1 47 3b 67 95 03 bd 54 ad 68 bd 13 62 20 bc
       0.0030461112 -0.032124903 -0.056805924 -0.009789008
000080 69 85 18 3d 0b 38 2d 3d 50 5b 58 39 70 78 bd bc
       0.037236605 0.042289775 0.00020633382 -0.023128718
000090 64 96 b3 bc 33 d8 f7 3b f1 fe 7e 3c 86 88 a9 bc
       -0.021922298 0.0075636148 0.015563712 -0.020694982
0000a0 8a ae 3a 3d c4 de be 3b 12 df e0 3c 0c 9f af bc
       0.04557661 0.0058248956 0.027450118 -0.021438144
0000b0 06 b7 d2 bb d9 9e a1 bb e1 ea 3a 3a e7 a8 4d bc
       -0.0064305095 -0.004932266 0.00071303366 -0.0125524765
0000c0 d5 2f ba 3c 8c 61 12 3d fc 7f 4c bd 0f d8 20 3c
       0.022727886 0.03573756 -0.049926743 0.009817137
0000d0 33 97 98 3c 21 5b 0e 3b 75 1f 6f bc 40 81 a3 bb
       0.018626785 0.0021721798 -0.014594902 -0.004989773
0000e0 06 f8 a9 bc ab e7 84 bc 9e 64 a3 3a ae ca 6c bd
       -0.02074815 -0.01622375 0.0012465899 -0.057810478
0000f0 e1 a2 b1 bc 95 04 8c bb f9 95 92 bb 48 32 0e bd
       -0.021684112 -0.004273007 -0.0044734445 -0.03471592
000100 d3 f8 21 bc 8b 76 c5 3c fe 79 13 bc 1f 35 24 bd
       -0.0098859845 0.024104377 -0.009001253 -0.040089723
000110 39 83 17 bb e3 1e 19 bd 0f 96 21 bc 37 60 ad 3b
       -0.0023118986 -0.03738297 -0.009862437 0.0052910107
000120 22 aa 2b bc ef 6c e4 3c 3a 39 5c bd 81 17 88 3c
       -0.010477575 0.027883975 -0.053765513 0.01661277
000130 c7 9a 58 bd 64 65 49 bd 44 0d 66 bc 84 46 03 bd
       -0.052881982 -0.04916896 -0.014041249 -0.03204967
000140 d7 72 6b bd 1d 2c 38 3c fb ed 13 bd 55 53 34 bd
       -0.057482567 0.011240986 -0.036115628 -0.044024784
000150 4e 75 f8 bb 8b b7 3c bd 87 b2 a8 bc 37 64 32 3d
       -0.007582343 -0.046073478 -0.020592941 0.043552604
000160 c6 4a c2 bb 34 2e 92 bc e1 72 19 bc 29 41 90 bc
       -0.005929324 -0.017844297 -0.009365768 -0.017609196
000170 9e 27 b2 3b 9d 0c b0 bb 40 3c a5 3c ae b3 81 bc
       0.0054368516 -0.0053725974 0.020170331 -0.015832748
000180 4f cd d3 bb 20 56 98 bc 2a dd fb bc dc 84 96 bc
       -0.0064636837 -0.018595755 -0.030745108 -0.0183739
000190 66 ee c4 bc 1c 53 33 3d 60 3a bb 3c 91 c6 1c bc
       -0.024039458 0.04378043 0.022854984 -0.009568826
0001a0 57 a4 a9 3c ff 91 b2 3c 98 e8 94 3b 09 b1 ed 3b
       0.020708246 0.021798132 0.004544329 0.0072537703
0001b0 f5 19 8e 3a d0 b9 59 3c a3 4b 47 3c 90 1f e7 bc
       0.0010841476 0.01328893 0.012164029 -0.028213292
0001c0 ac 02 e1 3b 4a 90 d4 3c 10 0d 28 bd f2 8a 0f bd
       0.0068667736 0.025947709 -0.041028082 -0.035044618
0001d0 23 b6 24 bc cf 3b 8e bc 46 41 54 3c de 96 51 3b
       -0.01005319 -0.017362503 0.0129550155 0.0031980793
0001e0 7e 09 76 bc 93 43 fb bc c2 04 08 bd 2b a2 bf bb
       -0.015016912 -0.03067187 -0.033207662 -0.0058481894
0001f0 19 21 cb 3a 41 0e fb bb f1 58 39 3b b7 32 de 3b
       0.0015497535 -0.0076616113 0.0028281773 0.006780948
000200 a1 b5 16 3c a3 1b bd bc 17 f5 21 bd 52 18 82 bc
       0.009198577 -0.023084467 -0.039540377 -0.015880737
000210 73 73 10 3c 57 dc c8 bc b3 13 76 bc 50 86 b7 3c
       0.008816588 -0.024519129 -0.015019345 0.022402912
000220 46 41 e9 3c 3d 13 53 3d a5 37 be 3c 84 ce 47 3c
       0.028473508 0.05153202 0.023219893 0.012195233
000230 1f 0a 36 bc e3 88 11 bd e2 1c cf 3c e9 58 6b bc
       -0.0111108115 -0.035530936 0.025282327 -0.01436446
000240 65 ab 81 bc 0e d1 3a 3c 56 2b 0e 3c 1a 64 48 3d
       -0.015828798 0.011402382 0.008677324 0.04892359
000250 6b fa 39 bd 11 1e fc bc 94 d5 09 bd 2e 67 f2 bb
       -0.045404833 -0.030776056 -0.03365095 -0.007397554
000260 f4 6c 03 3c 38 50 4d bc 33 61 e3 3c e0 e4 8f 3c
       0.008021582 -0.012531333 0.02775631 0.01756519
000270 6c 63 1e 3d 7e f5 43 bd a4 a3 98 bc 34 ad 94 3c
       0.038669035 -0.04784154 -0.018632717 0.018148996
000280 b6 cc 78 bc 4b 7c 00 3d 7d fb ce 3c a0 ac d1 bb
       -0.015185526 0.031368535 0.025266403 -0.0063987523
000290 3b dd fe bc 6c 45 0d 3d 93 3c 77 3c 3f d9 2b bc
       -0.03111135 0.034490034 0.015090126 -0.010488807
0002a0 22 1b 2e 3d 35 dc 26 3d 46 d0 25 bd 6c 79 62 3d
       0.042506345 0.04073735 -0.04048183 0.05529158
0002b0 91 7c 00 bd 20 9e 2b bc 4f 33 9f 3c be 66 26 3d
       -0.031368796 -0.010474712 0.019433646 0.040625326
0002c0 3a 24 93 3b 15 98 28 bd 23 d5 1c 3c 14 b6 5f 3c
       0.0044904025 -0.04116066 0.0095723 0.013654251
0002d0 37 c7 0a 3d 32 e5 45 3c d3 68 43 bb d0 d1 ae 3c
       0.033881392 0.01207857 -0.0029817119 0.02134028
0002e0 ed 4d dd bc 9e 2e b0 bc a4 85 f4 bc 55 2f 4c bc
       -0.027014697 -0.021506604 -0.029848881 -0.012462457
0002f0 dc be 19 bd 36 c7 e1 3a e2 89 d5 3c ce 6f 02 3d
       -0.037535533 0.0017225507 0.026066724 0.031844907
000300 88 2a 8d 3c 27 44 1e 3c d3 db 3e bd 8d 67 a0 3c
       0.017232195 0.0096598035 -0.04659636 0.019580627
000310 48 2b 0f 3d 04 32 0e 3c 6b a2 b1 bc 26 0e df 3c
       0.034953386 0.008678917 -0.021683892 0.027228426
000320 67 5a 48 3d f8 ff f7 3c a1 ed d3 bc 42 8d 04 bd
       0.04891434 0.030273423 -0.025870146 -0.032361276
000330 00 e2 5c bc be 5e 83 3c 26 63 3b 3b 2f f0 a6 3b
       -0.013481617 0.016036388 0.0028593033 0.00509455
000340 62 37 37 3c 6e f2 09 bd 3c bc 4d 3c b2 89 6d 3c
       0.011182638 -0.033678465 0.012557086 0.014498161
000350 89 f3 89 3c f5 2a 24 3d 9a e8 de 3c 35 52 9b bc
       0.01683976 0.04008003 0.027210522 -0.018960098
000360 bc 5e 88 bc 3b 8d d6 3c f0 50 ae 3c 13 30 f9 bc
       -0.016646735 0.02619039 0.021278828 -0.030418431
000370 23 17 23 bd 00 c8 97 3c e1 ff 42 3c 8f 28 55 3b
       -0.039816987 0.018527985 0.011901827 0.0032525396
000380 fb 40 48 bc 76 d8 cd ba 17 5c 45 bb c9 97 7b 3c
       -0.012222524 -0.0015704769 -0.0030114704 0.015356013
000390 7e 65 0d bd fd bf 8f 3c b8 c6 8b 3c 4b a6 ff ba
       -0.03452062 0.017547602 0.01706253 -0.0019504515
0003a0 75 ce 6c bd 4b 94 83 3c b8 a9 1d 3d 29 a6 95 3c
       -0.05781408 0.016061923 0.038491935 0.018267708
0003b0 49 83 83 bb 48 7d 38 bd 7e 6b 49 3c c3 78 39 bd
       -0.004013453 -0.045041353 0.012293695 -0.045281183
0003c0 8a 2b 47 bb 12 29 aa bc ae 7a 79 bc d2 65 98 3c
       -0.0030390942 -0.020771537 -0.015227003 0.01860324
0003d0 b9 29 5a 3c 01 24 14 bd 0a a1 13 b9 45 13 2e 3b
       0.0133156115 -0.03616715 -0.00014079004 0.0026561779
0003e0 4f 61 11 bd 44 b0 00 3d 49 3e 48 3c 42 a0 8e 3c
       -0.03549319 0.0314181 0.012221881 0.017410401
0003f0 04 1e 01 3d 89 09 63 bc b0 52 ff ba a8 68 83 bc
       0.031522766 -0.013857254 -0.0019479599 -0.016041115

bias f4 [256]
000000 dd 05 7f 3c 5f 94 3f bd ae 43 bc bb 8d 79 36 3c
       0.015565363 -0.046772357 -0.0057453727 0.011137378
000010 91 2d 4d bd a1 bf c6 bc 6c 6a 3b bc 24 05 9f b9
       -0.050092284 -0.024261298 -0.011438947 -0.00030330673
000020 a4 6d 9a bd 02 d3 8f 3c cf e4 03 bd a0 78 a5 bc
       -0.075404435 0.017556671 -0.03220063 -0.02019912
000030 fe 50 e8 bb fb 84 1a bd cf 98 4c bc 50 c2 be 3b
       -0.007089733 -0.037724476 -0.012487604 0.0058215037
000040 44 de c9 bc 30 73 cf bc b0 ca f6 3b 9e da 86 bb
       -0.024642117 -0.02532348 0.0075314865 -0.0041154167
000050 2d a7 25 bb 0d 3d 96 bc 50 a7 f3 bc 4a 89 9b bd
       -0.0025276646 -0.018339658 -0.029742867 -0.07594545
000060 88 7a 35 bb f2 86 b8 bd c2 3d 25 bd 30 21 b1 bc
       -0.0027691443 -0.09010114 -0.0403421 -0.02162227
000070 a6 87 1c bd ea 27 25 bd 8e 27 08 3d d1 a1 96 bd
       -0.038215302 -0.04032127 0.033240847 -0.07355083
000080 3d 66 9d bc 60 4d 7c bb 22 98 4a bd e9 0d e4 ba
       -0.01921379 -0.0038498268 -0.04946149 -0.0017399165
000090 f3 63 48 3a 0c c7 24 3c 93 20 f7 bc bf 1a 52 bc
       0.0007644288 0.010057222 -0.0301669 -0.01282376
0000a0 4f c1 08 bb 60 a2 a8 bc 70 6f fa bc 1a 96 a5 bc
       -0.0020867174 -0.020585239 -0.030570716 -0.020213176
0000b0 42 2c af bc 2f 0e 45 3a 57 32 82 bc ab df 90 bd
       -0.021383408 0.0007517067 -0.015893145 -0.07073911
0000c0 3e 26 ec bc 41 9d fc 3b cb a3 60 3c 8f 5d a7 bd
       -0.028826829 0.007709176 0.013710926 -0.08172142
0000d0 e8 81 23 bd 84 38 3d bd df 99 9c bd 78 40 9d bc
       -0.03991881 -0.046196476 -0.07646536 -0.01919578
0000e0 8a 4f 5a 3c 7d b2 d9 bc 80 08 d2 3c 10 8f 1c 3b
       0.013324628 -0.026574368 0.025638819 0.0023888983
0000f0 bd 68 24 3b 5d 51 df bc 60 2d 53 3c e8 90 cb 3b
       0.0025086843 -0.027260477 0.012889236 0.0062123425
000100 5b d1 20 bc 99 84 6d bc f3 ca 94 bc 18 4e c3 bc
       -0.009815539 -0.014496946 -0.01816318 -0.023840949
000110 86 73 2a bd 23 60 b1 b9 1d 5a 4f bd d4 ed 0a bd
       -0.041614078 -0.00033831698 -0.050623048 -0.033918217
000120 3a d6 0f 3c 6b d6 26 bd 50 78 11 bd 5e ec c0 bc
       0.008779103 -0.04073183 -0.03551513 -0.023550209
000130 68 08 41 bd ae 3d d8 bb d9 1f 82 3b af c6 dc bc
       -0.047127157 -0.0065991497 0.0039710817 -0.026950208
000140 75 18 5c bd d4 cb a1 3c 95 ac af bc 9f 27 85 3c
       -0.05373426 0.019750513 -0.021444598 0.016254244
000150 d9 e0 81 3b c6 14 c2 3b a0 4d 28 bd c7 9c 1a 3c
       0.0039635715 0.0059228865 -0.041089654 0.009436793
000160 0d e2 82 bd 1e b1 9f 3c 9a bd 54 bd 73 df a9 bc
       -0.06390772 0.019493636 -0.05193863 -0.020736432
000170 47 b4 0b 3d 7a 5d 0e bd 01 1b fa bc 20 00 94 bd
       0.034107473 -0.034757115 -0.030530455 -0.07226586
000180 7d 61 f2 bc 09 ff 04 3b 41 bc 2c bd f5 76 50 bd
       -0.029587502 0.0020293614 -0.04217172 -0.050894696
000190 4d c0 63 bc d6 22 ad bc 6b 0c cd bc 46 1c f0 bd
       -0.013900829 -0.021134775 -0.025030335 -0.11724143
0001a0 7b 76 a9 bc f1 f6 19 bd c2 c4 af bc c8 49 d3 bc
       -0.020686379 -0.037589017 -0.021456126 -0.025792018
0001b0 0b b4 6a bc 71 75 4a bd 87 0e 96 bd 87 88 9b bb
       -0.014325152 -0.049428407 -0.073269896 -0.0047465
0001c0 a9 6b 73 3c 69 3b b8 bc 68 f8 56 bd d8 42 8c 3c
       0.014857211 -0.022489266 -0.052482992 0.017121717
0001d0 d6 ab 57 bd 80 0c 93 bd 4b 0e 21 3c 54 67 e8 3c
       -0.05265411 -0.071801186 0.009830068 0.028369583
0001e0 83 a8 75 3c 93 e6 20 bd 28 ad 98 bc 44 a9 52 3c
       0.01499379 -0.039282393 -0.018637255 0.012857739
0001f0 96 a5 d9 bc 27 a9 90 bd 7d b6 78 bb 07 de 99 bc
       -0.026568215 -0.07063513 -0.0037950568 -0.018782629
000200 cc e4 fb bb 80 b2 e8 3c d0 40 ae bd 4b a0 fc bc
       -0.007687187 0.028405428 -0.08508456 -0.030838152
000210 d7 78 08 3c 80 84 ae bb e1 02 a9 bc f5 2e 42 3c
       0.008329592 -0.005325854 -0.020631256 0.011852016
000220 32 24 38 bd 29 a7 82 bc 56 9f 34 bc db b3 1e bb
       -0.044956394 -0.015948849 -0.011024317 -0.002421609
000230 2e 77 0d bd 95 2d 6c bc 6c fe 10 bd 1c 03 61 3c
       -0.034537487 -0.0144151645 -0.035398886 0.0137336515
000240 c8 6a 4c bc 18 4f b4 bc 2e e7 7c 3c 62 27 1b bd
       -0.0124766305 -0.022010371 0.015435977 -0.037879355
000250 c0 33 01 3d 6c f8 0e bd af 2b f3 3b 49 cc 89 bb
       0.031543493 -0.034904882 0.007420979 -0.004205261
000260 73 f0 9b bb 89 c4 c2 bc 0f 2e 34 ba 10 3a 83 bc
       -0.0047588884 -0.023775356 -0.00068733183 -0.016018897
000270 c0 53 53 bd b9 59 8a bb eb c6 02 be 1c bc ca bc
       -0.051593542 -0.0042221216 -0.12771194 -0.0247479
000280 42 2b 9a bc 35 18 40 bd 0e 15 fe bc 04 df b9 bc
       -0.018819455 -0.046898086 -0.031015899 -0.02268935
000290 df df 91 bd 9b a2 81 bc 72 b4 8d bd 02 1b 07 bd
       -0.07122778 -0.015824607 -0.06919183 -0.03298474
0002a0 1a 80 82 3c e5 cd 15 bc c8 46 69 bc 29 af dd bd
       0.015930224 -0.009143327 -0.014238067 -0.10824425
0002b0 3c df ec bc 36 d4 27 bd bd e8 c5 bc 11 be e1 3b
       -0.02891504 -0.040973864 -0.02415883 0.0068891128
0002c0 65 2f 3b 3c 17 5c d7 bd 80 d6 0d 3b 59 91 02 3c
       0.011424874 -0.105156116 0.0021642745 0.007969224
0002d0 29 4a 55 3c 9a 18 b0 3c 16 4d 50 bd e4 3b 69 bc
       0.013018169 0.021496106 -0.050854765 -0.01423547
0002e0 62 cf 8b 3c f5 0d 8f ba 56 4e a0 bc c5 6e 4d 3c
       0.017066661 -0.0010914194 -0.019568603 0.012538617
0002f0 ba 5c 16 bc f6 14 e4 3b e4 42 37 bd c5 77 52 bd
       -0.009177381 0.0069605066 -0.044741526 -0.051383752
000300 a0 36 b0 3b 6d ef 49 bd 00 32 52 3b 4b 68 50 bd
       0.0053776056 -0.0493006 0.003207326 -0.05088071
000310 e0 7c 37 bc 38 bd bb bd 38 f9 25 bd d4 f4 12 bd
       -0.011199206 -0.0916695 -0.040520877 -0.035878018
000320 86 72 f1 bc 7c da 12 bc 07 e3 0f bc 85 2c 48 bc
       -0.029473554 -0.008963224 -0.008782155 -0.0122176455
000330 5c d6 25 bd 32 84 f1 bc ec b1 ff bc 39 c9 cc 3c
       -0.040487632 -0.029481981 -0.03121277 0.024998294
000340 0b 4a 8d b9 4b a5 d0 3a 4f 04 ba bb af 9e a3 bc
       -0.00026948782 0.0015918402 -0.005676783 -0.019973127
000350 fd ad 0c bd 04 5f 56 bd 4a d2 1e bc 21 1a 4e bd
       -0.034345616 -0.052336708 -0.0096936915 -0.050317887
000360 cb 1e 3f bd 28 4d 9a 3a 84 96 5b bb b7 0e cc bc
       -0.046660226 0.0011772262 -0.0033506462 -0.02490936
000370 31 38 05 3c d4 54 d1 bc 96 cf c0 bc 43 15 22 bd
       0.008131073 -0.025553145 -0.023536485 -0.039571058
000380 49 97 95 3d 88 84 f6 3b 3d 6e 3a bd 02 64 06 bd
       0.07304246 0.007523123 -0.045515288 -0.03281022
000390 e2 21 23 bd cc f7 79 bd e4 66 52 3c 94 b5 ce 3b
       -0.039827235 -0.061027333 0.012841914 0.006308267
0003a0 1e 1b 3a 3c 03 82 0c bd 15 35 b6 3b 9c 85 0c bd
       0.011359004 -0.034303676 0.005560527 -0.034307107
0003b0 c8 1f 15 bd bf 98 fd bc 93 d3 24 bd 1a 19 82 bd
       -0.036407262 -0.030956624 -0.040240835 -0.06352444
0003c0 90 ba 10 bd 9b 97 67 bd 10 25 c6 bc 8c 53 c5 3c
       -0.03533417 -0.056541067 -0.024187595 0.02408769
0003d0 2d 43 e1 bc b5 61 63 bb 40 4a 2b bd ef c9 10 bd
       -0.027497852 -0.003469569 -0.041818857 -0.03534883
0003e0 d9 e5 a2 3d bd f3 df bc 56 da 63 bd 0f a5 a0 bd
       0.07953996 -0.027337903 -0.055628143 -0.078439824
0003f0 49 2a 6b 3c e8 96 28 bd b3 55 be bb c4 94 49 bd
       0.014353343 -0.04115954 -0.005808556 -0.04921414

weight f4 [128, 256]
000000 85 0f a5 3d b8 e7 57 bc 39 dd 2c 3d 5d 03 00 bd
       0.08059601 -0.013177805 0.042203162 -0.031253207
000010 e6 c7 d7 bc 83 3b 56 bb f9 9e 6d 3d 26 30 c3 bc
       -0.026340436 -0.003268928 0.058012936 -0.02382667
000020 b8 44 a9 bc aa 58 8b bd 99 10 aa bc d8 ed ba bc
       -0.02066265 -0.06804021 -0.020759868 -0.02281849
000030 9f 54 18 3c 47 4b 1b 3d 2e b2 c6 3d ea 18 6f 3d
       0.009297519 0.037913587 0.09701954 0.05837337
000040 6b fb ee 3c 44 45 da bc 80 fa e3 3c 7f 26 47 3d
       0.02917262 -0.026644357 0.027829409 0.048620697
000050 26 1d be bc 07 82 5b 3d 52 06 21 3d 84 22 20 3e
       -0.023207258 0.0535908 0.03931267 0.15638167
000060 64 00 8b bd 11 96 d7 3c 36 99 0c 3d b0 77 8e 3d
       -0.06787184 0.026316674 0.0343258 0.06956422
000070 8e 13 ff bc a0 cb 44 3c 13 a2 6a 3e 14 14 5b 3e
       -0.031137254 0.012011439 0.22913389 0.21394378
000080 9a c3 e7 3d f0 df 91 3b e3 c9 a8 3d d6 c4 e2 bb
       0.11316605 0.0044517443 0.08241632 -0.0069204373
000090 59 eb ef bb 4a 3f 18 3d df f9 d5 3c 11 e9 ed 3d
       -0.007321757 0.037169732 0.026120124 0.116167195
0000a0 09 6b bc bc 07 aa 55 3d b5 15 6c b9 a0 8c 12 3d
       -0.023000257 0.052164104 -0.000225148 0.03577864
0000b0 70 9c 6e 3d f3 8f a1 bd 88 0a 92 3c f3 84 0f 3e
       0.05825466 -0.07888784 0.017827287 0.1401556
0000c0 71 b7 c8 3e d6 60 f5 3c 2e 53 ae be 86 08 ea bd
       0.39202455 0.029953402 -0.34047836 -0.11427407
0000d0 ab 9f 9d 3d cf 76 eb bc 30 03 36 3e 20 40 57 bd
       0.0769647 -0.028743176 0.17774653 -0.05255139
0000e0 08 81 18 bc 54 98 97 3c e2 5e 41 bd b4 93 40 bd
       -0.009308107 0.018505253 -0.047209628 -0.04701586
0000f0 65 c4 7a bc 9b f5 bb ba e0 71 52 3c 96 e7 76 3d
       -0.015305613 -0.0014340164 0.012844533 0.06027945
000100 0d 31 fc 3c 95 b1 13 3d ba ee 7d 3c c9 a9 b0 bd
       0.030785108 0.036058027 0.015498811 -0.08626134
000110 55 07 fd 3b 80 45 2a 3d 0e ac 76 bd 91 b2 10 3c
       0.0077218213 0.041570187 -0.060222678 0.008831636
000120 09 ad 2c bc af c9 e2 39 e1 d4 18 3d a9 a9 cc bc
       -0.010539302 0.00043256345 0.037312392 -0.024983244
000130 a1 fc c1 3c a9 83 60 bd 0d 49 14 3b 48 50 e1 3c
       0.023680033 -0.05481306 0.002262655 0.027504101
000140 4c e7 e3 3a 89 e0 22 3d 03 31 92 bb e8 70 02 3d
       0.0017387657 0.039764915 -0.004461409 0.031845957
000150 72 da d0 3c 97 72 96 bd 0c f7 4f bc f8 cb 06 bd
       0.025494788 -0.07346075 -0.012693178 -0.032909364
000160 c4 0b f0 bc 20 40 41 3c 0f 0a ce 3a df 79 d7 bc
       -0.029302485 0.011795074 0.001571955 -0.02630323
000170 5f c4 a3 3e be 75 0f bd af 6d 22 bd d0 aa c4 bc
       0.31985757 -0.035024397 -0.039655384 -0.024007231
000180 40 04 85 3b 3d a0 05 3c 20 ce a7 bc 8b 14 90 bd
       0.0040593445 0.00815588 -0.02048403 -0.07035168
000190 0b c5 f5 3d 5c 3f f7 3c 40 3e a0 bd a7 2d cd 3e
       0.120004736 0.03018158 -0.07824373 0.40073892
0001a0 8e 24 2b 3d 49 06 53 3d 4b fe f2 3c a6 0d 82 3d
       0.04178291 0.051519666 0.029662272 0.063502595
0001b0 95 28 d1 3b e9 59 fc bc c6 b5 25 3e a2 eb 55 bd
       0.0063830116 -0.030804591 0.16182622 -0.05222667
0001c0 10 19 9e bb ab 5d b7 3c 71 8f 30 3d d0 a4 ac bb
       -0.004824765 0.022383532 0.043105546 -0.0052686706
0001d0 11 1f 51 bd b1 ef 9e bf d8 69 93 bd b8 cc 2b 3c
       -0.051055018 -1.2416898 -0.071979225 0.0104858205
0001e0 6f 8d 38 bc c5 b0 74 3e cd 38 30 bd 82 bd 00 bd
       -0.011264189 0.23895557 -0.04302292 -0.03143073
0001f0 42 5d 58 bc 9d ce ad 3e ca 5c f4 bc 37 bd 3d bd
       -0.013205828 0.33946696 -0.029829402 -0.046323027
000200 54 53 0a 3d d4 08 a7 3c 69 3a dd bd d7 ed 97 bd
       0.033770874 0.020389952 -0.108021565 -0.07418411
000210 87 a6 18 3d ed 32 23 bd 35 18 12 bc 77 9f b8 bc
       0.037268188 -0.03984349 -0.008916904 -0.022536976
000220 0c 55 35 bc 79 7f 03 bf fa a2 c7 3c 62 d1 e1 bc
       -0.01106764 -0.5136638 0.024369705 -0.027565662
000230 66 49 09 bc e1 e1 0a bd 41 bc e7 3c 42 2a 22 bd
       -0.008379316 -0.03390682 0.028288009 -0.03959108
000240 f2 80 8a 3d 10 f5 d7 3b 07 13 92 bd cf 15 35 bc
       0.067628756 0.006590493 -0.071325354 -0.011052563
000250 e8 7d 37 bc a2 21 0d 3b b4 7a 43 bd 30 90 88 3d
       -0.011199452 0.002153494 -0.04772444 0.066681266
000260 69 fb 51 bd 2b ad 88 bc 0e 3d 56 3d ef dd 03 3d
       -0.051265154 -0.016684135 0.05230432 0.032194074
000270 a0 e8 a0 3d 54 03 c1 3c ea ad b6 be 0c 2d ed 3c
       0.0785687 0.023561157 -0.3567956 0.028952144
000280 4c ab f1 bc 00 de 43 bc 28 2e 0e bc d8 a2 0f 3c
       -0.029500626 -0.011954784 -0.008677997 0.008766852
000290 b1 96 14 3d 60 b1 e3 bc ab 48 4a 3c ca 3d c7 3b
       0.036276523 -0.02779454 0.012346427 0.006080364
0002a0 c8 ca 6b 3d 40 b1 98 3d 34 88 b6 bb d4 08 5b 3d
       0.057566434 0.07455683 -0.005570436 0.053475216
0002b0 ad df e3 3b 35 a1 cd 3d d8 52 47 3e ed 8b a6 bc
       0.0069541545 0.100405134 0.19465196 -0.020330394
0002c0 38 ca 5c bb 03 55 99 bd 36 c4 8b bd e1 54 32 bc
       -0.0033689868 -0.07486918 -0.06824534 -0.0108844945
0002d0 08 47 22 bd 9c 62 3c 3d 01 a6 b8 b8 19 df ef bc
       -0.039618522 0.04599248 -8.804724e-05 -0.029281186
0002e0 43 ac a2 3d b5 82 9b 3c ef 6a c7 3d 64 13 1d 3d
       0.079430126 0.018983224 0.09737193 0.03834857
0002f0 e4 60 e2 3b a5 7b a0 bd 92 98 59 bc dc 33 4f bd
       0.006908523 -0.07836083 -0.0132810045 -0.050586566
000300 80 a1 ff 3a 0a 71 9b bd 5c b9 63 bd 69 7c 8b 3b
       0.0019503087 -0.0758992 -0.055596694 0.004256774
000310 bc 1c 32 bd bf 09 ee 3d 4c f2 8e 3d cd b9 4d 3d
       -0.043484434 0.11622953 0.06979808 0.05022602
000320 5a de d2 3c e8 58 e2 bc 5f 93 52 3c b1 10 55 3d
       0.025740791 -0.027630284 0.012852519 0.05201787
000330 89 f8 61 3d 9d 2e 45 3d d3 f8 40 3c e9 19 a9 3e
       0.055168662 0.048140157 0.011778074 0.3302758
000340 87 98 37 bf 1f e0 cd bb bc 57 82 3d ca 14 7d bd
       -0.71717113 -0.006282821 0.0636439 -0.061787404
000350 48 d6 10 3d d6 21 cf 3c 21 ea 21 3d bd 2d b6 bb
       0.035360605 0.025284689 0.039529923 -0.0055596516
000360 e7 8a ed bc 69 e7 f8 bb 29 4a 0b 3d 0a 48 b0 3c
       -0.028996898 -0.0075959456 0.03400627 0.021518726
000370 70 18 91 bd 5b 9d 9d bc a2 9b 47 3d 5c 89 2f bd
       -0.07084739 -0.019240072 0.048732407 -0.042855605
000380 72 50 27 3d 05 a0 7d 3d 79 07 93 3d ba 2f b3 3b
       0.040848203 0.061920185 0.0717916 0.005468336
000390 39 06 e4 bc 2c a8 1e 3e d5 0f 98 bc df 65 ad 3c
       -0.027834998 0.1549384 -0.018562237 0.02116674
0003a0 eb 60 00 bd 70 95 58 3d 26 07 24 3a 00 6f b6 b9
       -0.03134243 0.05287689 0.0006257169 -0.00034796447
0003b0 a4 14 41 3d cd 3e 43 bc 2d 55 6f 3d d0 ef 77 3d
       0.047138825 -0.011916828 0.05843084 0.060531437
0003c0 02 7c fc 3b cd 7c ad 3b 40 e2 6d bb d0 b3 f0 3b
       0.0077052126 0.0052944184 -0.0036298186 0.007345654
0003d0 c7 a8 13 3c 5b 2f 21 3d 27 59 0d bd d5 b9 32 3b
       0.009012408 0.039351802 -0.03450885 0.002727141
0003e0 b8 5d 7e 3e 3e f7 1f bd 63 82 ad bd 95 d7 3a 3c
       0.24840438 -0.039054148 -0.08472135 0.011403938
0003f0 b4 da f7 3c 66 05 0a bd 1c 3b 66 bc e8 96 19 3d
       0.030255653 -0.033696555 -0.014052179 0.03749743

bias f4 [128]
000000 f6 08 1a bd ca 22 61 bf 74 ae 9d bf 54 b6 89 bf
       -0.037606202 -0.8794371 -1.2318864 -1.0758767
000010 35 5d c2 bc 86 78 9e bf db d9 1e be cc 9c 8d bd
       -0.023726085 -1.2380531 -0.15512793 -0.06914672
000020 a5 46 1e be b5 31 2b bf 2a 52 86 3d 30 15 51 3f
       -0.15456636 -0.6687272 0.0655864 0.81672955
000030 50 ec 51 be 39 5a 82 be 8d d8 5b bf 62 c6 5f bf
       -0.20500302 -0.2545946 -0.85877305 -0.87412083
000040 c7 3e ac bd 57 f8 76 bf 13 2c 61 bf c4 53 86 bf
       -0.08410411 -0.96472687 -0.87957877 -1.0494313
000050 d8 15 90 be 8e 78 f1 be 0e 06 61 bf bf 15 79 bd
       -0.28141665 -0.47162288 -0.87899864 -0.060811754
000060 36 2a a4 be c9 43 79 bf 9e 1d 5a bf 67 7d 40 bf
       -0.32063454 -0.97369057 -0.8520144 -0.7519135
000070 df 7f 5e bf 02 8d 63 bf 74 1e a5 bf e8 10 ac bf
       -0.86913866 -0.88887036 -1.2899919 -1.3442659
000080 27 a6 76 bf 2d 7a eb be 9a 0e a0 bf cd 18 eb bf
       -0.9634728 -0.4599165 -1.2504456 -1.8366944
000090 d1 1b 18 bf d7 74 8f 3d 87 37 8b bf 62 62 2d 3f
       -0.59417444 0.07004707 -1.0876321 0.67728245
0000a0 75 a3 3f 3f 19 20 18 bf 20 30 81 bf bf 38 c9 be
       0.7485879 -0.5942398 -1.0092812 -0.39301106
0000b0 3d 0a 54 bf 17 82 1c bf bf 3b 27 bf 56 44 a2 bf
       -0.8282812 -0.61136 -0.6532554 -1.2677104
0000c0 a7 ad fe bd 2e b2 fa be b5 f4 a2 be f8 c8 9c bf
       -0.12435465 -0.48964065 -0.31827322 -1.2248831
0000d0 b1 12 e5 3e 06 5b 68 bf 4a 35 4b 3e 40 d8 64 be
       0.44740823 -0.9076389 0.19844547 -0.22348118
0000e0 1b 1a a1 bf 9b 58 8a 3f 23 45 91 3e ce ed a0 bf
       -1.2586092 1.080829 0.2837306 -1.2572572
0000f0 fb 12 ca bd 5f 4b d3 bf 0b 37 f1 be 2b 82 d4 bc
       -0.098669015 -1.6507376 -0.47112307 -0.025940975
000100 94 f8 6d be 98 2e 89 3f cb 97 89 be 76 5e 11 be
       -0.23239356 1.0717344 -0.2687362 -0.1419619
000110 7b a5 68 be 48 71 9e bf fb a3 cd be 0c 00 31 3e
       -0.22719376 -1.2378321 -0.4016417 0.17285174
000120 11 02 3f bf 03 04 82 bd 54 1d c0 be 14 10 5c bf
       -0.7461253 -0.063484214 -0.37522376 -0.85962033
000130 1e 5b 54 bf 24 77 99 bf c5 b3 8b bf 44 83 87 bc
       -0.82951534 -1.1989484 -1.0914236 -0.016542085
000140 5c be b5 bf 5e 3f b4 3e 0a ae b3 bf 98 c4 25 bf
       -1.4198718 0.35204595 -1.4037488 -0.64753103
000150 95 31 a2 bc fa b9 68 bf f1 fd 95 3f 83 66 99 bf
       -0.019799033 -0.9090878 1.1718122 -1.1984409
000160 70 ad 5d bf 47 c1 74 3f 29 e2 92 bf b8 c4 6a bf
       -0.8659277 0.9560742 -1.1475269 -0.9170642
000170 ea 38 cf 3e 87 3d b8 be b4 55 57 bf d8 f9 85 bd
       0.4047311 -0.35984442 -0.8411515 -0.065417945
000180 34 44 94 bf 01 ba bb bd 7d 09 65 bf 8c ed d7 3c
       -1.1583314 -0.09166337 -0.894676 0.026358388
000190 8c 51 3f bf 35 63 74 be 00 f6 43 bf ea 31 6c bf
       -0.74733806 -0.2386597 -0.7654724 -0.9226366
0001a0 39 05 95 3e fe 9a 81 bf 09 79 a9 3e d6 a8 06 3f
       0.29105547 -1.0125425 0.33100155 0.52601373
0001b0 07 dc 3f bf c5 e6 ac bd 35 6f a2 bf 83 38 94 3b
       -0.7494511 -0.08442453 -1.2690188 0.0045233383
0001c0 75 fb ab bf a7 8b 75 bf eb 92 35 bf f3 bf 08 bf
       -1.3436114 -0.9591622 -0.70927304 -0.5341789
0001d0 17 6a 12 3f 25 fe 27 be 9d 6e 8e bf 67 29 8a bf
       0.5719313 -0.16405542 -1.1127506 -1.0793885
0001e0 48 1c bf bf e2 e1 d3 be 09 ef b3 bf 89 3f ac bf
       -1.4930506 -0.41383272 -1.4057323 -1.3456889
0001f0 79 cc fa be 5d 6b 51 bf c4 8d df be 17 b5 9c bf
       -0.48984125 -0.8180445 -0.43662846 -1.2242764

weight f4 [64, 128]
000000 e9 d4 a5 be 91 de e8 3e 01 b4 be be 0c 51 fc be
       -0.32389 0.45482305 -0.37246707 -0.49280584
000010 2a f6 1d 3d a9 54 f6 3e f1 fa 02 be ed e7 fe be
       0.03856484 0.48111466 -0.12791039 -0.4978632
000020 09 9c c6 3c e9 ca 91 bd 85 0b 80 3d b3 9d b3 3c
       0.024244325 -0.0711878 0.06252197 0.021925783
000030 91 bc 98 be f5 bd 19 3e 80 50 9e be c6 1a 00 3f
       -0.29831365 0.15013869 -0.30920792 0.50040853
000040 41 96 b6 3d d5 7f 4e be cb a4 3c bf 20 ca 22 3e
       0.089153774 -0.20165952 -0.73688954 0.15897417
000050 2a 6a e6 3d ff e9 63 bd 5c bd 31 be 03 b5 68 be
       0.11250718 -0.055643078 -0.17357391 -0.227253
000060 6f 15 27 bf f9 3c 3a 3d 65 bf b6 be f0 fa e0 3d
       -0.6526708 0.045468304 -0.35692897 0.109853625
000070 ab bf 2a 3c 45 1f 98 3d d1 58 a3 3e 68 d3 e4 bc
       0.010421674 0.07427839 0.319037 -0.027932838
000080 9d df ed 3c 2c 01 12 3e 3e 0d e9 3e a3 d2 5d 3e
       0.029037291 0.1425826 0.45517915 0.21662383
000090 09 28 2f 3d 61 e7 8c 3e 7c 2a f0 be 52 46 fa 3c
       0.04276279 0.27520278 -0.46907413 0.03055111
0000a0 01 04 78 3e 25 30 01 3f 6f a6 99 be ed 6b 0c 3e
       0.24220277 0.5046409 -0.3000979 0.13713045
0000b0 41 db 39 3e cd 1a df bd c9 e4 4d bf 9c 32 5d 3e
       0.18150045 -0.10893784 -0.80427223 0.21601337
0000c0 95 1e 87 bc ea 5f d9 3d 3d 92 97 bd 64 01 10 3f
       -0.016494075 0.10613997 -0.074009396 0.5625212
0000d0 a8 bb fb 3e 7b cb 43 3e be be 06 3f 49 2e 69 3a
       0.49166608 0.1912059 0.526348 0.00088951417
0000e0 40 20 c2 3e 82 3a 4f bc 32 f2 b3 3e b3 93 16 3f
       0.3791523 -0.012648227 0.35145718 0.5881912
0000f0 94 10 e4 be 57 cf 4b bf f3 ec 3f be c4 3e cb be
       -0.44543898 -0.7961325 -0.18742733 -0.39696324
000100 83 ed c5 bd c8 74 c8 3e 66 9c ea 3d 43 d8 b7 3d
       -0.096644424 0.39151597 0.11455612 0.089767955
000110 3a 2b 92 be 17 5f 00 3e 98 b5 0d be f3 49 bf 3e
       -0.28548604 0.12536274 -0.13838804 0.37361106
000120 9e 9b 03 bf d5 15 fe bd 89 50 0e be 66 0e 11 bf
       -0.5140933 -0.12406508 -0.13897909 -0.56662595
000130 d3 9d bc 3d a9 88 eb 3e 8f b0 b1 bc a3 cd 52 be
       0.0920979 0.460027 -0.021690635 -0.20586257
000140 78 5d 19 3f 24 8a 61 3e e7 42 31 be 7b ae fe bd
       0.59908247 0.22025353 -0.17310677 -0.12435623
000150 a1 5b 00 bf 5f 38 75 be b2 1a e1 bd 3a 37 4a bf
       -0.50139815 -0.23947285 -0.1099142 -0.7899052
000160 25 a8 2f be 93 e7 22 3c 5a a5 3c be dc 17 79 3d
       -0.17153986 0.009942907 -0.18422452 0.06081377
000170 21 43 e9 3e 5d 3d 41 3e 88 e3 24 bd 9c 74 e0 be
       0.45559028 0.18871064 -0.040256053 -0.43838966
000180 00 5a 5f 3e 2d ff 99 3c da 1d ff be 2b 37 4f 3e
       0.21811676 0.018798435 -0.49827462 0.20235889
000190 fe 3e b8 3e 6d 44 cf bd 11 f7 24 be 7a 82 97 3e
       0.3598556 -0.10120473 -0.16109873 0.29591733
0001a0 55 e2 dc 3e 28 9a e3 be af 19 02 3f 3d 4f c4 3e
       0.43141428 -0.4445355 0.5082044 0.38341704
0001b0 03 73 a1 3d dc 88 44 3d 9e 8b 80 bd e7 19 20 bf
       0.07883265 0.04798208 -0.0627663 -0.62539524
0001c0 6c 34 34 3f 5c a2 f8 be 77 3e 3f 3e 95 1d 36 3e
       0.7039249 -0.4856137 0.18676172 0.17784722
0001d0 57 e5 d0 3e ee 46 d8 bb a8 af b6 3e c6 0a 66 bf
       0.40799972 -0.0066002524 0.3568089 -0.8986019
0001e0 7b 90 78 be 0d c6 e2 be 61 bd 01 bf f2 13 03 3f
       -0.24273865 -0.44291726 -0.50679594 0.5120231
0001f0 be 9e d8 3e ce 4c 39 bf 72 4f 8f 3e 21 c4 ba 3e
       0.4230861 -0.7238282 0.279903 0.3647776
000200 f1 cb 5b 3e cb f1 29 3c 1e 42 ba be 2a 16 f4 bd
       0.21464516 0.010372589 -0.36378568 -0.1191829
000210 50 5e 49 3d ff c7 d4 3e ac 09 40 be a7 f4 39 be
       0.04916221 0.41558835 -0.1875369 -0.18159734
000220 0e 2e 27 3e da c5 ab 3e 9c c1 56 3e 9c 9e 7a 3e
       0.16326162 0.33549386 0.20972294 0.24474567
000230 66 bb 58 3c f1 48 c9 3c 72 ef 41 bf 86 78 04 be
       0.013228273 0.024570914 -0.7575599 -0.12936601
000240 bf 87 97 3d db ac 01 bf e1 4b 7c bf 41 b2 af 3e
       0.073989384 -0.5065438 -0.9855328 0.34315684
000250 38 6f c5 be 48 0d d5 be d7 77 dc bc 22 57 de bd
       -0.38561416 -0.41611695 -0.026912613 -0.10856463
000260 36 c8 a7 be 00 31 a2 3c 2c 95 14 be 5d ed 61 3c
       -0.32769936 0.019798756 -0.1451003 0.013789502
000270 8c ed 07 bf 69 dd cd 3d bb d1 f0 3e 0d 74 28 bf
       -0.5309684 0.10051996 0.47035012 -0.6580208
000280 5e 09 39 3d 6e 77 6c be 49 62 be be a5 91 19 bf
       0.04517495 -0.23092434 -0.3718436 -0.5998786
000290 5c 87 47 3d e3 78 15 3f 8e 64 5d 3e 04 7e 75 3e
       0.048713073 0.58387583 0.2162039 0.23973852
0002a0 b8 ea f1 3d 2b 88 0a 3e 20 5e 28 bf a2 49 f8 bd
       0.11812347 0.13528506 -0.65768623 -0.12123419
0002b0 1d 5f 9d be 0c 83 ec bc 9a 92 75 be ba 2c dd 3e
       -0.30736628 -0.028871082 -0.23981705 0.43198186
0002c0 ea 1a bd 3d 2d 91 46 3e 1b e7 42 bd d2 d1 fb 3e
       0.09233649 0.19391318 -0.04758368 0.49183518
0002d0 37 b2 03 3f b6 bb cd 3e c0 93 24 3f 6b 41 5e be
       0.5144381 0.40182275 0.6428795 -0.21704642
0002e0 7a 78 0d 3f ff ae 1f 3e cf 5b f5 3e 51 03 35 3e
       0.5526196 0.155941 0.47921607 0.17677046
0002f0 ee 3f 4c be 87 bc 5a bf b4 b9 b8 be 98 38 2e bd
       -0.19946262 -0.8544392 -0.3607918 -0.04253444
000300 34 b4 9b bb 3a e9 8f 3e 12 fb 5e 3d a5 6d 80 be
       -0.0047517065 0.28107625 0.054438658 -0.25083652
000310 e3 26 06 bf 45 93 b2 be e3 b9 57 3e 3f 22 5e 3e
       -0.52403086 -0.34877983 0.21067004 0.21692751
000320 1b f7 68 bf 90 93 9f bd a6 08 50 3e c9 8d bb be
       -0.91002053 -0.07791817 0.20315799 -0.3663161
000330 39 db d5 bd 12 7d de 3e 0e 81 b8 3d 7d e3 40 be
       -0.10442204 0.43454796 0.0900899 -0.1883678
000340 39 37 82 3e 66 1d 1e 3e ac 1a d7 bd 12 f0 b1 bd
       0.25432757 0.15440902 -0.10503134 -0.08688368
000350 46 88 31 be 6d a6 8e 3d d9 30 01 3e 25 70 ba be
       -0.1733714 0.06965337 0.1261629 -0.36413684
000360 fe d3 08 bf 4a b7 ef 3e 4f 1c e2 be e2 95 ea bd
       -0.53448474 0.46819526 -0.44162223 -0.11454369
000370 7c ca 59 3e e1 d4 b9 be 7c 2d 1e bf 22 f7 c2 3e
       0.21268648 -0.36295226 -0.61788154 0.38079172
000380 b4 7b 15 bf 26 83 b0 bd 96 8f 3c bf 80 16 f0 3c
       -0.5839188 -0.086187646 -0.73656595 0.029307604
000390 89 b6 62 be dc 4d 5b bd df fe 61 bd e9 45 0d bd
       -0.22139944 -0.05354105 -0.055174705 -0.0344905
0003a0 1b 0e 00 3f 36 4b 2b bf 2f 5b de 3e 27 8c af 3e
       0.50021523 -0.6691164 0.43428943 0.34286615
0003b0 d9 d8 cb be de da 19 3d 02 68 48 be 72 3a b9 be
       -0.3981388 0.037562244 -0.19570926 -0.36177403
0003c0 a5 4e 88 3e 61 a5 86 be cc 05 8d 3d d2 f6 5a 3e
       0.266225 -0.2629805 0.06885871 0.21383217
0003d0 f8 12 a6 3e ca 4e c9 bc 67 38 16 3f ea 7e 0a bf
       0.32436347 -0.024573702 0.58679813 -0.54099905
0003e0 7f 3d 1a be 40 80 e6 bd e1 0e 24 bf 6f fd 35 3e
       -0.15062521 -0.112549305 -0.64085203 0.17772458
0003f0 84 65 c6 3d 09 f2 60 bf 40 be bd 3c 86 4d 62 3e
       0.09687331 -0.87869316 0.023162007 0.22099885

bias f4 [64]
000000 11 7f 28 be 81 ab 75 bc df 92 26 bf c4 4b 23 3f
       -0.16454722 -0.014994503 -0.6506786 0.63787484
000010 69 7d 76 be 3a 6d 5b 3d 1d 85 7e 3f ac c2 ed be
       -0.24071278 0.053570963 0.99421865 -0.46437585
000020 3f ac ab bf 40 e9 55 3e 25 e3 9e 3f 05 03 55 bf
       -1.341194 0.20889759 1.2413069 -0.8320773
000030 08 e5 5c bf af 5a dc be 7f 2c 81 3f 5c c0 54 3f
       -0.86286974 -0.43037936 1.0091704 0.8310602
000040 00 70 d0 be ec 8f 94 bd 52 c0 b3 3e e4 e7 d2 3f
       -0.4071045 -0.072540134 0.35107666 1.6477017
000050 32 49 91 3f ce eb 83 3f 90 31 9b 3f 87 12 ab be
       1.1350462 1.0306337 1.21245 -0.33412573
000060 22 ab e5 3f ad e8 b0 3d 36 ad 26 be 43 e2 ff bd
       1.794285 0.086381294 -0.16277012 -0.12494328
000070 99 e9 99 3f 0b 15 b9 be 10 19 8a 3e 88 dc 26 3e
       1.2024413 -0.36148867 0.26972246 0.16295063
000080 37 d1 73 3f 1a 30 1b be 14 ee b7 3f e9 a3 ac be
       0.9524111 -0.15155068 1.4369531 -0.33718804
000090 64 65 c6 3e 1e 87 87 3f 3e 0e dd 3f 97 0b 85 bd
       0.3874923 1.058811 1.7269971 -0.06496351
0000a0 9b 5d 00 bf ed 63 58 3f f0 8c ec be f1 6e 74 bf
       -0.5014283 0.84527475 -0.46201277 -0.95481783
0000b0 79 fd d1 be 78 9b e5 bd 84 8e 62 3f a8 28 cf be
       -0.41013697 -0.11211294 0.8849871 -0.40460706
0000c0 85 38 d4 3f dd 48 4b 3f b6 c6 12 bf c3 c0 91 bf
       1.6579748 0.79408056 -0.5733446 -1.1386951
0000d0 5c e4 a1 be 5c 40 41 bf d0 70 e0 bd 95 f8 4c 3f
       -0.31619537 -0.7548883 -0.10959017 0.80066806
0000e0 8c 28 41 bf ef 94 8e 3f 8a f0 40 bd 83 e1 a3 3f
       -0.75452495 1.1139201 -0.047104396 1.2803196
0000f0 48 11 92 3f 41 e8 a0 be 19 b0 a5 3f 0a 6b 02 bd
       1.1411524 -0.31427196 1.2944366 -0.03184036

weight f4 [1, 64]
000000 67 19 b5 3d 6b 5c fb 3d 50 4c fd bc 42 2c 9b bd
       0.08842736 0.12273487 -0.030920178 -0.07576801
000010 6f 00 92 bc 53 b4 62 3c ed 64 32 be e6 5d 42 3d
       -0.017822472 0.013836938 -0.17421313 0.04745283
000020 d1 f8 ae 3d a0 2f cf 3d e1 ea 54 be 03 75 06 3e
       0.08543552 0.101165056 -0.20792724 0.13130574
000030 ec 12 22 bc 20 ba d2 3d 90 e8 3d be d2 82 c8 bc
       -0.009892207 0.10289407 -0.18545747 -0.024476442
000040 2f f3 f0 3c 4a 29 dd 3d a0 9b 36 3e b8 f3 a4 be
       0.029412834 0.10798891 0.17832804 -0.32217193
000050 ad 90 88 bd 53 a3 6a bd ab 03 ed bd ee 3e 17 3d
       -0.0666822 -0.057284664 -0.11572965 0.03692525
000060 48 41 f2 bd 20 29 13 3e d2 43 80 3d 49 e9 04 3e
       -0.11828858 0.14371157 0.06262936 0.12979616
000070 f5 07 73 be b4 8c 48 3c 5a ce 82 3e 60 5e 82 bd
       -0.23733504 0.0122405775 0.2554806 -0.06365657
000080 00 2f 98 bd 2c f9 98 3d 55 40 9f be 2a e6 8a 3d
       -0.074308395 0.07469401 -0.3110377 0.067821816
000090 91 2d 3a 3e ae d8 0f be e7 fc b7 be 60 c9 d2 3d
       0.18181445 -0.140475 -0.35935137 0.102923155
0000a0 24 d0 8c 3d c8 c3 52 be a7 b6 ab 3c 76 7b 05 3e
       0.06875637 -0.20582497 0.020961119 0.13035378
0000b0 32 0a bf 3d 9b a7 c4 3d f0 67 aa bc ed 24 c5 3d
       0.093281165 0.09602281 -0.020801514 0.09626184
0000c0 cb 9e 8d be 98 8d e7 bc ba b7 59 3d 52 83 15 3e
       -0.27660212 -0.02826576 0.05315373 0.14600876
0000d0 84 8b 73 bd 53 31 6a 3d a1 83 f0 3d d9 72 42 be
       -0.059459224 0.057175945 0.11743856 -0.18989123
0000e0 5b e3 fb bc a9 49 93 be 85 59 03 3e 53 cf 16 be
       -0.03074806 -0.28767136 0.12827118 -0.14727525
0000f0 75 00 9d be 92 b4 af 3c d3 23 d2 3c ee 29 08 3e
       -0.3066441 0.021448407 0.025651848 0.13297245
