models/testmodel.pth (torch, 856683 bytes, 5 tensors)

weight f4 [256, 768]
0.003352808 0.21726452 0.015399432 -0.105899 0.06331778 -0.028000783 0.016892092 0.059690226
-0.005044681 -0.13132182 0.23514847 0.063100666 0.054002855 0.025680356 -0.0738427 0.13541932
-0.005632238 -0.030635478 0.08099761 -0.063687466 -0.07473241 0.022297109 0.18369338 0.037695486
-0.023792967 -0.020525549 -0.10802418 0.053514376 0.076273724 -0.05217493 0.013640109 -0.009051039
-0.0038947389 0.05490479 -0.09803754 -0.07752106 -0.071434155 0.06681572 -0.03804869 -0.093359746
0.027967272 -0.05110203 0.039917782 -0.22639947 -0.14097597 0.020502122 -0.018520104 0.09926312
0.010698809 0.093666114 -0.030760178 0.052159857 0.00027370485 -0.0052917046 -0.09237592 -0.05047545
0.048786942 0.050172918 0.24446552 -0.07958053 0.016810358 0.06939225 0.016594246 0.1630838
-0.020659912 0.17197552 -0.13327207 -0.089889206 -0.0058241743 0.01852133 -0.054436244 0.022715924
0.039344504 0.08220989 0.23366609 -0.0011948358 0.22779003 -0.06459196 0.0028378684 -0.120133795
-0.15082872 -0.017624931 0.0408195 0.08630841 -0.08935939 0.002659083 0.044050142 0.006291904
-0.12479633 -0.055294342 0.04653276 -0.08943197 -0.06416198 -0.08428494 -0.033483163 -0.014406704
0.2647711 0.23710796 -0.004003021 0.018129535 0.11896206 -0.1772277 0.052275956 -0.02174115
-0.119762555 -0.05617346 0.032281477 0.057305206 -0.05917855 -0.028942859 -0.040317167 -0.027574344
-0.00053486985 -0.11780553 -0.027971307 0.0770665 0.0103018405 0.1306674 -0.17875677 0.056527644
-0.10309364 -0.009523691 0.04141881 -0.06470362 0.08135326 0.037541937 -0.01678238 -0.08739959
-0.10850203 0.023328595 0.10994882 -0.03067526 0.23060866 0.03217357 -0.098832615 -0.019551786
-0.012585276 -0.0098602455 -0.032086916 -0.085426725 -0.031008443 -0.21020323 0.024626961 0.046602853
-0.06629494 -0.22302477 0.08906855 0.10638985 0.049145747 -0.0068502924 -0.07082918 0.035182063
-0.04816971 -0.06836477 -0.0683545 0.010252825 0.008195513 0.23791179 0.07712779 -0.00081685215
0.048253223 -0.061356984 0.098976165 0.08863758 0.131308 -0.10764364 -0.053624377 -0.0081842095
-0.04278043 0.055652544 0.14613317 -0.031684916 0.0778037 -0.15136716 -0.04048279 -0.19686268
0.03024038 -0.009832594 0.08193433 -0.07786574 0.09267012 -0.00247863 -0.009868377 0.05863658
0.059529956 -0.05053895 -0.0688346 -0.0323881 0.09068605 0.022516605 -0.13137542 -0.020387823
0.040125042 -0.10639092 0.0009918202 0.20844285 -0.099760756 -0.02213254 0.036681686 -0.13594517
-0.032218486 0.008356821 -0.061596643 0.084702484 0.056617994 0.02058083 0.058200847 0.0238735
-0.10482714 -0.0049590836 0.1363477 0.10926133 -0.045650613 -0.09164987 -0.054339107 -0.03867949
-0.06547877 -0.015746268 0.15718296 0.0036736499 -0.13358347 -0.075878665 0.035398617 0.021039695
-0.010457013 -0.1463124 0.074697085 0.0015808728 -0.3106273 -0.009403088 -0.056413677 -0.18239513
0.19644855 0.018602472 -0.0033499734 -0.0022704487 0.016675495 0.15163936 0.12669171 0.101192154
0.012271841 0.030492986 -0.052441854 0.011811218 0.06010909 -0.022339674 0.050786983 -0.061852552
-0.10034769 0.0008436852 -0.030238006 -0.009849799 0.20873408 0.00984044 -0.08985726 0.016770428
00000000: c9ba 5b3b 977a 5e3e e64d 7c3c 93e1 d8bd
00000010: c1ac 813d e661 e5bc 4961 8a3c bd7d 743d
00000020: da4d a5bb 3a79 06be c3ca 703e ec3a 813d
00000030: 1932 5d3d 9c5f d23c d73a 97bd 5dab 0a3e
00000040: a38e b8bb 41f7 fabc 13e2 a53d 936e 82bd
00000050: 4e0d 99bd 6da8 b63c 1e1a 3c3e 9566 1a3d
00000060: 78e9 c2bc 3225 a8bc c83b ddbd e431 5b3d
00000070: 6635 9c3d 61b5 55bd c47a 5f3c cf4a 14bc
00000080: e03e 7fbb d8e3 603d e8c7 c8bd 5dc3 9ebd
00000090: 124c 92bd aed6 883d f1d8 1bbd 6533 bfbd
000000a0: 9f1b e53c 5d50 51bd d480 233d 43d5 67be
000000b0: 015c 10be 11f4 a73c 79b7 97bc 764a cb3d
000000c0: 0f4a 2f3c 05d4 bf3d c5fc fbbc 93a5 553d
000000d0: 0b80 8f39 0966 adbb 962f bdbd 58bf 4ebd
000000e0: d1d4 473d 1e82 4d3d 2b55 7a3e 1efb a2bd
000000f0: e0b5 893c 861d 8e3d a8f0 873c 71ff 263e
00000100: fa3e a9bc 5a1a 303e 7978 08be d517 b8bd
00000110: b7d8 bebb 0bba 973c 8af8 5ebd bf16 ba3c
00000120: b427 213d a95d a83d 2a46 6f3e 099c 9cba
00000130: ca41 693e ca48 84bd 88fb 393b b508 f6bd
00000140: d872 1abe 2962 90bc 5932 273d 77c2 b03d
00000150: 0e02 b7bd 0344 2e3b ec6d 343d 512c ce3b
00000160: 3895 ffbd 527c 62bd 2399 3e3d 1c28 b7bd
00000170: 5b67 83bd 959d acbd a425 09bd 190a 6cbc
00000180: 1490 873e 6ecc 723e c62b 83bb 6484 943c
00000190: 61a2 f33d 2e7b 35be 501f 563d 7f1a b2bc
000001a0: 1246 f5bd 2416 66bd 9539 043d ddb8 6a3d
000001b0: 3565 72bd 9319 edbc 9d23 25bd 97e3 e1bc
000001c0: 8236 0cba 0744 f1bd 1524 e5bc 0bd5 9d3d
000001d0: 0dc9 283c adcd 053e 040c 37be 8889 673d
000001e0: c222 d3bd 4109 1cbc c5a6 293d 5583 84bd
000001f0: 8a9c a63d 93c5 193d 347b 89bc 8efe b2bd
00000200: 5036 debd 9c1b bf3c d92c e13d af4a fbbc
00000210: ad24 6c3e 6fc8 033d c168 cabd 112b a0bc
00000220: 7932 4ebc de8c 21bc 926d 03bd 35f4 aebd
00000230: 6b05 febc 843f 57be 7bbe c93c a2e2 3e3d
00000240: a4c5 87bd 9b60 64be 9269 b63d ece2 d93d
00000250: 0d4d 493d 6b78 e0bb e40e 91bd 111b 103d
00000260: 9a4d 45bd d402 8cbd 72fd 8bbd 77fb 273c
00000270: 7946 063c 269f 733e 2df5 9d3d 0522 56ba
00000280: 2ca5 453d 7651 7bbd 04b4 ca3d 9f87 b53d
00000290: 9b75 063e 4574 dcbd 3ca5 5bbd 1017 06bc
000002a0: 883a 2fbd ecf3 633d efa3 153e 0bc8 01bd
000002b0: 8c57 9f3d feff 1abe 48d1 25bd 5f96 49be
000002c0: acba f73c e318 21bc 30cd a73d 1378 9fbd
000002d0: d5c9 bd3d 8370 22bb f9ae 21bc e92c 703d
000002e0: afd5 733d ee01 4fbd 28f9 8cbd 62a9 04bd
000002f0: 9cb9 b93d be74 b83c 4787 06be 5d04 a7bc
00000300: 285a 243d 7ce3 d9bd f7ff 813a 0b72 553e
00000310: 5e4f ccbd 4d4f b5bc 893f 163d 3635 0bbe
00000320: 88f7 03bd 0ceb 083c c34c 7cbd 7f78 ad3d
00000330: 45e8 673d 2199 a83c 0364 6e3d 5c92 c33c
00000340: 9daf d6bd cf7f a2bb bb9e 0b3e 67c4 df3d
00000350: 23fc 3abd edb2 bbbd af92 5ebd 636e 1ebd
00000360: bc19 86bd 51fe 80bc 92f4 203e 9ec1 703b
00000370: 1bca 08be 4666 9bbd 24fe 103d 705b ac3c
00000380: e453 2bbc ebd2 15be c9fa 983d 4a35 cf3a
00000390: 8b0a 9fbe 690f 1abc 0712 67bd cac5 3abe
000003a0: cf29 493e 3664 983c 3a8b 5bbb cfcb 14bb
000003b0: 0c9b 883c 5947 1b3e 79bb 013e d53d cf3d
000003c0: d50f 493c 6dcc f93c 45cd 56bd d783 413c
000003d0: f334 763d b101 b7bc 0306 503d 1a59 7dbd
000003e0: 1783 cdbd c12a 5d3a b2b5 f7bc 0d61 21bc
000003f0: 63be 553e cc39 213c 1507 b8bd 2362 893c

bias f4 [256]
0.021338 0.002139584 0.005118049 -0.0037711486 -0.0042915237 -0.015093577 -0.016130395 -0.021339081
0.022216989 0.004068912 0.0028930984 0.0051564425 -0.0043102806 -0.03497534 0.01454485 0.004177931
-0.003466826 0.017479718 -0.02135496 0.00058557093 -0.020386577 0.0139982365 -0.024672275 0.025428254
0.01576183 -0.030592544 -0.0074627986 0.004114229 -0.014121107 -0.04179652 -0.0029424224 0.007509561
-0.045154132 0.00017919423 -0.03347755 -0.022121383 -0.02216007 0.025675902 -0.025632622 -0.011762523
-0.051171552 -0.050255373 -0.013066107 -0.0077315783 0.0012956749 0.008578873 -0.032543104 -0.016313644
0.020469837 -0.03824744 -0.0011564041 0.01401109 -0.036780007 0.006771216 -0.010269623 -0.021122891
-0.0019113161 -0.020672176 -0.027069312 -0.017091285 0.010385276 -0.03860404 -0.024810031 -0.01602902
-0.027317137 0.016274314 -0.04143922 -0.032268137 0.0051934086 -0.027640004 0.007500054 -0.007985946
-0.021998955 -0.060933936 -0.01739547 -0.04489076 -0.00054646283 -0.032202594 -0.03323872 -0.0020065745
0.0040504956 -0.0050472505 -0.045394287 -0.005111972 0.012016325 -0.013089846 -0.03373787 -0.001969735
0.020135913 0.0033396594 0.0112656765 -0.030843712 0.017578984 -0.007196013 -0.030862307 -0.051097933
0.005365267 -0.027996162 0.050223637 -0.022641975 -0.0021757914 0.022102423 0.009066962 -0.035807427
0.035579354 -0.053716842 0.009745516 0.0037600105 0.0021101385 -0.049516246 0.057856675 0.026283123
-0.021535372 -0.0018272102 -0.036288634 0.011275023 -0.0017518048 0.025877126 0.013026783 -0.008164563
0.008688241 -0.028861027 -0.034738194 -0.05215661 -0.02472764 -0.03891648 -0.007102935 -0.002058983
-0.010696181 -0.019791212 -0.010093777 0.017468134 0.022349373 0.031208456 0.004971054 -0.017523106
-0.03701399 -0.045494486 0.02450686 -0.030631287 -0.036810156 -0.031814583 0.019877072 -0.039852828
0.019243706 0.0146453045 -0.033405006 -0.054422077 -0.012391665 -0.0014941377 -0.043558575 0.007782918
-0.050980937 -0.013967544 0.030131996 -0.04659219 0.0030871346 -0.018154442 -0.032943856 -0.03589988
0.0007378328 0.015179255 -0.024718484 0.01139235 -0.016299201 -0.018432776 0.027309991 -0.03294758
0.044231508 0.013338567 0.015770676 0.018266022 0.017768074 0.010858215 0.0025564802 0.0011113727
0.043342587 -0.0066681183 0.0023429366 -0.024794206 -0.0032160843 -0.04139603 -0.01743976 -0.047732715
0.013559704 -0.015129387 -0.050389364 -0.020953218 -0.001257653 -0.006965475 -0.021935372 0.01626233
-0.0034016445 -0.043201733 0.010588281 -0.011525868 -0.029893417 0.009543202 0.0077211536 0.027462937
-0.038071103 -0.03220485 -0.0022440536 -0.015245072 0.014339825 0.022625089 -0.013497522 -0.019155629
-0.03938081 0.03949503 0.037197858 0.032814495 -0.0043307757 0.023231143 0.033278756 -0.007782008
-0.016450027 -0.012407102 0.0005891494 -0.025661012 0.00017497677 -0.030782137 0.02529483 0.045327634
0.008696992 -0.010244335 0.0012038127 0.009439873 0.0050655324 -0.04165107 0.025919016 -0.038555004
0.02010159 0.0013127011 -0.045302182 -0.0547093 0.016729148 0.027147155 -0.011240154 -0.047334477
0.0030602263 0.017994668 0.030660808 0.02625883 -0.030449428 0.0050361236 0.018461687 0.003836212
-0.0017071404 -0.026824152 -0.002355798 0.036096632 0.034321345 0.019061722 -0.0080396235 -0.017059878
00000000: 08cd ae3c 4338 0c3b 4fb5 a73b 6025 77bb
00000010: e99f 8cbb 0d4b 77bc e423 84bc 4ccf aebc
00000020: 6700 b63c 8254 853b 239a 3d3b 60f7 a83b
00000030: 413d 8dbb 4d42 0fbd 864d 6e3c 07e7 883b
00000040: b033 63bb a031 8f3c 99f0 aebc 0081 193a
00000050: c001 a7bc dc58 653c 831d cabc ea4e d03c
00000060: f41e 813c 379d fabc 7e8a f4bb a8d0 863b
00000070: 375c 67bc d432 2bbd a8d5 40bb c312 f63b
00000080: 8af3 38bd 16e6 3b39 c11f 09bd e737 b5bc
00000090: 0989 b5bc 4556 d23c 81fb d1bc 99b7 40bc
000000a0: 4399 51bd 94d8 4dbd 3a13 56bc 2e59 fdbb
000000b0: a3d3 a93a 678e 0c3c eb4b 05bd 31a4 85bc
000000c0: 5cb0 a73c 59a9 1cbd 7c92 97ba c58e 653c
000000d0: a2a6 16bd 14e1 dd3b ec41 28bc ea09 adbc
000000e0: 2085 faba b258 a9bc 76c0 ddbc 0603 8cbc
000000f0: 0127 2a3c 451f 1ebd 683e cbbc 4b4f 83bc
00000100: 30c8 dfbc b651 853c 2cbc 29bd 982b 04bd
00000110: 782d aa3b 4a6d e2bc 03c3 f53b 7cd7 02bc
00000120: 2737 b4bc dd95 79bd f280 8ebc 60df 37bd
00000130: 8040 0fba dee6 03bd 5325 08bd bc80 03bb
00000140: 05ba 843b 6863 a5bb 5cef 39bd 5482 a7bb
00000150: 1fe0 443c cb76 56bc b930 0abd ab16 01bb
00000160: 12f4 a43c 30de 5a3b ac93 383c f4ab fcbc
00000170: cd01 903c 88cc ebbb f3d2 fcbc 114c 51bd
00000180: 1fcf af3b 3558 e5bc 4db7 4d3d aa7b b9bc
00000190: b997 0ebb 2410 b53c 988d 143c cfaa 12bd
000001a0: a8bb 113d 3106 5cbd a8ab 1f3c 826a 763b
000001b0: 404a 0a3b 8cd1 4abd 1ffb 6c3d b44f d73c
000001c0: f36a b0bc 007f efba 64a3 14bd e0ba 383c
000001d0: d19c e5ba 44fc d33c 4a6e 553c a9c4 05bc
000001e0: 2059 0e3c f66d ecbc a349 0ebd 2ba2 55bd
000001f0: 9f91 cabc e366 1fbd bdbf e8bb 01f0 06bb
00000200: 093f 2fbc 2e21 a2bc 5f60 25bc 5519 8f3c
00000210: 0816 b73c e0a8 ff3c 39e4 a23b 9e8c 8fbc
00000220: fb9b 17bd 6d58 3abd 9cc2 c83c 77ee fabc
00000230: 3fc6 16bd 0250 02bd 3ed5 a23c b83c 23bd
00000240: faa4 9d3c dcf2 6f3c b0d3 08bd afe9 5ebd
00000250: 6906 4bbc f1d6 c3ba 7a6a 32bd d907 ff3b
00000260: 63d1 50bd 20d8 64bc 60d7 f63c 74d7 3ebd
00000270: 8651 4a3b a0b8 94bc 23f0 06bd c10b 13bd
00000280: 1f6b 413a 69b2 783c 6b7e cabc fba6 3a3c
00000290: e785 85bc 5500 97bc 34b9 df3c 0bf4 06bd
000002a0: 192c 353d 018a 5a3c 8131 813c a0a2 953c
000002b0: 5a8e 913c a8e6 313c 9f8a 273b 7bab 913a
000002c0: ff87 313d 3b80 dabb f48b 193b 381d cbbc
000002d0: f1c4 52bb e28e 29bd d4dd 8ebc 6183 43bd
000002e0: 8529 5e3c 40e1 77bc 1465 4ebd 15a6 abbc
000002f0: d5d7 a4ba a43e e4bb cfb1 b3bc 9438 853c
00000300: 20ee 5ebb 4df4 30bd 787a 2d3c ffd6 3cbc
00000310: 0ae3 f4bc 175b 1c3c bb01 fd3b f4f9 e03c
00000320: 72f0 1bbd 3ce9 03bd f910 13bb 77c6 79bc
00000330: 96f1 6a3c 4058 b93c b624 5dbc 44ec 9cbc
00000340: c64d 21bd 8ac5 213d c85c 183d 7e68 063d
00000350: 2ee9 8dbb 3d4f be3c 4e4f 083d 3700 ffbb
00000360: 35c2 86bc 2847 4bbc 2671 1a3a 0b37 d2bc
00000370: f879 3739 d22a fcbc 1a37 cf3c 78a9 393d
00000380: d47d 0e3c dbd7 27bc 40c9 9d3a b2a9 1a3c
00000390: c4fc a53b 509a 2abd 1e54 d43c daeb 1dbd
000003a0: 17ac a43c f10e ac3a c88e 39bd dc16 60bd
000003b0: 910b 893c b663 de3c 9f28 38bc cce1 41bd
000003c0: 148e 483b 8e69 933c 602c fb3c c21c d73c
000003d0: 1471 f9bc 1106 a53b f73c 973c f568 7b3b
000003e0: 20c2 dfba 53be dbbc bb63 1abb 10da 133d
000003f0: 8a94 0c3d 5427 9c3c a0b8 03bc 28c1 8bbc

weight f4 [64, 256]
-0.11773927 -0.029834926 -0.030896544 -0.18621354 -0.022294175 0.053692237 0.02112288 0.048573233
-0.08146397 0.0610065 0.048604667 -0.053277783 0.009119343 -0.04702822 -0.01021806 -0.061507717
-0.028864006 -0.04629115 -0.07558401 0.0059645995 -0.0061096475 -0.042226724 -0.030988365 -0.013029915
-0.17466645 -0.032867193 0.015695337 0.011954619 -0.076674715 -0.031873003 0.0022795307 -0.04135094
0.0010784209 -0.005581035 -0.048714958 -0.28824434 -0.05453146 -0.03710111 0.009905506 -0.19951697
-0.008286096 0.023202002 -0.052036583 0.009248093 0.014829092 -0.023772396 -0.042377554 -0.055339415
-0.18143654 0.0053023994 -0.02475044 -0.01551245 0.013620451 0.019352173 -0.06974388 0.020298783
0.030497193 -0.00029292528 -0.11887163 0.03802467 0.0067585045 0.024915053 -0.0035702335 -0.14718853
-0.06033022 -0.019998005 0.03925781 -0.035785813 -0.02506602 -0.024833063 -0.07073829 -0.081326455
-0.0058960915 0.008521373 -0.09960196 0.017391168 0.046124794 -0.07109148 0.03793806 -0.067038134
0.015525973 0.017330235 0.040254723 -0.0017360076 -0.027429884 -0.06663844 0.108703606 -0.02438994
-0.042381708 -0.020609982 -0.20341186 0.011384626 -0.05328446 -0.095864534 0.005192602 0.07399982
0.070626624 -0.038412385 -0.02692741 0.009653086 0.029979633 0.009873524 0.090596125 -0.106163636
-0.14877115 -0.06351324 -0.025962994 -0.038782246 -0.057021208 0.0003670521 0.16334212 -0.074192815
-0.027299225 0.018694028 0.1213535 0.020656051 -0.08701307 -0.003669358 0.052602924 -0.0842464
-0.08455133 -0.01543254 -0.13886768 -0.02345634 -0.04211375 -0.05614444 -0.009093309 -0.03857757
-0.20992026 0.036923386 -0.17733963 0.039439753 0.045625404 -4.0775063e-05 -0.061545342 -0.12854019
-0.049059443 0.018304594 -0.041948244 -0.05090075 -0.04808663 -0.042522013 -0.07438712 -0.13004115
0.006412834 -0.023277588 -0.042863827 -0.082562 0.0014022436 -0.14344202 -0.060573544 0.0012092069
0.017405147 0.034928154 -0.04154441 0.00041162642 -0.0137350205 -0.02931162 -0.026426295 -0.2444028
0.028403508 0.040420294 -0.19051982 -0.036935516 0.058184475 -0.05018589 -0.1317117 -0.07204061
0.16936892 -0.040635366 -0.05094982 0.008401196 0.00025710464 -0.043260034 -0.036341146 -0.03264528
-0.06757122 0.039978486 0.039177857 -0.04960857 0.02674225 -0.07154255 0.01766222 -0.046890512
-0.08948959 0.023925766 -0.044413336 0.04207604 0.024554169 0.0079603335 -0.008845095 -0.02103099
-0.0054161474 -0.082462266 -0.040259838 -0.06433502 0.05879771 -0.04392988 -0.013011247 -0.033713855
0.040935036 -0.008673437 -0.038382955 0.042447563 -0.0083866585 -0.06382637 0.30491066 -0.05150955
-0.018683173 -0.03780223 -0.04361616 -0.123805575 -0.03360929 -0.086828575 -0.073953226 -0.03678523
-0.025501285 -0.045006312 -0.009380513 0.00885639 -0.021396436 -0.1198181 -0.05320953 -0.0057089566
0.03301183 -0.16479202 -0.0038569123 -0.13665187 -0.10675084 -0.02945649 -0.08736399 -0.01700692
-0.053413354 0.032451563 0.01514966 -0.021459999 -0.15155192 -0.1426369 -0.018515931 -0.0010441716
0.048182078 -0.0440124 -0.1084656 -0.11935664 -0.022400327 0.011587054 0.026574383 -0.054873493
0.0589054 0.033488173 -0.014096902 -0.17971529 0.016198885 -0.20112027 -0.026069056 0.043472923
00000000: 4921 f1bd 6068 f4bc c01a fdbc c3ae 3ebe
00000010: 46a2 b6bc 64ec 5b3d e409 ad3c baf4 463d
00000020: 95d6 a6bd f4e1 793d b015 473d ce39 5abd
00000030: 4c69 153c aaa0 40bd a669 27bc 84ef 7bbd
00000040: 3574 ecbc ca9b 3dbd cacb 9abd b072 c33b
00000050: 7033 c8bb eef5 2cbd 50db fdbc 6d7b 55bc
00000060: c3db 32be c09f 06bd 8293 803c 4edd 433c
00000070: a207 9dbd 448d 02bd 2e64 153b 9a5f 29bd
00000080: cd59 8d3a 1de1 b6bb 5689 47bd c394 93be
00000090: 615c 5fbd 55f7 17bd b44a 223c 2d4e 4cbe
000000a0: 68c2 07bc 2012 be3c 5024 55bd 5085 173c
000000b0: b8f5 723c 54be c2bc 1694 2dbd 95ab 62bd
000000c0: 80ca 39be c0bf ad3b 6fc1 cabc ee27 7ebc
000000d0: 5028 5f3c 7388 9e3c e1d5 8ebd a249 a63c
000000e0: 40d5 f93c c493 99b9 f872 f3bd c2bf 1b3d
000000f0: 7276 dd3b a71a cc3c 94fa 69bb 97b8 16be
00000100: d21c 77bd dbd2 a3bc cccc 203d 2594 12bd
00000110: 4157 cdbc b56e cbbc 3ddf 90bd 7c8e a6bd
00000120: 0034 c1bb 3b9d 0b3c 1dfc cbbd ec77 8e3c
00000130: 5aed 3c3d 6998 91bd f064 1b3d 4a4b 89bd
00000140: a760 7e3c 23f8 8d3c 23e2 243d c08a e3ba
00000150: a3b4 e0bc bc79 88bd ff9f de3d 69cd c7bc
00000160: 7198 2dbd 44d6 a8bc 334b 50be 9586 3a3c
00000170: ce40 5abd a054 c4bd b426 aa3b 388d 973d
00000180: b1a4 903d 4e56 1dbd df96 dcbc fa27 1e3c
00000190: d997 f53c 90c4 213c 768a b93d 526c d9bd
000001a0: 7757 18be 3b13 82bd 58b0 d4bc 22da 1ebd
000001b0: 128f 69bd e670 c039 2843 273e 67f2 97bd
000001c0: a0a2 dfbc 3824 993c 2f88 f83d e136 a93c
000001d0: e933 b2bd 9d79 70bb 2a76 573d 6089 acbd
000001e0: 3f29 adbd c4d8 7cbc 5433 0ebe 8327 c0bc
000001f0: 787f 2cbd b6f7 65bd 1afc 14bc 8403 1ebd
00000200: 56f5 56be fa3c 173d 8598 35be 948b 213d
00000210: b4e1 3a3d e405 2bb8 f816 7cbd 0aa0 03be
00000220: 8ef2 48bd 84f3 953c ecd1 2bbd 4e7d 50bd
00000230: 7cf6 44bd 902b 2ebd 4658 98bd 8229 05be
00000240: c022 d23b a4b0 bebc fb91 2fbd 4416 a9bd
00000250: 7dcb b73a 77e2 12be f71b 78bd 407e 9e3a
00000260: 3d95 8e3c d310 0f3d 792a 2abd 90cf d739
00000270: da08 61bc ec1e f0bc f57b d8bc ba44 7abe
00000280: 79ae e83c c08f 253d a117 43be b249 17bd
00000290: d852 6e3d b88f 4dbd 6fdf 06be 078a 93bd
000002a0: 0c6f 2d3e 4571 26bd c2b0 50bd 2ca5 093c
000002b0: 00cc 8639 6f31 31bd 74da 14bd 0fb7 05bd
000002c0: c862 8abd 7bc0 233d f678 203d 5b32 4bbd
000002d0: 9012 db3c e784 92bd 5cb0 903c 4410 40bd
000002e0: 5146 b7bd f8ff c33c c2ea 35bd ed57 2c3d
000002f0: d325 c93c 0f6c 023c 04eb 10bc 2f49 acbc
00000300: f079 b1bb fae1 a8bd 80e7 24bd 14c2 83bd
00000310: ded5 703d d1ef 33bd 202d 55bc 8a17 0abd
00000320: 7fab 273d 081b 0ebc 7237 1dbd 7fdd 2d3d
00000330: 3268 09bc 66b7 82bd 401d 9c3e aefb 52bd
00000340: 740d 99bc 83d6 1abd dca6 32bd c78d fdbd
00000350: e5a9 09bd 2ed3 b1bd ca74 97bd 1cac 16bd
00000360: 12e8 d0bc 8a58 38bd b9b0 19bc 641a 113c
00000370: 9447 afbc 3163 f5bd 3cf2 59bd 3312 bbbb
00000380: 6a37 073d 3dbf 28be 40c4 7cbb 78ee 0bbe
00000390: 2fa0 dabd bd4e f1bc e4eb b2bd 1952 8bbc
000003a0: f6c7 5abd eeeb 043d 4836 783c e1cc afbc
000003b0: 6d30 1bbe 680f 12be b9ae 97bc 96dc 88ba
000003c0: 925a 453d 5946 34bd 3623 debd 4171 f4bd
000003d0: e480 b7bc a0d7 3d3c 85b2 d93c 07c3 60bd
000003e0: ca46 713d e52a 093d b1f6 66bc 4907 38be
000003f0: 86b3 843c 79f2 4dbe c68e d5bc aa10 323d

bias f4 [64]
0.10966455 0.031668246 -0.009699948 -0.016382283 -0.005488266 0.095449194 -0.0044513894 0.105915084
0.03513103 -0.05070672 -0.01652941 0.024182286 -0.025899388 -0.05218937 -0.003618948 -0.0032065993
0.068825 0.003320378 0.06987369 0.013748537 0.03457901 -0.048067052 0.016825505 0.049122185
-0.03500108 0.061706997 0.021407777 -0.028281854 0.107179746 0.02528268 0.07865671 0.01827697
0.014548636 -0.036377143 0.009244165 -0.016754538 0.112970434 -0.030764103 -0.039059836 -0.01247167
-0.028353997 -0.00591257 -0.027934482 0.01774805 0.00609691 0.07548762 -0.07421347 0.12855561
0.08254064 0.0073971353 0.0023710192 0.00963695 -0.052685063 0.14213274 -0.02660308 0.15739596
-0.014980306 -0.05788496 -0.065488026 -0.044679243 -0.008296038 0.089353636 -0.035187427 -0.109949246
00000000: cf97 e03d 90b6 013d 88ec 1ebc 2334 86bc
00000010: e9d6 b3bb de7a c33d f6dc 91bb 02ea d83d
00000020: 8ee5 0f3d dab1 4fbd af68 87bc ee19 c63c
00000030: f42a d4bc 85c4 55bd df2b 6dbb cf25 52bb
00000040: 1ff4 8c3d b39a 593b f019 8f3d 8b41 613c
00000050: b8a2 0d3d f5e1 44bd a4d5 893c 5834 493d
00000060: 4b5d 0fbd 7ac0 7c3d 5d5f af3c 59af e7bc
00000070: 0e81 db3d 9f1d cf3c c516 a13d 96b9 953c
00000080: 675d 6e3c 3300 15bd d774 173c d040 89bc
00000090: 0b5d e73d 0005 fcbc 35fd 1fbd fa55 4cbc
000000a0: a446 e8bc 3bbe c1bb dbd6 e4bc 5c64 913c
000000b0: 97c8 c73b 4199 9a3d 3bfd 97bd 15a4 033e
000000c0: 110b a93d ab63 f23b 1a63 1b3b 4ce4 1d3c
000000d0: 4bcc 57bd 3f8b 113e b4ee d9bc 682c 213e
000000e0: f56f 75bc c818 6dbd 961e 86bd 9501 37bd
000000f0: 1bec 07bc 0aff b63d b120 10bd 122d e1bd

weight f4 [1, 64]
0.23361838 0.15821871 0.09668779 -0.0055245296 0.28932747 0.40083405 -0.18926784 0.22510795
-0.10314044 0.09391191 -0.027486276 0.3211155 0.088927336 -0.08345334 -0.16543442 -0.0948403
0.27133182 0.026628405 -0.17228626 -0.13324434 -0.11851292 -0.07651005 -0.14010344 -0.18092676
0.06994672 -0.119783826 -0.16618334 -0.008819723 0.27130848 -0.086973175 0.41387615 0.0022428122
-0.18977018 -0.15717052 -0.16006212 0.05315849 0.22667725 -0.16039334 -0.13771182 -0.0111642685
-0.15032564 -0.14600387 -0.04727147 -0.057541978 -0.1169765 -0.12858556 -0.008970545 0.29734272
0.3478723 -0.17801714 -0.15118621 -0.19475585 -0.043716073 0.266246 0.037396137 0.47217828
-0.009086062 -0.010443942 -0.10150657 -0.045371395 0.103040665 0.45708033 0.0823112 0.022131257
00000000: a839 6f3e 1604 223e 3f04 c63d 1d07 b5bb
00000010: bb22 943e 1f3a cd3e 6ecf 41be b382 663e
00000020: 4c3b d3bd e354 c03d e62a e1bc 4069 a43e
00000030: 891f b63d 96e9 aabd a467 29be a23b c2bd
00000040: 01ec 8a3e d023 da3c cf6b 30be 3471 08be
00000050: e7b6 f2bd 4db1 9cbd 4777 0fbe dd44 39be
00000060: 3a40 8f3d 3951 f5bd f72b 2abe 9980 10bc
00000070: f2e8 8a3e fe1e b2bd 93e7 d33e 25fc 123b
00000080: 1d53 42be 4ff1 20be 53e7 23be b8bc 593d
00000090: 151e 683e 273e 24be 5404 0dbe 56ea 36bc
000000a0: f7ee 19be 0a82 15be bb9f 41bd 23b1 6bbd
000000b0: 6091 efbd efab 03be 31f9 12bc 4e3d 983e
000000c0: 511c b23e 204a 36be 8fd0 1abe 146e 47be
000000d0: a00f 33bd 6551 883e b12c 193d 5ac1 f13e
000000e0: b5dd 14bc 111d 2bbc ade2 cfbd 5bd7 39bd
000000f0: fc06 d33d 6f06 ea3e c692 a83d 9c4c b53c
